Knowledge Distillation/TAKD/saved/10-2.pth (torch, 57386 bytes, 14 tensors)

conv_layer.0.weight f4 [16, 3, 3, 3]
00000000: 8af1 b53e 3ef5 04bf 31a9 403f fbfc 163f
00000010: 69cb 1dbf 0d62 22bf 1c0b a63e 61d7 f93e
00000020: b77d dcbe 5304 903e 62c1 02bf 5af0 9e3e
00000030: 92f7 213f ff0b ffbe 6c54 44bf a6ac ad3e
00000040: 837d de3e 2276 bcbe e39f 873e 2484 5fbf
00000050: eb48 87be 31ae 8d3f 2330 c9be 00c1 86bf
00000060: f8fc 403f 9467 2a3f 8727 c9be ab7b 663f
00000070: f17d c63e e2d6 7cbf 62c9 983e 8e11 f7be
00000080: 9369 863e 13fb 0fbf 3161 dd3e 8fa2 623e
00000090: ef85 5c3e c419 21be 4881 3dbf ba99 843e
000000a0: 1ed6 22bf 9efe 0e3f ee3d 7bbf 6e09 843d
000000b0: b92f cf3e 4ad6 4a3f 6572 debd 546e 21bf
000000c0: 2e06 a53e bd10 87bf e79b 673e 4b94 08bf
000000d0: c4c4 733d 3f0e 253f 85dd 843f c68a 3f3f
000000e0: a65d ea3e 57da d8be d882 86bf 44ce 89bf
000000f0: c62e 1e3e 9a8b 22bd 464f 293b 9836 aebd
00000100: a1b4 333f c614 043f 763e 82bf 03ad afbe
00000110: bddf 7cbf 7560 64be 86aa 043f 50b0 443e
00000120: 29f7 6ebe 143e 1e3f 5c60 4d3e 1018 5dbf
00000130: 45e9 18be 2811 27bf f50d 553e 14ab 733f
00000140: 6284 b13e b913 55bf fa25 f8be 8cb8 01bc
00000150: bc04 c5be 11bc 1cbf 10ab babe cef6 223e
00000160: 006a 33be b1fe 97be 4dad c5be 209c ee3d
00000170: 9305 833e 5462 ea3d 68db f13d 5a2c 68bc
00000180: 909d 053e 601c cbbe e4f1 31be 92ff 893e
00000190: 7f44 8f3f 7984 3d3f cde0 f63e d8b7 5a3f
000001a0: ee18 df3e 3e08 213e 5a9c 02be a5c5 8ebd
000001b0: 06e5 9cbb afbe 1f3e 9462 313f c2c9 da3e
000001c0: 4b19 b43e eb81 97bc 01f0 f83e 8564 8e3d
000001d0: d50b 17be 82e7 0fbf 4e98 61be e538 bf3b
000001e0: 7788 53be 4fb9 4bbe cb18 21be 2af7 9bbe
000001f0: 6b2b a9be ded5 1c3e 4673 873e c697 f83d
00000200: f140 f8be 725e 183f 69fc ff3e f6b7 eabe
00000210: 1716 0b3f 9697 683e 1687 23bf 4faf 0e3c
00000220: c179 a1be d09b 87bf 3054 46bf 3429 9c3f
00000230: fc24 723d e669 22bd 4023 12bf e397 bb3e
00000240: 8f27 803f 36f0 bd3e d262 f1bd 70e6 90be
00000250: dfc6 cd3f b111 0e3f 09d4 4ebe b6cb 46bf
00000260: f751 1e3f 8ad1 323e b877 09bf a059 afbf
00000270: bd5d 46bf 1b67 a43f 5400 873b c5c2 c73d
00000280: fdda 39bf 8018 fe3d a18b f3be 6026 87bf
00000290: 5d06 833f 64db 963e c632 1fbf 7f72 f2be
000002a0: 7313 a83d dbe2 eb3e 977c 17be ceec 1cbe
000002b0: 046f 17bf 2aa2 333e efc8 243f f241 69be
000002c0: 74fe debe 2926 82be 4661 0a3f d4db e7bd
000002d0: dc01 123e a73e f5be be2d 553e 545b a63e
000002e0: f231 a23d 59ab 0fbf ee64 86bd 5f30 323f
000002f0: d5ba 8bbe 27fe ab3e 14ef 663f 8f20 493f
00000300: 889a c2be 2b03 363e c880 693f 7d27 27bf
00000310: bda3 73bf ff46 9abe 10cf 4dbe 6f0e c83e
00000320: 6f04 893e 1d11 b9be 912e d7be b700 2b3e
00000330: f242 333d d591 60bf 25a2 44be c369 0d3d
00000340: e18e ee3e 72b7 903c 8cac 64be 13e1 39bd
00000350: 0a5e 083f f02d ce3d 2421 7cbe 9da9 a0be
00000360: db66 c2be c708 953d bb39 38bf 86fb 8bbe
00000370: a597 773f da63 ee3d 4895 6ebe 9760 be3f
00000380: cc2c 3e3f 894c 893d 1e26 c93c 2d75 ca3e
00000390: 929e 03bf 74d9 f9be e943 b1be 5dbb f5be
000003a0: 3978 3abf e6c8 2ebf cd54 043f fe6a ac3d
000003b0: bed6 fc3e 6f07 0b3f 8ba8 d2be 51fd 8dbe
000003c0: baa3 153f a750 50bf 6afa ecbe f286 e63e
000003d0: 4b6f 6bbf 01f3 053f 87ad 323f 4b23 a7bf
000003e0: 74ee 523f 1571 1b3f dc04 9ebf fd0a d53e
000003f0: 69bb 3d3e 5766 dabf f884 2a3f dca8 9e3f
0.35535842 -0.5193671 0.75258166 0.5897977 -0.61638504 -0.63430864 0.3243035 0.48797134
-0.43064663 0.281283 -0.5107633 0.3104275 0.6326839 -0.4981384 -0.7669132 0.33920783
0.43455133 -0.36808878 0.2648917 -0.87311006 -0.2642282 1.1068784 -0.39294538 -1.0527649
0.75386 0.665643 -0.3928797 0.9003245 0.3876796 -0.98765385 0.29841143 -0.4825558
0.26252422 -0.56242484 0.43238214 0.22132324 0.21535467 -0.15732485 -0.7402539 0.25898534
-0.63607967 0.55857265 -0.9814137 0.06447111 0.40466097 0.7923323 -0.10861663 -0.6305897
0.32231277 -1.0551983 0.22618066 -0.5335128 0.059513822 0.6447486 1.0380102 0.74821126
0.45774573 -0.4235408 -1.050868 -1.0766072 0.1544753 -0.039683916 0.0025834604 -0.08506507
0.7019749 0.515942 -1.0175312 -0.34311685 -0.987789 -0.2230242 0.518227 0.19207883
-0.23336472 0.61813474 0.2005629 -0.8636484 -0.14932735 -0.65260553 0.20806105 0.9518292
0.34671313 -0.8323322 -0.48466474 -0.007917535 -0.38480175 -0.61224467 -0.36458635 0.15914461
-0.17520905 -0.29686502 -0.3860878 0.11650872 0.2559019 0.11444536 0.118094265 -0.0141707305
0.13048387 -0.39670086 -0.1737743 0.26952797 1.1192778 0.7403026 0.48218384 0.85436773
0.43573707 0.157258 -0.12754956 -0.069712915 -0.004788044 0.15600084 0.69291043 0.42732054
0.35175547 -0.018494567 0.48620608 0.06952766 -0.14750607 -0.5621263 -0.22030756 0.00583564
-0.20657526 -0.19894908 -0.15732114 -0.3046201 -0.33040938 0.15315959 0.26455134 0.121383235
-0.48487046 0.5951911 0.4999726 -0.45843476 0.5433058 0.22714075 -0.63878 0.008708789
-0.31538203 -1.0594425 -0.7747221 1.2200074 0.059117302 -0.039651774 -0.5708504 0.36639318
1.0012072 0.3709733 -0.117864266 -0.2830081 1.6076316 0.55495745 -0.20198072 -0.7765459
0.6184382 0.17462745 -0.536983 -1.3699226 -0.77486783 1.2843965 0.004119912 0.09753946
-0.72599775 0.12407017 -0.47567466 -1.0558586 1.0236317 0.29464257 -0.6218685 -0.4735298
0.08206835 0.46071514 -0.14793621 -0.15324709 -0.5915377 0.1754233 0.643691 -0.22779062
-0.43553507 -0.2541974 0.5405468 -0.11321226 0.14258522 -0.47899362 0.2081823 0.32491553
0.079196826 -0.5612083 -0.065622196 0.6960506 -0.2729098 0.3359234 0.90208554 0.78565305
-0.38008523 0.17774646 0.9121213 -0.6529463 -0.9517172 -0.3013229 -0.2009852 0.39073512
0.26761195 -0.3614587 -0.42027715 0.16699491 0.043765016 -0.8772252 -0.19202478 0.03452469
0.46593383 0.017665599 -0.22331446 -0.045380663 0.5326849 0.10067356 -0.24622017 -0.31379405
-0.37969097 0.07277065 -0.7196309 -0.27340335 0.96715766 0.11640139 -0.23299134 1.4873227
0.74287105 0.06704051 0.024554309 0.39542523 -0.51413834 -0.48798716 -0.34622124 -0.4799451
-0.72839695 -0.68275297 0.51691896 0.08418845 0.49382585 0.5430822 -0.41144213 -0.27732328
0.5845295 -0.81373066 -0.462848 0.4502483 -0.91966695 0.5232392 0.6979603 -1.3057646
0.823951 0.60719424 -1.2345233 0.41609946 0.18528523 -1.7062482 0.66609144 1.2395282

conv_layer.0.bias f4 [16]
00000000: c39b fdbd 004f 78bd c8f2 9ebd a65d 1abe
00000010: 6898 343d e535 923d 1c57 7bbd 3d8d ae3d
00000020: 9e00 09be 8e4a 02bd 4acc 14be 9c5e 633d
00000030: d7d6 423d da21 f73d b2f3 2f3e 5262 eebd
-0.12383225 -0.060622215 -0.077611506 -0.15074787 0.04409066 0.07139186 -0.06136237 0.08523033
-0.13379142 -0.031809382 -0.14531055 0.05551015 0.04756817 0.120670035 0.17182806 -0.11639847

conv_layer.1.weight f4 [16]
00000000: ed5e b23f ae61 9a3f ec38 a93f 21f5 843f
00000010: 459e 953f c5d5 7c3f 9f02 af3f 356f 973f
00000020: f4cc a83f 4dc5 ea3f a18d 6f3f b5af b53f
00000030: 8221 ae3f 044e 9f3f 7328 9d3f 988f a43f
1.3935219 1.206106 1.3220496 1.0387307 1.1688925 0.98763686 1.3672675 1.1830813
1.3187547 1.8341461 0.93575484 1.4194247 1.3603976 1.2445683 1.2277969 1.2856321

conv_layer.1.bias f4 [16]
00000000: 2c39 91be 143e d3be c17b 04be 81fb 0f3e
00000010: 3d77 02bf f09f 9d3c 98ad 23bf ed1d 12be
00000020: cc59 73bf 2da2 e1be c271 18be e8b4 2fbe
00000030: b3cd 93be 816b 19bf 4be5 d5be 3d31 a2be
-0.2836393 -0.412583 -0.12937833 0.14060785 -0.50963193 0.019241303 -0.6393676 -0.14269228
-0.95058894 -0.44069043 -0.14887145 -0.17158854 -0.28867874 -0.5992966 -0.417765 -0.3167819

conv_layer.1.running_mean f4 [16]
00000000: 53a0 42be a1e6 64bf 1ced 36bf f35a 333d
00000010: 21d7 653f 0056 1a3e 1315 a9bf c269 a23c
00000020: a3fc 4fbf fd72 90be f8bc 6dbe 6baf 49be
00000030: f8f5 28be 7f75 943f b6ee ad3f 2120 12bf
-0.19006471 -0.8941441 -0.7145555 0.043787908 0.89781386 0.15071869 -1.3209556 0.01982582
-0.8124487 -0.2821273 -0.23216617 -0.19695823 -0.1650008 1.1598357 1.3588474 -0.57080275

conv_layer.1.running_var f4 [16]
00000000: 4ac0 1040 7a22 1a3f 622b c53f ec55 b73f
00000010: c4fb e53e 4848 373f c93f 383f 4a14 fe3f
00000020: f4d7 ca3e 26bd 5940 66b0 023f 3ced 2240
00000030: c48f ed3f 01a3 3c3f b0e8 073f caf6 ac3f
2.2617364 0.6020886 1.5403864 1.4323096 0.44918644 0.7159467 0.7197233 1.9849942
0.39617884 3.4021697 0.5105041 2.5457296 1.8559499 0.73686224 0.5308943 1.3512814

conv_layer.4.weight f4 [16, 16, 3, 3]
00000000: 8110 033e 4ef7 8bbd 0e71 b03e 95e9 e33e
00000010: f0b2 b83b 0133 18be 6ead 343e 9eff 293f
00000020: 72c5 91bd e20a 7abb 293b c1bc 0e4d 4ebd
00000030: f35c 17be d005 2ebe 5b12 aebe 49a8 ebbd
00000040: af3c a0be e4d5 95be c4da a53b 3c60 763e
00000050: f926 393d b297 cd3d 5647 16be 34c6 603d
00000060: 6507 8cbe 5aa0 bdbe 2e53 203e dc4d 7fbe
00000070: 867a 443e 6c6f 8a3d fae5 3bbe e2cb 4b3e
00000080: 8eb1 7d3e d988 6c3d 81c1 c0be d954 0bbd
00000090: f84b 093e 2b75 d4bd 310e 92be b5ff 94bd
000000a0: a0da d43e e43f 5cbe 1acb cabe bca8 d2be
000000b0: 810d 933e 0efc 2b3f b856 82bb 81dd 6c3e
000000c0: dd97 a23e c64b f03e 525e 28be e940 c63d
000000d0: 18ac 763d 9bae 3f3f 5100 0dbe 92a2 4a3d
000000e0: 752d 833e c967 cd3b 3d1c 6a3c 625b f4bd
000000f0: bd3b 233d 39ea 2f3f 58ca 963d 35fe f63e
00000100: d82c 9c3d 1f99 3c3e 8ae8 bd3e e524 fb3e
00000110: 48ad f93d 14b8 d7bd 4e6e df3d 5020 083f
00000120: 9083 f93e 59e8 56be 2bc5 823d a901 24bd
00000130: 2741 543e 6f2e 15be c6be d2be 212a 9b3c
00000140: af47 973e 9365 c4be 88db 67be 6489 8abd
00000150: 3c69 dd3d 23de b73c 53ce 22be 1b80 c73d
00000160: befc bc3c 01b3 90bb 0b47 adbd 21ed 5cbc
00000170: d7aa 1d3d ffcd 643e d58d b4bc a3fd 1ebe
00000180: bad9 3dbe 8d4b 45bd 46e5 4e3e 1aa4 2b3d
00000190: 5082 cc3c c7f8 843d 7990 f3be c215 0dbe
000001a0: 999e 51be 9e30 a23d 36b9 91be 4585 323c
000001b0: c7c0 aabe d4da 7fbe 580f bebb 3eb5 f8be
000001c0: 0875 d4be 9bd6 cbbe bd4d 743d 461b a9be
000001d0: 395c f2be 7ac9 f0be 7e09 cbbe 147f 7dbe
000001e0: 3eef 7ebe 691d 0ebe 2e8d 73bd 9bd0 153e
000001f0: e898 b53c c6a5 f93c d53d 6cbe 423a 7b3e
00000200: d8ef 2abe aa52 a139 83e5 013c 87bf 553d
00000210: c705 d2be 49c8 903e e423 023f 13d1 47bf
00000220: a206 09bf a71a beba 17db afbe 481f 06bf
00000230: f1fd d4be 84bd 85be 2384 9ebe ee10 7dbd
00000240: c7eb f23e 71ee dabd 45f2 86be 9928 e23e
00000250: dcfd e63e d30e ca3d 7720 4a3e 2f02 cb3e
00000260: f557 4f3e 47bb 16bd 657c b53d 5339 ac3e
00000270: 467c e13d faa2 00bc 2cb8 7e3e 9eba 03bf
00000280: 6b29 83bd 8184 333e b520 03bf 0f74 64bd
00000290: 4707 c83e 1ef4 93be bf96 06be 90ce 203e
000002a0: 5beb 7c3e 175e 413d 3d26 0abe daad a93d
000002b0: 7901 e2bd cd88 0c3f 10e3 7ebd 0b0b 23bf
000002c0: 253a 89be 5a02 463f ba89 fabe 300c 3ebf
000002d0: 50d9 20be baf1 b9be 3c99 153e 87d0 bc3d
000002e0: a108 80be 89b6 46be 4944 c9bb e024 d93e
000002f0: f8a1 3c3d 9661 5ebe 40ce 40be a373 ebbc
00000300: 855b d03e fa9f b6bd 6209 a8bd d0fd 06bb
00000310: 078b d03e 1980 983c cdf0 e3be c349 e23e
00000320: 5f65 fa3e e7da 20be 86e8 9dbd 6054 c43e
00000330: 9411 a8be 06ae 66be dab0 6abe 58e7 4bbe
00000340: f61c cabe baa3 1cbd 04d1 2e3c 57e7 5dbe
00000350: 9f5b b0bd e3cc 72be f196 87bc f727 003e
00000360: 313d 583e 93fc a13e 5b84 b33c f016 f8bd
00000370: 9cca aabc 8f5e 69be e400 92be 4395 09bf
00000380: a203 05bf 78d3 ad3d 94df 22bd a879 dbbd
00000390: ffce 52be 4654 8abe c81d 91bd ba64 51be
000003a0: ea63 afbe 52e0 d6be ed26 133e 0826 553e
000003b0: cb61 203d 00c5 6abc 6868 a0bb 18f6 ea3d
000003c0: 1173 223d d2c6 a03e c256 27be 3789 3b3e
000003d0: eda9 b4bd 9c66 bcbe 3d3b 15be cda3 663c
000003e0: baac 4cbe 1a5f 163e 27b9 ab3d 7e41 17be
000003f0: ff7b cbbd 306d a03d 5dca 8bbb 0786 cebd
0.12799264 -0.06834279 0.34461254 0.44514146 0.0056365654 -0.14863206 0.17644283 0.66405666
-0.07117738 -0.003815346 -0.02358778 -0.050366454 -0.14781551 -0.16994405 -0.3399838 -0.11506707
-0.31296298 -0.29264748 0.0050614793 0.24060148 0.045203183 0.10038699 -0.1467565 0.05487652
-0.27349392 -0.370364 0.1565673 -0.24932045 0.19187364 0.06759533 -0.18349448 0.19901994
0.24774763 0.057747696 -0.37647632 -0.034016464 0.13407886 -0.103739105 -0.28526452 -0.07275335
0.41573048 -0.21508747 -0.3960808 -0.4114436 0.2872124 0.6718148 -0.003977623 0.23131372
0.31756487 0.4693281 -0.1644223 0.096803494 0.060222715 0.748758 -0.13769652 0.049471445
0.25620618 0.0062684757 0.014288959 -0.119314924 0.039851893 0.6871677 0.07362813 0.4824082
0.07625741 0.18417786 0.37091476 0.49051586 0.12191254 -0.10533157 0.10909711 0.53174305
0.48733187 -0.20987071 0.06385263 -0.040040646 0.20727979 -0.14568494 -0.41161174 0.018940987
0.29546878 -0.38358745 -0.22642338 -0.067644864 0.108110875 0.02244479 -0.15899019 0.09741231
0.023069736 -0.00441587 -0.08460816 -0.01348427 0.038493004 0.22344206 -0.022040287 -0.15526442
-0.18540087 -0.048167754 0.20204648 0.041904546 0.024964482 0.06492763 -0.4757116 -0.13777831
-0.20470656 0.07919429 -0.28461617 0.010896032 -0.33350202 -0.2498582 -0.005800169 -0.48575777
-0.41495538 -0.39812168 0.05964445 -0.3302862 -0.47335985 -0.47028714 -0.3965568 -0.24755508
-0.24895951 -0.13878407 -0.05946081 0.14630358 0.022167638 0.030474555 -0.23070462 0.24533942
-0.16693056 0.00030769903 0.007928255 0.052184608 -0.41020033 0.28277805 0.50836015 -0.78053397
-0.53525746 -0.0014503793 -0.3434684 -0.5239148 -0.41599992 -0.2612115 -0.30960187 -0.061783724
0.4744551 -0.1069001 -0.26356712 0.441716 0.45115554 0.09866109 0.19738947 0.39650103
0.20248397 -0.036799695 0.08861617 0.33637485 0.110100314 -0.007851357 0.24874943 -0.5145663
-0.06404384 0.17531015 -0.5122178 -0.055774745 0.39068052 -0.28897184 -0.13143443 0.15703797
0.24699156 0.04720887 -0.13491149 0.08285113 -0.11035437 0.5489624 -0.062228262 -0.63688725
-0.26802173 0.7734734 -0.48933202 -0.74237347 -0.15707898 -0.36317235 0.14609236 0.09219461
-0.25006583 -0.19405569 -0.0061421734 0.42410946 0.046052903 -0.21716914 -0.18828678 -0.028741663
0.40694824 -0.08917232 -0.08204915 -0.0020598061 0.4073107 0.01861577 -0.44519654 0.441969
0.48905465 -0.15708505 -0.07710366 0.38345623 -0.3282591 -0.22527322 -0.22919026 -0.1991247
-0.3947522 -0.03824208 0.01066995 -0.2167028 -0.08611225 -0.2371097 -0.016551467 0.12515245
0.21117093 0.3163801 0.021913698 -0.1211375 -0.020848565 -0.22789977 -0.28516304 -0.5374338
-0.5195867 0.084876 -0.039764002 -0.107165635 -0.20586775 -0.2701742 -0.070857584 -0.2044858
-0.34255916 -0.41968018 0.14370318 0.20815289 0.039155763 -0.014329195 -0.0048952587 0.1147272
0.039660517 0.31401688 -0.16341689 0.18314062 -0.08821473 -0.36797035 -0.14573379 0.014077139
-0.19987765 0.14684716 0.083849244 -0.14771077 -0.0993576 0.07833326 -0.004266067 -0.100841574

conv_layer.4.bias f4 [16]
00000000: 91be 21bc a0b4 273d bbaa cc3c 1241 88bd
00000010: 0dd0 5dbb 8e19 6dbd 4f2e dcbc 6fa1 843d
00000020: d64f b5bc 5ef0 a9bd 1354 91bc ba12 8c3d
00000030: 184e 19bd a03e 2c3d 2039 673d ce65 803d
-0.009872095 0.04094374 0.024983754 -0.06653036 -0.0033845932 -0.0578857 -0.02687755 0.064761035
-0.022132795 -0.082977995 -0.017740285 0.06839509 -0.03742799 0.04205191 0.056450963 0.06269418

conv_layer.5.weight f4 [16]
00000000: f313 a43f 6beb b73f 5969 aa3f 28c3 dd3f
00000010: 8f85 993f a081 f03f d847 f93f 71b2 783f
00000020: 7ed5 0140 3a51 a23f fa82 843f a92f b53f
00000030: 54c4 583f c8c9 0a40 6ebe 983f a374 b33f
1.2818588 1.4368719 1.33134 1.7325182 1.1993884 1.8789558 1.947505 0.9714728
2.0286555 1.2681038 1.0352471 1.415517 0.8467457 2.1685658 1.1933115 1.401997

conv_layer.5.bias f4 [16]
00000000: a899 5abf 060a 85bf 7033 5ebf 0132 85bf
00000010: 5fe6 85be 6934 cbbf 86f2 c7bf e0ce ecbe
00000020: 0e88 9ebf 4fa4 07bf 1700 7ebe 0236 9abf
00000030: f8a8 b8bd 021d bbbf ee28 5bbf 6b7d 61bf
-0.8539071 -1.0393684 -0.8679724 -1.0405885 -0.26152322 -1.5875369 -1.5620887 -0.46251583
-1.238527 -0.5298509 -0.24804722 -1.2047732 -0.09016603 -1.4618227 -0.8560933 -0.88082

conv_layer.5.running_mean f4 [16]
00000000: 44fb c0bf 2771 10c0 9e22 93bf 1386 35c0
00000010: 2474 03c0 fafe 3fc0 6c67 50c0 974c 943f
00000020: 8b0c 38c0 3f05 23c0 0904 ccbf b484 b3be
00000030: 566d c0bf f116 a8c0 65db 01c0 38bc e3bf
-1.507668 -2.2569063 -1.1494939 -2.8363082 -2.0539637 -2.9999375 -3.2563124 1.1585873
-2.8757656 -2.5471952 -1.5938731 -0.35062182 -1.5033367 -5.2528005 -2.0290158 -1.7791815

conv_layer.5.running_var f4 [16]
00000000: 5d4a b340 9a5f a240 8e7e 1841 3d95 1c41
00000010: 8551 f540 d740 0e41 4aaf 2041 2a88 9340
00000020: 2a69 2841 5dca da40 88b9 e440 6ef2 ab40
00000030: 3fd5 de40 dc18 4f41 bbf8 a340 749e 0141
5.6028275 5.07417 9.530897 9.786435 7.666201 8.89083 10.042795 4.6103716
10.525675 6.8372025 7.147648 5.3733435 6.963531 12.943569 5.1241126 8.101185

fc_layer.0.weight f4 [10, 1024]
00000000: a87d fdbd 245f b4bb 0ae3 603e 1a73 363d
00000010: 7474 4cbb f1cf 64be 8a88 e3be 43e9 b9bd
00000020: 3594 24be 5e0e 6b3e 10bb e33d 3a77 063e
00000030: 0745 1a3e 01e8 7f3e cd56 453d 54e6 7dbd
00000040: 467a 133e 0020 033f 5165 fcbd 0afd c23d
00000050: 3634 d53d d399 533d e182 583c c0bc 0fbe
00000060: d3ad 86bb 5ebf 963e 4459 3d3e c61b 293e
00000070: ac83 7abd 3ff8 f43b e10a 45be 85b8 c3bd
00000080: bdd7 49bd d818 823e 6415 b83d fdf5 643e
00000090: dc43 293e de81 ad3d 918b 49bd 3460 873d
000000a0: 5e0d 3cbd 62f3 d1bd 8016 ff3c 6a01 0f3d
000000b0: 23f5 153e c8df 303e 9f03 273e cf28 1abe
000000c0: 7141 e8bd 44c6 82bd da62 ff3c 0096 b93d
000000d0: 8355 45be 56ca 323e 4aa1 023e 0e40 14be
000000e0: 40f0 823d 49d5 fcbd 81fc 83bc 20f0 e9bd
000000f0: f770 ddbc dbf6 64bd 09f4 893e de8b 1a3e
00000100: f330 adbe 0551 d43d 9dae f83d 6172 3a3d
00000110: 1ec5 aebc 5e58 71be aacf 4bbe 7888 52be
00000120: f27a aa3c c62d 8fbd 158c 9bbd 57e7 9b3c
00000130: d227 1dbe c2bd 25be fe19 8c3e 7c4e a2be
00000140: fadf 243e c264 0b3e d84f 923e 082e cb3d
00000150: a7c1 16be 65a7 ccbe c662 cdbd 106b b1bd
00000160: e68b 093d e8e2 95bd 87fb fe3c 25ce 95bd
00000170: 4de7 9dbe 7042 1dbd abf6 9d3e 6fe6 b0bd
00000180: aba0 35be 13ef 59be 2a77 ef3c c99a aabd
00000190: 142f 2fbe 8e87 783d d793 733d a2a2 bbbe
000001a0: 1888 64bc 7b53 62be c150 163d 5389 093e
000001b0: 135b d5bc 0670 41be f2e0 1bbd f97f 8cbe
000001c0: a2ad fbbd b5e7 91be bf3c afbd 153d 3dbd
000001d0: 942e e83c e9f8 d23d d3da d03d 0dde bfbd
000001e0: 7bff 973d 4148 dfbe ac9b d7bd be01 9fbd
000001f0: b10d 003d 623e 45be 58ee d73b e89f b6bb
00000200: d6bc 15be b720 d1bd 4870 aabd 12fe 01be
00000210: 9c90 1c3e 528a 373e ba3c 3abe 2265 0a3c
00000220: e3d9 5b3e 903a 413e 5529 32bc 97e0 dfbd
00000230: be15 913c d0c1 c1bd 5932 953d 4a0f 90bc
00000240: 15f9 273e 4e3a 8a3e 64fb 25be 1d9c 3a3d
00000250: 78b6 943d 5d8d 423e 803b 14be 5d0f bfbd
00000260: f973 4c3e 3c9a 863e b09b 4e3e c1e2 443e
00000270: 2e77 ef3d f3ba df3d b6c2 ca3d 7257 ee3d
00000280: d4ed 293e ca18 4c3e 4dd7 403e 3dd9 7a3b
00000290: 44b3 f33c bce0 fc3d 28ee 3c3e f50f 6d3c
000002a0: 24ad 1d3e b4d1 693e dc9e a1bd 2cec e3bc
000002b0: 32f2 0d3d 66ce 013e a015 b43e 9723 a7bc
000002c0: 1654 4a3e 7d28 1fbe f7bc d1bc 0b6c 69bd
000002d0: 9ee3 e03c af11 673e 8f22 3a3e 7176 423e
000002e0: b851 853d f1d5 37be 6d9a e8bd cdcf 99bd
000002f0: 3307 233e ca1c 5f3e aa62 59bd 18d1 7cbe
00000300: a218 01bd 3bf1 293e d541 123d 9da5 89be
00000310: 2dda bcba 6f49 f9bd 2e74 9c3e 5dd3 38bd
00000320: afb6 db3d ba5d 55bd 82ef 0a3e 5ed5 c8bb
00000330: 1cc6 103e b8ed 9e3d 147d 913e 8214 393e
00000340: eeab a7bd 8f64 78bc e1cb 64bc 1931 523b
00000350: 89b7 38bd 46d1 253e d972 073f d8c6 11be
00000360: a042 8f3d 19b6 483d 6830 833d f964 04bd
00000370: 7038 9ebe ebc2 513e 0f10 483e 3cb6 c3bd
00000380: 9938 fa3c b931 03be de44 20be eae9 22be
00000390: 992c 073c 4f2b 973d 80e3 b23e 7cff 9f3d
000003a0: e421 093e 7320 95bd 246c e8bd 7ed4 393e
000003b0: a435 a73d 3c0a 3dbe 37cb 393e 79f2 96bd
000003c0: d90f 8e3d 8abd 5e3e 181a 093e 05cc 743e
000003d0: 612d 893d 1f5e 96bd cdfa 173e 945c 3c3d
000003e0: 3f70 6c3e 1cc6 c03d 5b24 e0bd 5f07 a63d
000003f0: 848d 35bd f230 873e 8a63 f1bc f069 863d
-0.12377483 -0.0055045057 0.21961609 0.044543363 -0.003119734 -0.22344948 -0.4444011 -0.09077694
-0.16072161 0.229547 0.11119664 0.13131419 0.15065394 0.24990846 0.048178483 -0.061987236
0.14402112 0.51220703 -0.12324012 0.095209196 0.10410349 0.05166037 0.013214798 -0.14036846
-0.004110077 0.29442877 0.18491083 0.16514501 -0.06116073 0.0074758823 -0.19242431 -0.09556679
-0.04927801 0.2540958 0.08988455 0.22359462 0.16529793 0.08472036 -0.049205367 0.06610146
-0.045911185 -0.102515 0.031138659 0.034913458 0.14644293 0.17272866 0.16309975 -0.1505463
-0.11340607 -0.063854724 0.031175066 0.09061813 -0.19270901 0.17459998 0.1275684 -0.1447756
0.0639348 -0.123453684 -0.016111614 -0.11422753 -0.027031405 -0.055899482 0.26943997 0.15092418
-0.33826408 0.10367016 0.1214268 0.045519236 -0.021334227 -0.23568866 -0.19903436 -0.20559871
0.020810578 -0.069911525 -0.07595078 0.01903121 -0.15347221 -0.16185668 0.2736358 -0.31700504
0.16101065 0.13612655 0.2857654 0.09920889 -0.1472231 -0.39971462 -0.10028605 -0.08662999
0.033580683 -0.073186696 0.031125797 -0.073147096 -0.3084053 -0.038393438 0.30852255 -0.08637702
-0.17737071 -0.21282606 0.029231627 -0.08330304 -0.17107803 0.06067615 0.059467163 -0.36647516
-0.013948463 -0.22102158 0.036698107 0.13431291 -0.026044404 -0.1889039 -0.03805632 -0.27441385
-0.12288977 -0.2849709 -0.08556508 -0.04620083 0.028342523 0.10301382 0.101979874 -0.09368525
0.07421776 -0.43609813 -0.10527739 -0.07764004 0.031263057 -0.19262078 0.006589692 -0.0055732615
-0.14622816 -0.10211318 -0.08322197 -0.12694576 0.15289539 0.17923859 -0.18187228 0.0084469635
0.21469836 0.18869996 -0.010874112 -0.10931509 0.017710563 -0.09460795 0.07284994 -0.017585415
0.16403611 0.26997608 -0.16209179 0.045559037 0.07261366 0.18999238 -0.14475822 -0.09329102
0.19966115 0.26289546 0.20176578 0.19227125 0.116926536 0.109243296 0.099004194 0.116377726
0.1659463 0.19931331 0.1883213 0.0038276457 0.029748566 0.12347552 0.18450224 0.0144691365
0.15398079 0.22833902 -0.07891628 -0.027822576 0.034654804 0.12676391 0.3517275 -0.020402713
0.19758639 -0.15542789 -0.0256028 -0.056987803 0.027452286 0.2256534 0.18177246 0.18990494
0.06509727 -0.17952706 -0.113575794 -0.07510338 0.15920715 0.21788326 -0.05307261 -0.24689138
-0.031517632 0.16595928 0.035707314 -0.26884165 -0.0014408283 -0.121722095 0.30557388 -0.045123447
0.107282035 -0.052091338 0.13567927 -0.006128951 0.14138073 0.07760185 0.2841574 0.1807423
-0.0818709 -0.015160694 -0.013964624 0.0032072722 -0.045096908 0.16193113 0.5290962 -0.14236009
0.069951296 0.049001787 0.06405717 -0.032322858 -0.30902433 0.20484512 0.19537376 -0.09556243
0.030544566 -0.12811936 -0.15651271 -0.15909544 0.008250379 0.07381307 0.34939194 0.07812402
0.13391834 -0.0728158 -0.11348751 0.18147466 0.08164528 -0.18460935 0.18143927 -0.07370467
0.069366165 0.21751991 0.1338886 0.23905952 0.066981085 -0.07342171 0.14841767 0.045986727
0.23089693 0.09412786 -0.10944434 0.08106875 -0.044324413 0.2640453 -0.02946641 0.06563175

fc_layer.0.bias f4 [10]
00000000: 683c d6be d1c2 55be ecfe 85be 7f2b 9d3e
00000010: a480 183f 79a9 36be 7d79 c53e 6346 cebe
00000020: d579 5d3e 549c e43c
-0.4184296 -0.20875098 -0.26171052 0.30697247 0.5957129 -0.17838086 0.3856925 -0.40288076
0.21628506 0.027906574
