Knowledge Distillation/TAKD/saved/10-4.pth (torch, 158422 bytes, 26 tensors)

conv_layer.0.weight f4 [16, 3, 3, 3]
0	0x3e0eff3d	0.13964553
1	0x3e336d43	0.17522149
2	0xbd4b9dc8	-0.04971102
3	0x3db45cb8	0.08806747
4	0xbeb82ce1	-0.3597174
5	0x3e02071e	0.12698027
6	0xbe517ed0	-0.20458531
7	0xbed1aeb7	-0.4095361
8	0x3efc3a2a	0.49263126
9	0x3e300019	0.17187537
10	0x3cf31bd3	0.029676354
11	0xbdba9cdd	-0.091119505
12	0x3ef4892e	0.4776091
13	0xbf3a735b	-0.7283227
14	0x3e564281	0.20923807
15	0x3defe717	0.11713999
16	0xbf395527	-0.7239556
17	0x3f0d8960	0.5528774
18	0xbb3f0e41	-0.0029152783
19	0xbc1ad4ce	-0.009450151
20	0xbe8d5b3a	-0.27608663
21	0x3e7bfb79	0.24607648
22	0xbf088144	-0.53322244
23	0x3e89b1cc	0.2689346
24	0xbcf50927	-0.02991159
25	0xbee2c392	-0.44289833
26	0x3f1e3a0d	0.6180733
27	0xbdce2251	-0.10065139
28	0x3c7dfeb6	0.015502622
29	0xbd41d447	-0.047321584
30	0x3e8f08e2	0.27936465
31	0x3ea3adf6	0.3196866
32	0x3d90d3d0	0.0707165
33	0xbcd00d04	-0.025396831
34	0x3e8e1b3d	0.27755156
35	0x3dc6f152	0.09713997
36	0x3d26022d	0.04052942
37	0x3e09f6eb	0.13473098
38	0x3c82045a	0.015871216
39	0xbd9d5369	-0.07681925
40	0x3e3f0d78	0.18657482
41	0xbe4c88da	-0.1997408
42	0x3dc2206a	0.09478839
43	0x3e165f9c	0.1468491
44	0xbe26aa40	-0.16275883
45	0xbdcc93f8	-0.0998916
46	0x3ce89d29	0.028395252
47	0xbe4d78bc	-0.20065588
48	0x3d73e86e	0.059547834
49	0x3e6f39b8	0.23361862
50	0xbe8ef367	-0.27920076
51	0x3ddd1dcd	0.107967
52	0xbe0ef528	-0.13960707
53	0x3c22a22d	0.009926361
54	0x3dc6938d	0.09696112
55	0x3da3354c	0.0796915
56	0xbbd71879	-0.0065641967
57	0x3eeb00ec	0.4589914
58	0x3c6796ba	0.014135057
59	0x3d9670b3	0.073457144
60	0xbd0327f5	-0.032020528
61	0xbebb4c51	-0.36581662
62	0xbd9677cc	-0.07347068
63	0x3d81a194	0.06329647
64	0xbed5940c	-0.41714513
65	0xbebd7b2f	-0.37008044
66	0x3e907ffd	0.28222647
67	0xbc9c0a80	-0.019047976
68	0x3c96a488	0.018389001
69	0x3e885ae5	0.26631847
70	0xbede199b	-0.4337891
71	0xbe8c720f	-0.2743077
72	0x3e90339d	0.28164378
73	0xbea6df57	-0.3259227
74	0xbebee3da	-0.37283212
75	0x3e6b0ebc	0.2295484
76	0x3e9e8b9c	0.30965889
77	0xbe09ee04	-0.13469702
78	0x3ee504eb	0.44730315
79	0x3e680605	0.22658546
80	0x3da277f3	0.07933035
81	0x3e212960	0.1573844
82	0xbec35850	-0.38153315
83	0xbe63febf	-0.22265147
84	0x3e3c7078	0.18402278
85	0x3d938054	0.07202211
86	0xbe2f1e66	-0.1710144
87	0xbdc6ae77	-0.09701245
88	0xbd65329b	-0.055956464
89	0x3e855fee	0.2604975
90	0x3f0641e7	0.5244431
91	0xbd4e3673	-0.050344896
92	0x3c666f7d	0.014064667
93	0x3ee0c605	0.43901077
94	0x3e7ac407	0.24488841
95	0xbe68e7c7	-0.22744666
96	0x3d721eba	0.059111334
97	0x3da04724	0.07826069
98	0x3e5570e6	0.20843849
99	0x3e9f727f	0.3114204
100	0xbe72d4e3	-0.23714022
101	0x3caf6cf4	0.021414258
102	0x3e3450c3	0.17608933
103	0xbcfea308	-0.031083599
104	0xbed25910	-0.41083574
105	0xbef8308e	-0.48474544
106	0xbe95447b	-0.2915381
107	0x3c85b35c	0.016320877
108	0x3d94c45d	0.07264016
109	0xbd074fda	-0.033035137
110	0x3c54ae66	0.012981033
111	0xbe9c2d15	-0.30503145
112	0xbe62fbcf	-0.2216637
113	0xbe455ece	-0.19274446
114	0xbe7c8831	-0.24661328
115	0xbd35c3e6	-0.044376276
116	0xbdc9c7c9	-0.09852559
117	0xbe36596e	-0.17807552
118	0x3deae88e	0.114701375
119	0x3d221941	0.039574865
120	0xbe4004d9	-0.18751849
121	0x3dd74de3	0.105129026
122	0xbe18c444	-0.1491862
123	0xbde8601d	-0.11346457
124	0xbe9ed206	-0.3101961
125	0xbe7029f7	-0.23453508
126	0x3ee1848f	0.44046447
127	0x3f16a217	0.5884108
128	0x3df34fcb	0.11880454
129	0x3e4ad442	0.19807532
130	0x3f0bce3e	0.54611576
131	0xbdcdbffd	-0.100463845
132	0xbe573696	-0.21016917
133	0x3e874771	0.26421693
134	0x3d863874	0.06553736
135	0x3e281afc	0.16416544
136	0x3ec62c6d	0.3870577
137	0x3ee3fbc0	0.44528008
138	0xbe0b6ab8	-0.13614929
139	0x3e07fe88	0.1328069
140	0x3d7a92af	0.061175045
141	0x3e61c5aa	0.22048059
142	0xbf6f96bd	-0.93589383
143	0xbe7b75ac	-0.24556607
144	0xbea163df	-0.31521508
145	0xbd02379b	-0.03179131
146	0xbc1d0873	-0.009584534
147	0xbe0511a7	-0.12995015
148	0x3e2f46f9	0.17116918
149	0x3e1be392	0.1522353
150	0x3f23845e	0.6387385
151	0xbf208c96	-0.6271452
152	0x3c856a30	0.016285986
153	0xbb82cc7e	-0.0039916625
154	0xbe9e4b27	-0.30916712
155	0xbe9866cf	-0.29765937
156	0xbce9465c	-0.028475933
157	0x3e4833af	0.19550966
158	0xbca79cc1	-0.020460488
159	0x3f572a92	0.8404933
160	0xbeb0a1cc	-0.3449844
161	0xbd5741dd	-0.052553046
162	0x3e9f25ab	0.31083426
163	0x3e88ced7	0.26720306
164	0xbea0e98d	-0.31428185
165	0x3d2dde28	0.042448193
166	0xbe1f44c3	-0.15553574
167	0xbea18418	-0.31546092
168	0x3f0515fc	0.5198667
169	0x3be9cd10	0.007135041
170	0xbcfc782a	-0.030819017
171	0x3e279acb	0.16367643
172	0x3f1898b8	0.5960803
173	0xbd391633	-0.045187186
174	0xbee11a52	-0.43965393
175	0xbebcd22a	-0.36879092
176	0xbe2fae1f	-0.17156266
177	0xbdcb6c62	-0.09932782
178	0xbd972de0	-0.07381797
179	0xbda3b52d	-0.07993541
180	0x3e42ccee	0.19023487
181	0x3f19fef5	0.6015466
182	0x3e8bcf2b	0.27306494
183	0xbeebe35e	-0.46071905
184	0xbe4fcc19	-0.20292701
185	0x3d3172fa	0.04332254
186	0xbdd2c9b9	-0.10292382
187	0xbe3362ce	-0.1751816
188	0x3cb76165	0.022385309
189	0x3f015200	0.5051575
190	0x3e56ab16	0.20963702
191	0x3d407391	0.046985213
192	0xbd551b46	-0.052027963
193	0xbde76ad4	-0.11299673
194	0x3ac0a5b6	0.0014697823
195	0xbe64972d	-0.22323294
196	0xbe8a66fe	-0.27031702
197	0x3e1f252a	0.1554152
198	0x3d9aa35e	0.07550691
199	0xbe773c29	-0.24144043
200	0xbd5e2827	-0.05423751
201	0xbe0f5951	-0.13998915
202	0xbe0d59cc	-0.13803786
203	0x3cfd718a	0.030937929
204	0xbeaaa53f	-0.33329198
205	0xbedbaf88	-0.42907357
206	0xbde70df9	-0.11281962
207	0xbdd185e4	-0.10230616
208	0x3e2acbc6	0.16679296
209	0x3dab658e	0.083689794
210	0xbe9524b8	-0.29129577
211	0xbe00dafa	-0.12583533
212	0x3dab22cf	0.083562486
213	0xbe20d6e3	-0.15706973
214	0x3e22deb7	0.15905271
215	0x3e85c434	0.26126254
216	0x3e116981	0.14200403
217	0xbe7bef14	-0.2460292
218	0x3d3bc4ae	0.045841865
219	0xbd5a6284	-0.053316608
220	0x3e493c74	0.19651967
221	0x3e99e7e7	0.3005974
222	0x3da1a63f	0.07893037
223	0x3d342d46	0.04398849
224	0x3dd8a273	0.1057786
225	0xbe94d63b	-0.29069695
226	0xbe8bbe9b	-0.27293858
227	0xbe1d9f95	-0.15392907
228	0xbe995344	-0.2994634
229	0x3e5f4e75	0.21807273
230	0x3e9fc4d2	0.3120485
231	0xbe18f060	-0.14935446
232	0xbe4b750f	-0.19868873
233	0x3c6147d1	0.0137500325
234	0xbde21c6b	-0.110405765
235	0xbe0e7fd2	-0.13915947
236	0x3e5e9cf5	0.21739562
237	0x3be3ff87	0.0069579515
238	0x3eae70ac	0.34070337
239	0x3ef923d1	0.48660138
240	0xbd56b6d4	-0.052420452
241	0xbdabbaa4	-0.08385208
242	0x3e266126	0.16247997
243	0xbe2b2ae3	-0.16715579
244	0xbe535289	-0.20636953
245	0xbeaf8513	-0.34281215
246	0x3cc05db2	0.023482177
247	0x3e398acc	0.18119353
248	0x3e065e3a	0.13121882
249	0x3ef2ba73	0.47407874
250	0x3d6ab864	0.057304755
251	0x3c328507	0.010895974
252	0x3e6eeccd	0.2333252
253	0xbe21043c	-0.15724272
254	0xbe1295e4	-0.14314991
255	0xbdfd4187	-0.12366014

conv_layer.0.bias f4 [16]
0	0xbd315cf3	-0.043301534
1	0x3e19dd36	0.15025792
2	0x3de38a22	0.11110331
3	0x3d9dc44f	0.077034585
4	0x3e2e230e	0.1700556
5	0xbd49f6cd	-0.049307633
6	0x3d70f342	0.05882574
7	0xbd8f19a8	-0.069873154
8	0x3c2d0270	0.010559663
9	0x3e44ce8b	0.19219415
10	0x3d158c61	0.03651083
11	0xbdd9683e	-0.10615586
12	0xbd0559e6	-0.032556437
13	0x3db97b71	0.09056748
14	0x3cbf1d46	0.023329388
15	0x3dd323c3	0.103095554

conv_layer.1.weight f4 [16]
0	0x3fb9d71d	1.4518772
1	0x3f310411	0.6914683
2	0x3f6ce12d	0.9253109
3	0x3f457dd0	0.771451
4	0x3f44068f	0.7657251
5	0x3f9af3ca	1.2105649
6	0x3f978dda	1.1840165
7	0x3f72afbc	0.947994
8	0x3f3f4a0b	0.74722356
9	0x3f4fbfaa	0.8115183
10	0x3f6e6b94	0.931329
11	0x3fa4642a	1.2843068
12	0x3f6c156a	0.92220175
13	0x3f3f50ec	0.7473285
14	0x3f6a56f2	0.9153892
15	0x3f41551d	0.755205

conv_layer.1.bias f4 [16]
0	0x3f33fad5	0.70304614
1	0xbe87442a	-0.26419193
2	0x3e8262e5	0.25466076
3	0x3e1c5fd8	0.15270936
4	0x3d0e614a	0.03476075
5	0x3f1e076f	0.6173009
6	0x3eed7b07	0.46382925
7	0xbeab943b	-0.33511528
8	0x3e5f3392	0.21797016
9	0xbcf685b6	-0.030093055
10	0xbca54f90	-0.02017954
11	0x3eea3a5b	0.45747647
12	0x3e8e7cc6	0.2782957
13	0xbdbdffb6	-0.092772886
14	0x3d2edcf5	0.04269119
15	0x3e0b0fa9	0.13580193

conv_layer.1.running_mean f4 [16]
0	0xbe88b9e7	-0.26704332
1	0x3f77602f	0.9663114
2	0x3d74d1b1	0.05977029
3	0x3e38ebd2	0.18058708
4	0x3dad2d95	0.0845596
5	0xbde84c76	-0.11342709
6	0x3db3afc6	0.087737605
7	0xbf84e40f	-1.0382098
8	0x3f0ca339	0.5493656
9	0xbe9e6ef3	-0.30944023
10	0xbe9d6450	-0.30740595
11	0xbe8dd571	-0.27701905
12	0xbdffd929	-0.12492592
13	0x3e988d2c	0.29795206
14	0xbe82effa	-0.25573713
15	0x3beaa9ff	0.0071613784

conv_layer.1.running_var f4 [16]
0	0x3ea396b1	0.31950906
1	0x3e6337b7	0.22189222
2	0x3ee058e1	0.4381781
3	0x3e4dfbb7	0.20115553
4	0x3edf4574	0.43607676
5	0x3e2e2bff	0.1700897
6	0x3eb33c73	0.35007057
7	0x3ecc6fbe	0.39929003
8	0x3eacfc89	0.3378642
9	0x3e150f8c	0.14556712
10	0x3edf60d5	0.43628564
11	0x3e4f3c8c	0.2023794
12	0x3e7aea8f	0.2450354
13	0x3e9b5696	0.30339497
14	0x3f099c65	0.53754264
15	0x3edf04a4	0.43558228

conv_layer.3.weight f4 [16, 16, 3, 3]
0	0xbc7257ce	-0.014791442
1	0xbe15b45c	-0.14619583
2	0xbe28b67c	-0.16475862
3	0x3e0c0332	0.13673094
4	0xbba5a1c8	-0.005054686
5	0xbd2c2647	-0.04202869
6	0x3d8b3f06	0.0679913
7	0x3e5e8ad4	0.21732646
8	0xbc60a2fe	-0.013710735
9	0x3e3d14f6	0.18465027
10	0x3e59b8d1	0.21261908
11	0x3e11d3ec	0.14240998
12	0xbc96dca7	-0.018415762
13	0x3e0ae82f	0.13565134
14	0x3dc44758	0.0958392
15	0x3cc4531c	0.02396541
16	0xbdf5966b	-0.119915806
17	0x3d51b786	0.051200412
18	0x3e2bb148	0.16766846
19	0x3d354e8c	0.04426436
20	0x3d656b47	0.05601051
21	0x3df9e933	0.12202682
22	0x3e032207	0.12805949
23	0x3dc28474	0.0949792
24	0x3d2c3580	0.04204321
25	0x3d7cb257	0.061693516
26	0x3c87561a	0.016520549
27	0x3db589fb	0.08864208
28	0x3e090f34	0.13384706
29	0x3db15ad6	0.08659904
30	0x3dc71bba	0.09722085
31	0x3d93653c	0.07197043
32	0x3e5e80c6	0.2172881
33	0x3d877158	0.066134155
34	0xbcc73da8	-0.024321392
35	0xbb32d8e7	-0.0027289928
36	0x3d242059	0.04006991
37	0xbc309030	-0.0107765645
38	0xbe0ecc6c	-0.13945168
39	0xbb18aa2c	-0.002329479
40	0xbd197c36	-0.037471972
41	0x3d939808	0.07206732
42	0x3e2a3775	0.16622718
43	0x3d9b952b	0.07596811
44	0xbbce2380	-0.006290853
45	0x3e1dbdc1	0.15404417
46	0x3e1dabe2	0.153976
47	0x3dd136ee	0.10215555
48	0x3d878798	0.06617659
49	0x3d861d6a	0.06548579
50	0xbe052fd2	-0.13006523
51	0xbe14080e	-0.14456198
52	0xbc16a40b	-0.009194384
53	0xbce4eb83	-0.027944332
54	0x3d8070ba	0.06271501
55	0xbcaa5878	-0.020794138
56	0xbcd5363d	-0.02602684
57	0x3e05b417	0.1305698
58	0x3d38fea4	0.04516472
59	0x3d843b4b	0.06456622
60	0x3dd4670e	0.103712186
61	0xbc11a896	-0.008890292
62	0xbd003297	-0.031298246
63	0xbe03fa23	-0.12888388
64	0xbe230c31	-0.1592262
65	0xbcd856f3	-0.026408648
66	0xbd024137	-0.031800475
67	0x3d0b5f33	0.034026336
68	0xbde96598	-0.113963306
69	0x3d254e25	0.040357728
70	0x3c2f39dd	0.010694948
71	0xbd3a48ef	-0.04547971
72	0x3e1743ab	0.14771907
73	0x3cf5520e	0.029946353
74	0xbdafda73	-0.08586588
75	0x3e4c17a5	0.19930895
76	0x3d0a6760	0.033789992
77	0xbe0b910f	-0.13629554
78	0x3e288ce2	0.16459993
79	0x3d53c496	0.05170115
80	0xbd92ff33	-0.07177582
81	0x3dfd533c	0.12369391
82	0x3df3075c	0.11866638
83	0x3db19748	0.08671433
84	0x3cb74137	0.022369964
85	0xbc77132a	-0.015080253
86	0x3d234605	0.039861698
87	0x3a32f1c3	0.00068261864
88	0x3ccd5e3c	0.025069349
89	0xbd9cabf1	-0.07649983
90	0x3c7526bc	0.014962848
91	0xbc8d6a97	-0.01726274
92	0xbd087407	-0.033313777
93	0x3dd755c0	0.105144024
94	0xbd1dcdca	-0.038526334
95	0xbdf9ade8	-0.12191373
96	0x3dc8216d	0.097720005
97	0xbdbcd670	-0.09220588
98	0xbe12f987	-0.14353
99	0xbbd21dbd	-0.0064122365
100	0x3dd52d6c	0.10409054
101	0x3e2d2dfb	0.16912071
102	0xbda977b0	-0.08274782
103	0xbd7685fc	-0.06018637
104	0x3dd847ce	0.10560571
105	0xbd96f438	-0.073708
106	0xbde565ac	-0.11201033
107	0xbe19b163	-0.15009074
108	0xbd8b7297	-0.06808966
109	0xbe2dfcb2	-0.16990927
110	0xbdfd68fe	-0.12373541
111	0x3e368d07	0.17827235
112	0xbd839948	-0.064257205
113	0xbe39c941	-0.18143179
114	0x3e14ccc9	0.14531244
115	0x3e638fbd	0.222228
116	0x3cbf886a	0.023380477
117	0xbc49fd67	-0.012328482
118	0xbd9f27d0	-0.077712655
119	0xbddc956f	-0.1077069
120	0x3d950cb7	0.07277816
121	0xbc6a665a	-0.014306629
122	0x3d485f3c	0.048918948
123	0x3dbe6101	0.09295846
124	0xbcb554ec	-0.02213522
125	0xbc97be4f	-0.018523363
126	0xbe0febc0	-0.14054775
127	0xbd036e45	-0.032087583
128	0xbc8fa52b	-0.017534813
129	0xbe124bad	-0.1428668
130	0xbc12be17	-0.008956454
131	0x3e119a68	0.14219058
132	0xbe0ad82d	-0.13559027
133	0xbdcc408c	-0.09973249
134	0xbc2c1849	-0.010503837
135	0xbc5aedec	-0.013362389
136	0xbded0d5d	-0.115748145
137	0xbdc7c618	-0.0975458
138	0x3d8c0bd7	0.06838196
139	0xbd6d3b8f	-0.057918128
140	0xbdd6427d	-0.104619004
141	0x3e1bcb9e	0.15214393
142	0xbd47b228	-0.048753887
143	0xbd450992	-0.04810483
144	0x3d1d91c1	0.03846908
145	0xbd11d0c6	-0.035599492
146	0x3d40d9c9	0.047082696
147	0xbd49a214	-0.049226835
148	0xbd557244	-0.052110925
149	0xbc76d320	-0.015064985
150	0xbe37c37f	-0.1794567
151	0x3db7dc0c	0.089775175
152	0xbcac7cc4	-0.021055587
153	0xbe5c401e	-0.21508834
154	0xbe6ffa9d	-0.23435445
155	0xbe17a987	-0.14810763
156	0xbd3893d9	-0.045062874
157	0xbd93bab5	-0.07213346
158	0xbbdbf2cc	-0.0067122933
159	0xbd27be2b	-0.040952843
160	0xbcd4f493	-0.025995528
161	0x3db31be5	0.08745555
162	0x3d164985	0.036691207
163	0x3de6a174	0.112612635
164	0xbd0083e2	-0.031375773
165	0x3e243835	0.16037066
166	0x3dde3cf7	0.10851472
167	0x3db496e9	0.08817846
168	0x3ddcfdca	0.10790594
169	0x3ba89e86	0.0051458506
170	0xbda0170e	-0.07816897
171	0xbddae5ee	-0.10688387
172	0xbdb270d3	-0.08712926
173	0x3de1895c	0.11012527
174	0xbd4a3b83	-0.04937316
175	0xbe7e3b96	-0.24827418
176	0xbd926e85	-0.07149986
177	0x3d29543b	0.041340094
178	0xbe0aabdc	-0.13542122
179	0x3b266ff8	0.0025396328
180	0xbde2f89a	-0.11082573
181	0x3daa779e	0.083235964
182	0xbcf862b3	-0.030320501
183	0x3d6a2365	0.05716266
184	0x3e511b0c	0.20420474
185	0xbe358faf	-0.17730592
186	0x3ea987c2	0.33111387
187	0x3ea3ee8b	0.3201793
188	0xbe1e856d	-0.15480585
189	0x3d495b85	0.049159545
190	0x3d93e55a	0.0722148
191	0x3e21f9f5	0.15818007
192	0xbd8fc0ad	-0.07019172
193	0xbdd9a727	-0.10627585
194	0xbd34cf3f	-0.044142958
195	0xbdc29b10	-0.09502232
196	0xbc4e6c70	-0.012599096
197	0x3cfd8f6e	0.030952182
198	0x3dece9ed	0.11568055
199	0xbda60e80	-0.081082344
200	0xbe38b25e	-0.18036792
201	0x3c54b4ed	0.012982589
202	0x3cf522eb	0.029923877
203	0xbe3f0e8f	-0.18657897
204	0x3e5a47cb	0.2131645
205	0x3e1d721a	0.15375558
206	0xbe210de5	-0.15727957
207	0x3cc0d68a	0.0235398
208	0xbde04804	-0.10951236
209	0xbd697b79	-0.05700252
210	0x3cf37293	0.02971772
211	0xbdeeaccc	-0.11654052
212	0xbdb13544	-0.08652738
213	0x3c8f2779	0.017474877
214	0x3dbba79e	0.0916283
215	0x3e1a9a31	0.15097882
216	0xbd63963e	-0.055563204
217	0xbcddc9f9	-0.027073847
218	0xbe016de5	-0.12639578
219	0x3d3e4914	0.04645641
220	0x3ddc2bb2	0.10750522
221	0xbbaa30c7	-0.005193803
222	0x3dce0a0d	0.10060511
223	0xbd4a96fe	-0.049460404
224	0x3cb9adc7	0.022665871
225	0xbd85b8c0	-0.06529379
226	0xbdbeada1	-0.09310461
227	0x3d44bc95	0.04803141
228	0x3c126a3b	0.00893646
229	0xbe1d2a78	-0.15348232
230	0x3b9ceeb8	0.0047891997
231	0x3e13face	0.14451143
232	0xbdaf7844	-0.08567861
233	0x3b8cda42	0.0042984793
234	0xbd7802a0	-0.06054938
235	0xbcd77269	-0.026299672
236	0xbcf67dcf	-0.030089287
237	0xbc9bf024	-0.019035406
238	0xbc1b1541	-0.009465517
239	0xbe413ee8	-0.18871653
240	0x3d84f987	0.06492906
241	0x3df2dba3	0.11858299
242	0x3b837ca2	0.00401266
243	0x3d0727a2	0.03299678
244	0x3b9ad21b	0.0047247536
245	0x3e010843	0.12600808
246	0xbe0f6729	-0.14004196
247	0x3c9e7c62	0.01934642
248	0x3db87a96	0.090077564
249	0xbd5ccd71	-0.05390686
250	0x3e06303e	0.1310434
251	0x3daa3f4c	0.08312854
252	0x3e141d9d	0.14464422
253	0xbdfcb9d8	-0.123401344
254	0xbecfec89	-0.4061015
255	0x3de3d85b	0.11125251

conv_layer.3.bias f4 [16]
0	0x3d0a22fe	0.033724777
1	0x3da4888c	0.08033857
2	0xbbdcffd3	-0.006744364
3	0xbd038138	-0.032105654
4	0xbb1410b7	-0.002259297
5	0x3d5b6ec0	0.053572416
6	0x3da43d43	0.08019497
7	0x3d971914	0.0737783
8	0xbd13e918	-0.036110967
9	0xbce3ac9c	-0.027792268
10	0x3d2a5a60	0.041590095
11	0x3d0ac9e8	0.03388396
12	0xbc5280fb	-0.012848134
13	0xbd289f91	-0.0411678
14	0x3d7c16a0	0.061545014
15	0x3d3e414b	0.046448987

conv_layer.4.weight f4 [16]
0	0x3f494a7c	0.7862928
1	0x3f6bdea4	0.921366
2	0x3f52d6e6	0.8235916
3	0x3f990901	1.1955873
4	0x3faa5bcd	1.3309265
5	0x3f695888	0.9115071
6	0x3f431812	0.76208603
7	0x3f830af6	1.023772
8	0x3f9073c7	1.1285332
9	0x3f7717e5	0.96520835
10	0x3f53c870	0.8272772
11	0x3fa1e2c1	1.2647325
12	0x3f87182c	1.0554252
13	0x3f7afee9	0.9804521
14	0x3f823b81	1.0174409
15	0x3f8324f6	1.0245655

conv_layer.4.bias f4 [16]
0	0xbe02a899	-0.12759627
1	0xbdd889a7	-0.1057313
2	0xbe97296e	-0.29523796
3	0xbe5cca41	-0.21561529
4	0xbe8e76fe	-0.2782516
5	0xbe94d55e	-0.29069036
6	0xbe425be4	-0.18980366
7	0xbe970de2	-0.2950278
8	0xbe869a84	-0.2628976
9	0xbe326c93	-0.1742423
10	0xbdef394f	-0.116808526
11	0xbe978dd4	-0.29600394
12	0xbe5cab1e	-0.21549651
13	0xbe034a4f	-0.12821315
14	0xbe29e947	-0.16592894
15	0xbe77761f	-0.24166153

conv_layer.4.running_mean f4 [16]
0	0x3f795fcb	0.97411793
1	0xbf459697	-0.77182907
2	0xbf328cbf	-0.6974601
3	0xbf8aca69	-1.0843021
4	0xbe90f692	-0.28313118
5	0x3f21c0f1	0.6318503
6	0x3f223558	0.63362646
7	0xbf84741a	-1.0347931
8	0xbf185f64	-0.59520555
9	0xbf5f9fc3	-0.8735315
10	0x3eaffe22	0.34373575
11	0xbfa92008	-1.32129
12	0xbf6561ac	-0.8960216
13	0xbf98c8eb	-1.1936315
14	0xbeb81b3d	-0.3595828
15	0xbee6022a	-0.44923526

conv_layer.4.running_var f4 [16]
0	0x3fa8e22d	1.3194023
1	0x3f9120ab	1.1338094
2	0x3f6fa0a6	0.93604505
3	0x405a66ab	3.4125164
4	0x40b22f69	5.5682874
5	0x3fc52e54	1.5404763
6	0x3f706a83	0.93912524
7	0x3feeaa41	1.8645707
8	0x4025c7d2	2.590321
9	0x3fbf011c	1.4922214
10	0x3f9f9544	1.2467427
11	0x4060a8bd	3.510299
12	0x3feb0be7	1.8363007
13	0x3fdda126	1.7314804
14	0x3fc3a9a2	1.5286143
15	0x40059581	2.08725

conv_layer.7.weight f4 [32, 16, 3, 3]
0	0x3d74884a	0.059700288
1	0xbcefd9e2	-0.0292787
2	0xbded2a6b	-0.11580356
3	0xbd5f7aea	-0.05456058
4	0xbcedee11	-0.029044183
5	0xbd5ef8bb	-0.054436427
6	0x3ccb153a	0.024790395
7	0x3d3c1d0e	0.045926146
8	0xbc78fc58	-0.015196882
9	0xbe043604	-0.1291123
10	0xb9be676c	-0.0003631668
11	0x3e255b01	0.16147996
12	0x3c10cec0	0.008838356
13	0x3d7ef85f	0.062248584
14	0x3e8d7d97	0.2763488
15	0xbc9e06e8	-0.019290403
16	0x3e437fd6	0.19091734
17	0x3e349a56	0.17637
18	0x3cbecbc0	0.023290515
19	0xbc933511	-0.01796964
20	0x3d7c9929	0.061669502
21	0x3dff5d6b	0.1246899
22	0x3d63731a	0.05552969
23	0x3d9ab0cc	0.075532526
24	0x3e28ebc6	0.1649619
25	0x3da42af1	0.08016003
26	0xbd121c07	-0.03567126
27	0x3e2dd6bb	0.16976444
28	0xbda2bf04	-0.079465896
29	0xbdfba66a	-0.122876
30	0x3c02a6cc	0.007974338
31	0xbe47e061	-0.19519188
32	0xbba3270a	-0.004979019
33	0xbcc64e53	-0.02420727
34	0xbc46c2a1	-0.012131364
35	0x3d96a2de	0.07355283
36	0x3c8f9297	0.017525954
37	0xbcaab5d0	-0.020838648
38	0xbe0bf6b0	-0.13668323
39	0x3d9a89fb	0.07545849
40	0xbde87755	-0.11350886
41	0xbe5d5040	-0.21612644
42	0x3c87d28b	0.016579887
43	0xbe3ffee5	-0.18749578
44	0xbeac500a	-0.33654815
45	0x3ddce273	0.10785379
46	0xbd84ec7e	-0.0649042
47	0xbdf61d51	-0.120173104
48	0x3e21b603	0.15792088
49	0xbcac27b7	-0.021015031
50	0xbd892d14	-0.06698051
51	0xbe557052	-0.20843628
52	0xbd9a0b6c	-0.0752171
53	0xbcac562c	-0.021037184
54	0x3d8a590a	0.06755264
55	0xbd6a98e4	-0.057274714
56	0xbd88f750	-0.06687796
57	0x3b302636	0.0026878244
58	0x3dfb9f11	0.12286199
59	0x3d88c8ec	0.06678948
60	0x3bb53ac3	0.0055306866
61	0x3cdcca7e	0.026952025
62	0x3d4d660f	0.05014616
63	0xbc7473cf	-0.014920189
64	0xbe41e1bf	-0.18933772
65	0xbe3203f5	-0.17384322
66	0x3e82d6bd	0.25554457
67	0x3e5ddf57	0.21667229
68	0x3d529bd4	0.05141814
69	0x3b9b4dc6	0.004739496
70	0xbbbe5715	-0.005808721
71	0x3d55bb22	0.052180417
72	0x3ca9d95c	0.020733528
73	0x3c9f10d3	0.019417202
74	0x3dc36bff	0.09542083
75	0xbd645535	-0.055745322
76	0x3cdbd0d4	0.026832975
77	0x3c1fc5cf	0.009751751
78	0x3d3c6dc3	0.046003114
79	0x3c2d1280	0.010563493
80	0x3c31117f	0.010807394
81	0xbd9174b5	-0.07102338
82	0xbdd071fb	-0.1017799
83	0xbd2aca9d	-0.041697133
84	0x3cb86fa4	0.022514172
85	0x3c774637	0.015092424
86	0xbbf7188b	-0.0075407675
87	0xbd302a8e	-0.043009333
88	0xbe0b6d24	-0.13615853
89	0x3d9313c8	0.07181507
90	0x3e026251	0.12732817
91	0x3b99da08	0.004695181
92	0xbe0d5b81	-0.13804437
93	0x3d8cead6	0.06880729
94	0x3d9bc05e	0.076050505
95	0xbe3e344d	-0.18574639
96	0x3dac14a4	0.084023744
97	0x3d6d7f5e	0.057982795
98	0xbd853539	-0.06504292
99	0x3d82a316	0.063787624
100	0x3d48f91d	0.049065698
101	0xbe0f044a	-0.1396648
102	0x3eaa039b	0.33205876
103	0x3e3ae851	0.18252684
104	0x3d9dce0c	0.07705316
105	0x3e8615a8	0.26188397
106	0xbd8aef84	-0.06783965
107	0xbdc931f4	-0.09823981
108	0x3e947b72	0.2900043
109	0x3d56aee9	0.0524129
110	0xbdd4910f	-0.1037923
111	0x3e4a3519	0.19746818
112	0xbdca6c6d	-0.09883962
113	0xbcf8fbde	-0.030393537
114	0xbd80cda9	-0.062892266
115	0x3dae55ad	0.08512435
116	0xbd54cde6	-0.051954173
117	0xbdb73745	-0.08946089
118	0x3d157e66	0.036497496
119	0xba9fecf1	-0.0012201351
120	0xbd3a0871	-0.045418207
121	0x3c7a04aa	0.015259901
122	0x3d222abf	0.039591547
123	0x3d045879	0.032310937
124	0x3ddb32bf	0.107030384
125	0x3c4e7bb2	0.012602733
126	0xbda7eee4	-0.08199862
127	0xbdc47651	-0.095928796
128	0xbc753ce0	-0.014968127
129	0xbe35b671	-0.17745377
130	0xbd2b4ef0	-0.041823328
131	0xbcb48b9e	-0.02203923
132	0xbc9ff7b3	-0.019527292
133	0x3cae1ae9	0.021253066
134	0x3e9d70aa	0.30750018
135	0x3e234c62	0.15947106
136	0x3dbaa05f	0.091126196
137	0xbd15e2b9	-0.036593173
138	0x3d8f06f0	0.06983745
139	0xbdd18dd2	-0.10232128
140	0xbe00e749	-0.12588228
141	0x3e364ee8	0.17803538
142	0x3e115166	0.14191207
143	0x3d0b9c56	0.03408464
144	0xbc9eedd3	-0.019400513
145	0xbe4f3a54	-0.20237094
146	0xbe0e3a55	-0.1388944
147	0xbc24e505	-0.010064368
148	0xbe7b6ed6	-0.24554
149	0xbe150929	-0.14554276
150	0x3dbe8e7d	0.09304521
151	0xbc93fa46	-0.018063676
152	0x3e024862	0.12722924
153	0x3ce91c9f	0.02845603
154	0x3d8d073a	0.06886144
155	0x3ad88347	0.0016518616
156	0xbdd58c2a	-0.10427125
157	0x3ded3b94	0.11583629
158	0x3d96a298	0.07355231
159	0xbdb294de	-0.087198004
160	0xbdc347c5	-0.09535173
161	0x3ca40452	0.020021591
162	0x3c80c2f6	0.015717965
163	0xbc66fc54	-0.014098246
164	0xbd0c569f	-0.034262296
165	0x3c1075a5	0.008817111
166	0xbcd46943	-0.025929099
167	0x3d6a4e04	0.057203308
168	0x3e222975	0.15836127
169	0x3d811a60	0.06303859
170	0x3cfda4e0	0.030962408
171	0xbd3680b7	-0.044556346
172	0x3e207d7c	0.15672868
173	0x3d82b5eb	0.06382354
174	0x3e1b8333	0.15186767
175	0xbc1288bf	-0.008943736
176	0xbd3913c9	-0.045184884
177	0x3cba14fb	0.022715082
178	0x3e2a4abf	0.16630076
179	0xbe27ff2f	-0.16405939
180	0xbdee99f2	-0.116504565
181	0x3e445cbe	0.19176003
182	0x3dadb062	0.08480908
183	0x3e642fca	0.22283855
184	0x3e8901c6	0.26759166
185	0x3dd32549	0.10309846
186	0x3d26df18	0.040740103
187	0x3e2e37b5	0.17013438
188	0x3d5993fe	0.053119652
189	0xbddc210a	-0.10748489
190	0xbcaa43f4	-0.020784356
191	0x3c0b8105	0.008514647
192	0xbd5108c2	-0.051033743
193	0x3c0f5a01	0.008749486
194	0xbda3adda	-0.07992144
195	0x3dad78dc	0.08470318
196	0x3c221bfe	0.009894369
197	0xbe1d3732	-0.15353087
198	0xbbadcb06	-0.0053037433
199	0xbe0f5f1d	-0.14001127
200	0xbe183a3c	-0.14865965
201	0x3c05a4d2	0.008156972
202	0xbe42426b	-0.18970649
203	0xbdc103a1	-0.0942452
204	0x3d8341ee	0.064090595
205	0xbca469a8	-0.020069912
206	0xbbf56fe2	-0.007490144
207	0x3d994a32	0.07484855
208	0xbc82fac1	-0.01598871
209	0xbdb1da7f	-0.08684253
210	0x3daa1e05	0.08306507
211	0x3ca4d31c	0.020120196
212	0xbd132c93	-0.03593118
213	0x3b1e57c8	0.0024161208
214	0xbc86d8ac	-0.01646074
215	0xbd7097e7	-0.058738615
216	0xbdd98757	-0.10621517
217	0x3d14c7b4	0.036323264
218	0xbdd125d0	-0.1021229
219	0xbe57a23f	-0.21057986
220	0x3c8c11d3	0.017098343
221	0xbe009452	-0.1255658
222	0xbd712fcd	-0.058883477
223	0x3d657a85	0.056025047
224	0x3db68ce6	0.08913593
225	0xbb9b44ce	-0.004738427
226	0xbd5d4d03	-0.054028522
227	0x3caca1e7	0.021073295
228	0xbce10d36	-0.02747212
229	0x3d71ed1b	0.059064012
230	0x3db0c6f5	0.08631698
231	0xbb24868a	-0.0025104606
232	0xbc734a37	-0.014849237
233	0x3bbe1026	0.005800265
234	0xbe6e2527	-0.2325636
235	0xbec70028	-0.38867307
236	0xbea820de	-0.32837576
237	0xbe10607a	-0.14099303
238	0xbe9db0cb	-0.30798945
239	0xbea3e149	-0.32007816
240	0x3e47fe62	0.19530633
241	0x3d0a41c4	0.033754125
242	0xbbc3b351	-0.005972304
243	0xbdffe4f0	-0.12494838
244	0xbba2cccc	-0.0049682613
245	0xbe7f9e48	-0.24962723
246	0xbd7ebf30	-0.06219405
247	0x3d216d83	0.03941108
248	0x3b436803	0.0029816634
249	0xbdc47dce	-0.09594308
250	0xbde3e771	-0.11128128
251	0x3d1888d8	0.03723988
252	0x3e1b49b1	0.1516483
253	0x3ce6f4ea	0.028192956
254	0xbe0a34d4	-0.13496715
255	0x3d122071	0.03567547

conv_layer.7.bias f4 [32]
0	0x3d1df248	0.038561136
1	0xbaa9d492	-0.0012957028
2	0x3d28aa98	0.041178316
3	0x3c27ee94	0.010249753
4	0xbc9afee6	-0.018920373
5	0xbd7c621b	-0.061617
6	0xbda35312	-0.07974829
7	0x3d2feefb	0.04295252
8	0xbbb4902d	-0.005510351
9	0xbd46a2bb	-0.048495036
10	0xbd4dc953	-0.050240826
11	0xbd0e64c0	-0.03476405
12	0x3c3eb875	0.011640658
13	0xbc8851fc	-0.016640656
14	0x3d95d25a	0.07315512
15	0xbd9d3ebc	-0.07677981
16	0xbd2ffd2e	-0.04296606
17	0x3d97b933	0.07408371
18	0x3d39425e	0.04522931
19	0xbd1e8690	-0.038702548
20	0xbd38acc8	-0.045086652
21	0xbcac2e5b	-0.021018198
22	0xbc51369b	-0.012769367
23	0x3d0fa0d6	0.035065494
24	0x3d8b77e6	0.06809978
25	0xbc78d0ee	-0.0151865315
26	0xbd152a70	-0.036417425
27	0xbb0c95e4	-0.0021451646
28	0xbd0e1e0b	-0.03469662
29	0xbda720ab	-0.08160528
30	0xbd643f40	-0.055724382
31	0xbd1c179b	-0.03810845

conv_layer.8.weight f4 [32]
0	0x3f6c7b40	0.92375565
1	0x3f6e5951	0.93105036
2	0x3f39a37c	0.7251508
3	0x3f9193ec	1.1373267
4	0x3f7fa588	0.99861956
5	0x3f4ff58f	0.8123407
6	0x3f60ff99	0.8789001
7	0x3f7825c4	0.96932626
8	0x3f825f57	1.0185345
9	0x3f9d2490	1.2276783
10	0x3f8874a9	1.0660602
11	0x3f5f1876	0.871467
12	0x3f8d0bd7	1.1019238
13	0x3f5bf726	0.85923994
14	0x3f622e19	0.8835159
15	0x3f624666	0.8838867
16	0x3f6a8d7e	0.9162215
17	0x3f8c409c	1.0957217
18	0x3f933fa1	1.1503793
19	0x3f82a81c	1.0207553
20	0x3f85320f	1.0405902
21	0x3f90132a	1.1255848
22	0x3f5bb512	0.85823166
23	0x3f915c12	1.1356223
24	0x3f900f71	1.1254712
25	0x3f830395	1.0235468
26	0x3f7d95d3	0.9905674
27	0x3f78f563	0.9724943
28	0x3f98804e	1.1914155
29	0x3f7635c7	0.9617581
30	0x3f8e4fda	1.1118119
31	0x3f4fbd3a	0.8114811

conv_layer.8.bias f4 [32]
0	0xbdf44f10	-0.119291425
1	0x3e0bd8d1	0.13656928
2	0xbd826b58	-0.063681304
3	0xbb91eb0e	-0.0044530695
4	0xbe12917f	-0.14313315
5	0xbdd6f712	-0.10496344
6	0xbd5d1330	-0.053973377
7	0xbe859441	-0.2608967
8	0xbe02bd64	-0.1276756
9	0xbe2948f8	-0.16531742
10	0xbe332054	-0.17492801
11	0xbe321f3e	-0.1739473
12	0xbe7a4d2d	-0.24443503
13	0xbe48fc76	-0.19627556
14	0xbe3f322c	-0.18671483
15	0x3cb7ee2c	0.022452436
16	0xbe2d739e	-0.16938636
17	0xbe4994e0	-0.19685698
18	0xbe002082	-0.12512401
19	0xbded6efa	-0.11593433
20	0xbd8659e8	-0.06560117
21	0xbc1f830c	-0.009735834
22	0xbe5f376c	-0.21798486
23	0xbf088ca7	-0.5333962
24	0xbd5eb55c	-0.054372177
25	0xbce2971c	-0.027659945
26	0xbe282ef7	-0.16424166
27	0xbe42a032	-0.19006422
28	0xbe487c77	-0.1957873
29	0xbd9663da	-0.07343264
30	0xbe953a49	-0.2914603
31	0xbe31510e	-0.17316076

conv_layer.8.running_mean f4 [32]
0	0x3f0741ab	0.52834576
1	0xbf880b5f	-1.062847
2	0x3f933824	1.1501508
3	0xbf82d9fe	-1.0222776
4	0xbf47f671	-0.78110415
5	0x3e2c6420	0.1683507
6	0x3c9ae5ae	0.018908348
7	0xbf103c6e	-0.5634221
8	0xbe565fab	-0.20934932
9	0xc00be478	-2.1858196
10	0xbf5d330a	-0.86406004
11	0xbf8053be	-1.0025556
12	0xbfc13c0f	-1.5096453
13	0x3ebe090a	0.3711627
14	0x3d3d563e	0.046224825
15	0xbf8e06f7	-1.1095876
16	0xbeabc1db	-0.33546337
17	0xbfba8ee3	-1.4574856
18	0xbf4cd9d2	-0.8001987
19	0xbf7d6c54	-0.9899342
20	0xbfbe7538	-1.4879522
21	0xbf91c3f5	-1.1387926
22	0x3f3865a4	0.7203009
23	0xbf0f047f	-0.55866235
24	0xbf388067	-0.72070926
25	0xbfa32d2f	-1.2748164
26	0xbee31af1	-0.44356492
27	0xbf1ef426	-0.6209129
28	0xbfa25718	-1.2682829
29	0xbf0ad12a	-0.5422541
30	0xbfad1146	-1.3520896
31	0x3f30861e	0.68954647

conv_layer.8.running_var f4 [32]
0	0x3fe103d2	1.7579291
1	0x3fd48a1a	1.6604645
2	0x3fb5364d	1.4157196
3	0x3ff792a6	1.9341629
4	0x3fce845a	1.613414
5	0x3f9d30a9	1.2280475
6	0x3fc35215	1.5259424
7	0x3fcf7b4e	1.6209505
8	0x3fcf6dd5	1.6205393
9	0x4026dac9	2.6071036
10	0x3fe7cb00	1.8108826
11	0x3fea898f	1.832323
12	0x3fd45d95	1.6591059
13	0x3fb03370	1.3765697
14	0x3ffdd620	1.9830971
15	0x40165e57	2.349508
16	0x3fc59606	1.5436409
17	0x3fd6aef3	1.677214
18	0x401684ac	2.3518476
19	0x3ff2b4e2	1.8961451
20	0x3fa583a4	1.2930799
21	0x400866da	2.1312776
22	0x3fa50936	1.2893436
23	0x4025dbe7	2.5915468
24	0x40265d40	2.5994415
25	0x3fe6ac8b	1.8021406
26	0x3fb01793	1.3757194
27	0x3fea2a9a	1.8294251
28	0x401cad78	2.4480877
29	0x3fae2954	1.3606362
30	0x40401ee7	3.0018861
31	0x3fca71f0	1.5816021

conv_layer.10.weight f4 [32, 32, 3, 3]
0	0x3da06015	0.07830826
1	0x3d0edee4	0.034880534
2	0xbda8adff	-0.08236312
3	0x3c1acd07	0.009448296
4	0x3bcd05f0	0.0062568113
5	0xbe01b191	-0.12665392
6	0xbda7cdd9	-0.08193559
7	0x3c8dcd96	0.017309945
8	0xbd2a290a	-0.041543044
9	0xbd114df3	-0.03547473
10	0xbd6267a9	-0.05527464
11	0xbd4962e3	-0.04916657
12	0x3dbe9e8a	0.09307583
13	0xbdb322fd	-0.08746908
14	0xbdf4f5aa	-0.11960919
15	0xbc8c061b	-0.017092755
16	0x3bc28084	0.0059357304
17	0xbdacb563	-0.08433034
18	0x3d8c1347	0.06839614
19	0xba6aa28f	-0.0008950615
20	0x3d824a40	0.06361818
21	0xbde3be80	-0.11120319
22	0xbd17e048	-0.037079126
23	0xbd1168d3	-0.03550036
24	0xbc293265	-0.010326956
25	0xbb9e778e	-0.0048360294
26	0x3de65e1a	0.11248417
27	0x3c8c85b3	0.017153597
28	0xbe27a75d	-0.16372438
29	0xbd5493ad	-0.051898647
30	0xbd25e65e	-0.0405029
31	0xbdd24bc1	-0.10268355
32	0xbde05d07	-0.109552436
33	0x3c30908b	0.010776649
34	0x3b1227a1	0.0022301453
35	0xbdf336c4	-0.1187568
36	0x3da9c6a6	0.08289842
37	0xbd7b3d9e	-0.06133806
38	0xbd477cdd	-0.048703063
39	0xbdcb9a71	-0.09941567
40	0xbda6b375	-0.081396975
41	0xbd7153e7	-0.058917906
42	0x3cc28c03	0.023748403
43	0xbd61f297	-0.055162992
44	0xbd3b924d	-0.04579382
45	0xbc5cb12c	-0.013469975
46	0x3cee4e74	0.029090144
47	0xbbd4deec	-0.006496301
48	0xbd7b51ab	-0.06135718
49	0x3d2fbce3	0.042904746
50	0x3d2e43b3	0.04254503
51	0x3a25f28b	0.0006330392
52	0xbd8318b7	-0.06401198
53	0x3c88303f	0.016624568
54	0x3d46e4c1	0.048558
55	0xbcb61244	-0.022225507
56	0x3c75a570	0.014993057
57	0x3d0d5286	0.03450253
58	0xbd2a44d4	-0.041569546
59	0xbd6f08e5	-0.05835809
60	0x3d9bbc45	0.07604269
61	0x3ce0a3e4	0.0274219
62	0xbd16be6e	-0.0368027
63	0x3e791008	0.24322522
64	0x3d66bf1c	0.0563346
65	0x3d74994a	0.0597165
66	0x3e00332a	0.12519518
67	0x3d813dcb	0.06310614
68	0x3d042af7	0.032267537
69	0x3c357f64	0.011077736
70	0x3d8df3e2	0.069312826
71	0x3e0d0894	0.13772804
72	0x3cae1eba	0.021254886
73	0xbd105b58	-0.035243362
74	0xbda4dcf0	-0.08049953
75	0xbb34cf10	-0.002758924
76	0xbdcba295	-0.099431194
77	0xbda9e29b	-0.08295175
78	0x3d838b51	0.06423057
79	0xbbf52800	-0.007481575
80	0x3cf2dff1	0.0296478
81	0x3d7c29e7	0.0615634
82	0x3e0301a7	0.12793599
83	0x3e181dd8	0.14855134
84	0xbbef5b34	-0.0073045734
85	0x3d9886b3	0.07447567
86	0x3d63f697	0.05565509
87	0x3e226e51	0.15862395
88	0x3d9418c3	0.072312854
89	0x3cf34080	0.029693842
90	0xbd57a090	-0.05264336
91	0xbdabbd6b	-0.08385738
92	0xbb8cd7e6	-0.004298198
93	0xbd81018f	-0.062991254
94	0xbd92b188	-0.07162768
95	0xbd6cb7ff	-0.05779266
96	0xbbba85f3	-0.0056922375
97	0xbdb5f2b5	-0.08884183
98	0x3c725ac2	0.014792146
99	0x3d13f08a	0.036118068
100	0x3df2015c	0.118166655
101	0xbd9f9d95	-0.07793728
102	0xbc1ed680	-0.0096946955
103	0x3d997a48	0.074940264
104	0x3d0aa3d6	0.033847652
105	0xbddcb14a	-0.10776003
106	0x3d634b76	0.055491887
107	0x3dfc9ec6	0.12334971
108	0x3d2d8bf5	0.0423698
109	0x3c389bd6	0.011267623
110	0x3d8bc384	0.06824401
111	0x3c2f7878	0.010709874
112	0xbd3b8c26	-0.045787953
113	0x3d4dcb11	0.050242487
114	0xbd363b30	-0.04449004
115	0xbb294df0	-0.0025833808
116	0xbd0e9134	-0.034806445
117	0xbafc3415	-0.0019241596
118	0xbdce0acf	-0.10060655
119	0xbd852fc0	-0.06503248
120	0xbd572b24	-0.052531376
121	0xbd59d3de	-0.053180568
122	0xbd82b52a	-0.063822106
123	0xbdd51460	-0.10404277
124	0xbe421ab8	-0.18955505
125	0xbd8a8b37	-0.067648344
126	0xbae7b9b6	-0.0017679248
127	0xbd95450f	-0.072885625
128	0x3d4c1eb9	0.049833987
129	0xbd7bb7d8	-0.061454624
130	0xbdbc963d	-0.09208343
131	0xbda894d7	-0.08231514
132	0xbcd15208	-0.02555181
133	0xbdabdfda	-0.08392306
134	0xbd82dfef	-0.06390368
135	0xbbe72101	-0.007053495
136	0xbcc0e31e	-0.023545798
137	0xbd0ae626	-0.033910893
138	0x3d2b9d41	0.041898016
139	0x3d3ed703	0.04659177
140	0x3d1dcf29	0.03852764
141	0x3e109319	0.14118613
142	0xbd8c4920	-0.06849885
143	0x3b0f8ffb	0.0021905887
144	0x3c802164	0.015640922
145	0xbd882617	-0.0664789
146	0xbe54540d	-0.20735188
147	0x3dedc6f2	0.116102114
148	0x3c31b699	0.010846757
149	0xbd591bf1	-0.053005163
150	0xbd88c5f9	-0.06678385
151	0x3cc23ef8	0.023711666
152	0x3d12bd98	0.035825342
153	0xbdf6de79	-0.12054152
154	0xbc84e570	-0.016222686
155	0x3d32bc57	0.043636646
156	0x3da9bda2	0.08288123
157	0x3d4538f8	0.048150033
158	0x3dc3b376	0.09555714
159	0x3ce867c8	0.0283698
160	0xbd161ff6	-0.036651574
161	0x3cca2759	0.024676966
162	0x3d759646	0.059957765
163	0x3d86be87	0.06579309
164	0xbc9c1833	-0.019054508
165	0xbb209f31	-0.0024508948
166	0xbdaf7967	-0.085680775
167	0x3df6a3e8	0.120429814
168	0x3cb5e198	0.022202298
169	0xbd2cacdb	-0.042157035
170	0x3d46fc44	0.048580423
171	0xbd48c9d9	-0.049020622
172	0xbcbd6265	-0.023118207
173	0xbd844d80	-0.064600945
174	0x3dccb3ff	0.09995269
175	0x3dbf0fb8	0.0932917
176	0xbd5fd71b	-0.0546485
177	0x3d811bba	0.063041165
178	0xbda2c4e0	-0.07947707
179	0xbd0db3b5	-0.03459521
180	0xbd8aea23	-0.06782939
181	0x3d7f3168	0.062302977
182	0xbd7d454c	-0.061833665
183	0x3cdfafba	0.027305473
184	0x3df03fbf	0.117309086
185	0x3d56ba2f	0.052423652
186	0x3ca840d9	0.020538734
187	0xbd723c8e	-0.05913978
188	0x3cd60c80	0.026129007
189	0x3dae107d	0.08499239
190	0x3e0aded4	0.13561565
191	0x3dc03438	0.0938496
192	0x3c96f122	0.018425528
193	0x3d554e67	0.052076723
194	0x3d802a9b	0.06258126
195	0xbb315e14	-0.0027064132
196	0xbc2c0ad4	-0.0105006285
197	0x3b4ca54b	0.0031226452
198	0xbc5a5ea7	-0.013328231
199	0xbd7efc73	-0.062252473
200	0x3c8841ea	0.016632993
201	0xbc8a7ffc	-0.01690673
202	0xbde863dd	-0.113471724
203	0xbb8f95ce	-0.004381872
204	0x3c442fbf	0.011974274
205	0xbd4b02f8	-0.049563378
206	0x3da423f7	0.08014672
207	0xbe0d8176	-0.13818917
208	0xbde3f1dc	-0.111301154
209	0x3d200cba	0.039074637
210	0xbcdbcaa0	-0.026830018
211	0xbcd1d195	-0.025612632
212	0xbd96409d	-0.07336543
213	0xbe1135a3	-0.14180617
214	0xbdf798b1	-0.120896704
215	0xbc6fa9d0	-0.014627889
216	0x3d8c44fd	0.06849096
217	0xbdbca989	-0.09212024
218	0xbd202a75	-0.03910299
219	0x3c590bae	0.013247414
220	0xbd5b7908	-0.05358222
221	0xbd98919b	-0.07449647
222	0x3c880118	0.016602084
223	0xbcfc80dc	-0.030823164
224	0xbd8c7d4a	-0.068598345
225	0x3d1b7cc7	0.037960794
226	0xbce7dbbd	-0.028303022
227	0xbdc369ea	-0.09541686
228	0x3bb4d946	0.005519065
229	0x3cf5bf27	0.029998375
230	0xbd01aaf3	-0.03165717
231	0x3d50378c	0.050834224
232	0x3d73ef28	0.05955425
233	0xbdb6d0b4	-0.08926526
234	0x3cef8af8	0.02924107
235	0x3c6e4440	0.014542639
236	0xbd1d7ad8	-0.03844723
237	0xbd22d1b9	-0.03975079
238	0xbd669aee	-0.056300096
239	0xbd083252	-0.033251114
240	0xbe044e60	-0.12920523
241	0xbdc8caed	-0.0980433
242	0xbcfcabe2	-0.030843679
243	0x3e2e21ff	0.17005156
244	0x3da18936	0.07887499
245	0x3da599e0	0.0808599
246	0x3d9abd10	0.07555592
247	0x3d114246	0.035463594
248	0x3e26d92a	0.16293779
249	0xbc06b02f	-0.008220716
250	0xbcf835e9	-0.030299144
251	0x3d828222	0.06372477
252	0xbdda25fa	-0.10651775
253	0xbd280590	-0.04102093
254	0x3d97ebb7	0.07418006
255	0xbe3e43a7	-0.18580495

conv_layer.10.bias f4 [32]
0	0xbc93d4f6	-0.018045884
1	0x3d37fe50	0.044920266
2	0xbd221d59	-0.03957877
3	0xbc007e07	-0.007842547
4	0xbc94cce7	-0.018164111
5	0xbd4dbc17	-0.050228205
6	0xbd590916	-0.05298718
7	0x3d63efbc	0.05564855
8	0x3c9aa6ca	0.01887836
9	0xbd4e3b88	-0.050349742
10	0x3cec3380	0.02883315
11	0x3c4e0ba5	0.012576018
12	0x3d6d5e1f	0.05795109
13	0xbc91af7e	-0.017783877
14	0x3c916670	0.017749041
15	0x3c2df0b6	0.010616472
16	0x3c1f7885	0.009733324
17	0xbd3e5a09	-0.046472583
18	0x3d35bb35	0.044367988
19	0x3c68d1fe	0.014210222
20	0xbc1098ee	-0.008825524
21	0x3cd8d265	0.026467511
22	0x3d29252c	0.041295215
23	0xbd076640	-0.033056498
24	0x3d42a0a3	0.047516476
25	0x3d076a75	0.03306051
26	0x3c87065f	0.01648253
27	0xbd593bc5	-0.053035516
28	0x3c7f0c51	0.015566901
29	0xbd6ad86c	-0.057335302
30	0x3d27299c	0.040811166
31	0x3be2ac6c	0.006917527

conv_layer.11.weight f4 [32]
0	0x3f8d2110	1.1025715
1	0x3f7fec7d	0.9997023
2	0x3f8341e3	1.0254482
3	0x3f89e8a0	1.0774117
4	0x3f868400	1.0509033
5	0x3f9bfc42	1.2186358
6	0x3f93e019	1.1552764
7	0x3f8fd513	1.12369
8	0x3f846f46	1.0346458
9	0x3fa8e57f	1.3195037
10	0x3fa9e7e7	1.3273896
11	0x3f8704f1	1.0548383
12	0x3f95859f	1.1681403
13	0x3f9484f8	1.1603079
14	0x3f919142	1.1372454
15	0x3f9cfebf	1.2265242
16	0x3f90afb6	1.1303623
17	0x3f9d428e	1.2285936
18	0x3f928370	1.1446362
19	0x3f8a6f54	1.0815225
20	0x3f99074c	1.1955352
21	0x3f922c1a	1.1419709
22	0x3f9d43ed	1.2286354
23	0x3f913268	1.1343508
24	0x3facc84c	1.3498626
25	0x3f8d637a	1.1045983
26	0x3f8f071b	1.1174043
27	0x3f93e671	1.15547
28	0x3f8ed513	1.1158775
29	0x3f92263b	1.1417917
30	0x3f8b6f3d	1.0893322
31	0x3f91bbe3	1.1385463

conv_layer.11.bias f4 [32]
0	0xbed83e14	-0.42234862
1	0xbf2306dc	-0.6368234
2	0xbef2fd4a	-0.4745887
3	0xbf2e5480	-0.68097687
4	0xbf1ef26d	-0.6208866
5	0xbf32bf34	-0.69823
6	0xbf2a9aa8	-0.66642237
7	0xbf070bf9	-0.52752644
8	0xbf1bc6bc	-0.6085012
9	0xbf2dc59f	-0.6787967
10	0xbf40f6eb	-0.75376767
11	0xbf1f3e0c	-0.6220405
12	0xbf0630f4	-0.52418447
13	0xbf22eb64	-0.6364043
14	0xbf188490	-0.59577274
15	0xbf194bfc	-0.5988157
16	0xbf0b569a	-0.5442902
17	0xbf606cb4	-0.8766587
18	0xbf214874	-0.6300118
19	0xbf1ffc7c	-0.62494636
20	0xbf19450a	-0.5987097
21	0xbf1a16bc	-0.6019094
22	0xbf482909	-0.78187615
23	0xbeccf67f	-0.40031812
24	0xbf1d563c	-0.6145971
25	0xbf09379e	-0.5360049
26	0xbf1d17cc	-0.61364436
27	0xbf2bc846	-0.6710247
28	0xbf0b8096	-0.5449308
29	0xbf3094c6	-0.6897701
30	0xbef9fc77	-0.48825428
31	0xbf2c25ac	-0.6724498

conv_layer.11.running_mean f4 [32]
0	0xbf18e38e	-0.5972222
1	0xbdf49c7e	-0.11943911
2	0x3d1a2fe3	0.037643325
3	0xbf6e5331	-0.9309569
4	0xbf52190c	-0.8206947
5	0xbf6877ad	-0.9080761
6	0xbf04cd3c	-0.5187566
7	0xbfda3acc	-1.7049193
8	0x3b97a0c8	0.004627321
9	0xbfff6d5a	-1.9955246
10	0xbf6c0944	-0.9220164
11	0xbf2f708d	-0.68531114
12	0xbec28cf6	-0.3799817
13	0xbfeda147	-1.8564843
14	0xbf90ca78	-1.1311789
15	0xbfd62546	-1.6730125
16	0xbfa8e017	-1.3193387
17	0xbfa4f2fd	-1.2886654
18	0xbf20b5d1	-0.6277743
19	0xbf140b80	-0.5783005
20	0xc00f6def	-2.2410848
21	0xbf964624	-1.1740155
22	0xbfb469b4	-1.4094758
23	0xbfac0598	-1.3439207
24	0xbfade977	-1.3586873
25	0x3cacc338	0.021089181
26	0xbf652421	-0.89508253
27	0xbf50cc2c	-0.8156154
28	0xbf0fe61b	-0.5621049
29	0x3c899e74	0.01679919
30	0x3db2d930	0.087328315
31	0xbec248a7	-0.37946054

conv_layer.11.running_var f4 [32]
0	0x3f41ba73	0.75675124
1	0x3f5ddfcb	0.86669606
2	0x3f1f0d07	0.62129253
3	0x3f827d72	1.0194533
4	0x3f501eed	0.8129719
5	0x3f99a608	1.2003794
6	0x3f341774	0.70348287
7	0x3f62d471	0.8860541
8	0x3f34b8a8	0.70594263
9	0x3f6ef937	0.9334902
10	0x3fa9b170	1.3257275
11	0x3f391909	0.72303826
12	0x3f73887c	0.95130134
13	0x3f498bf6	0.7872919
14	0x3f5b5b03	0.8568575
15	0x3f82911c	1.0200534
16	0x3f385e3f	0.7201881
17	0x3f819462	1.0123408
18	0x3f75e532	0.9605285
19	0x3f560c4d	0.8361252
20	0x3f7a8458	0.9785819
21	0x3f52b705	0.82310516
22	0x3f89ca63	1.0764889
23	0x3f3b85f6	0.73251283
24	0x3fa4847e	1.2852933
25	0x3f50ec2d	0.81610376
26	0x3f477704	0.7791598
27	0x3f42f0a5	0.76148444
28	0x3f4dc7ec	0.8038318
29	0x3f8441c0	1.0332565
30	0x3f3377cb	0.70104665
31	0x3f92e4ec	1.1476111

fc_layer.0.weight f4 [10, 2048]
0	0x3ca05fcb	0.019576928
1	0x3d2a76c1	0.04161716
2	0x3dd53d25	0.10412053
3	0x3d7cfb3a	0.061763026
4	0x3c460034	0.012085009
5	0xbd44ce4f	-0.048048314
6	0x3d829828	0.06376678
7	0x3be708e8	0.0070506223
8	0x3d31bb2c	0.04339139
9	0x3dd0b6ab	0.10191091
10	0x3e1b325b	0.15155928
11	0x3e278c93	0.16362219
12	0x3db1e265	0.086857595
13	0x3d993c4d	0.074822046
14	0x3c830adc	0.01599639
15	0x3ce103e7	0.027467681
16	0x3d8e848d	0.06958876
17	0x3df5050b	0.119638525
18	0x3d343e77	0.044004884
19	0xbb0201df	-0.001983754
20	0x3bf17c69	0.007369567
21	0x3d389a2d	0.04506891
22	0x3c8d07ec	0.017215692
23	0x3c893a76	0.01675151
24	0x3d2c8841	0.04212213
25	0x3cd383e2	0.025819723
26	0xbdaeb176	-0.08529942
27	0xbd7596a0	-0.0599581
28	0xbc86e391	-0.016465934
29	0x3c1d4e13	0.009601134
30	0xbce5533a	-0.027993787
31	0x3d62335e	0.05522477
32	0x3db2e81c	0.087356776
33	0x3d3be2c6	0.045870565
34	0xbe10ea79	-0.14151944
35	0x3bfb03ae	0.0076603508
36	0x3d81e216	0.063419506
37	0x3c998f0e	0.018744972
38	0x3d6557a9	0.055991802
39	0x3cd93b61	0.026517572
40	0x3da2f3b9	0.07956643
41	0x3cd7b821	0.026332917
42	0xbd46373c	-0.04839252
43	0x3d8d372d	0.068952896
44	0x3d3a5f35	0.045500953
45	0x3cdf0cca	0.027227778
46	0xbd6211e7	-0.055192854
47	0x3d97b887	0.07408243
48	0x3daecf83	0.085356735
49	0x3c8885e2	0.016665403
50	0x3d873486	0.06601815
51	0x3cd22cce	0.02565613
52	0x3cafc912	0.021458182
53	0x3cdc0b51	0.026860865
54	0xbd1e231a	-0.038607694
55	0x3d0da269	0.034578715
56	0xbceecc78	-0.029150233
57	0xbce8bf6d	-0.028411591
58	0x3afa706b	0.001910699
59	0x3cd7f3f5	0.026361445
60	0x3b171318	0.0023052152
61	0x3d0b09ba	0.033944823
62	0x3bcaca01	0.0061886315
63	0xbb0e9f6a	-0.0021762499
64	0xbddd91e5	-0.10818843
65	0xbd6aff1e	-0.057372205
66	0xbb0ee82b	-0.0021805863
67	0x3db30250	0.087406754
68	0x3d1ef19f	0.038804647
69	0x3becde26	0.0072286306
70	0xbbba3084	-0.005682053
71	0xbc61c1ef	-0.0137791475
72	0x3d73a4f0	0.05948347
73	0x3d5c6366	0.05380573
74	0x3c163079	0.00916683
75	0x3ca26119	0.01982169
76	0x3d0b33f7	0.033985104
77	0x3cea7247	0.028618945
78	0x3df6cde3	0.120509885
79	0x3db1f0fb	0.086885415
80	0x3e1e16e7	0.15438424
81	0x3d2c4c15	0.042064745
82	0x3d61363e	0.05498337
83	0xbc7da5b3	-0.0154814
84	0x3d789a61	0.060694102
85	0x3ceb4cd2	0.028723154
86	0x3d866a67	0.065632634
87	0x3d35f460	0.044422507
88	0x3dea291d	0.11433623
89	0xbdb71a5e	-0.08940576
90	0xbbc489f3	-0.00599789
91	0x3d1e8a4d	0.038706113
92	0xbd209791	-0.039207045
93	0xbcc9884d	-0.024601126
94	0x3cda4f98	0.026649281
95	0x3d7774c4	0.06041409
96	0xbd07607e	-0.033051006
97	0xbdc9c874	-0.098526865
98	0xbdb54f7d	-0.08853052
99	0xbdd0b60c	-0.10190973
100	0x3cfb62bd	0.03068673
101	0xbd187647	-0.037222173
102	0xbd3fb50c	-0.04680352
103	0xbcc79b7a	-0.02436613
104	0x3b3c8e91	0.00287715
105	0xbddaf69f	-0.106915705
106	0xbb1135d6	-0.0022157333
107	0xbe0b1780	-0.13583183
108	0x3c194d5a	0.009356821
109	0xbd56fb49	-0.052485738
110	0xbccd5b9c	-0.025068097
111	0xbd2cb1c4	-0.042161718
112	0x3ca8ef9d	0.020622069
113	0xbd45399f	-0.048150655
114	0xbda3fb69	-0.08006937
115	0xbbe15d57	-0.006877582
116	0x3cccd718	0.025004908
117	0x3d822a03	0.06355669
118	0x3cb05d01	0.021528723
119	0xbc24dc50	-0.010062292
120	0xbd870801	-0.065933235
121	0xbd86810d	-0.06567583
122	0xbdd14f62	-0.10220219
123	0x3d7b29ef	0.061319288
124	0x3e095b93	0.13413839
125	0x3d71005b	0.05883823
126	0x3d55a8f6	0.052163087
127	0xbcd527da	-0.02601998
128	0x3d004ed0	0.03132516
129	0x3cf7d9b0	0.030255169
130	0x3d637d6b	0.05553953
131	0xbbed2622	-0.007237212
132	0xbc11485c	-0.0088673495
133	0x3ba144f6	0.004921551
134	0x3c739ab8	0.014868431
135	0xbd0fd935	-0.035119254
136	0x3dba49ac	0.09096083
137	0x3ca67f3c	0.020324342
138	0xbc9786f4	-0.018496968
139	0xbcc3cced	-0.023901427
140	0x3d4031a8	0.046922356
141	0x3d26c4f4	0.040715173
142	0x3d2e5be7	0.042568114
143	0x3c49c3e7	0.012314773
144	0x3d931731	0.07182158
145	0xba997ef1	-0.0011710805
146	0x3d05c601	0.032659534
147	0xbbccbcd7	-0.0062480974
148	0x3d44c5a8	0.048040062
149	0x3cb8864d	0.022524977
150	0x3cb0308f	0.02150753
151	0xbd1c2fa3	-0.038131367
152	0xbc51dcf6	-0.012809029
153	0xbd1d2b37	-0.03837129
154	0xbd48a36e	-0.048983984
155	0x3c7db2e3	0.015484544
156	0xbce01db2	-0.02735791
157	0x3d856555	0.06513468
158	0x3d9d8d30	0.07692945
159	0x3ccbbf3b	0.02487146
160	0x3d6c47ab	0.057685535
161	0xbc671df2	-0.014106261
162	0xbd360fba	-0.04444859
163	0xbc052907	-0.008127457
164	0x3b943fed	0.004524222
165	0x3d1477ea	0.03624717
166	0x3da483f2	0.08032979
167	0x3ae5dc71	0.001753701
168	0x3d2295ac	0.03969352
169	0x3c7abe7c	0.015304204
170	0x3d52e44c	0.051487252
171	0x3d95ce85	0.07314781
172	0xbd935dda	-0.07195635
173	0xbda17052	-0.078827515
174	0xbc0eaf60	-0.008708805
175	0x3d219789	0.039451156
176	0x3c4f47b6	0.012651375
177	0x3e52d116	0.20587572
178	0x3e04f2a7	0.1298319
179	0x3decfc9b	0.11571618
180	0xbc9e832e	-0.01934966
181	0xbd141065	-0.036148448
182	0x3bfe8e3b	0.00776842
183	0x3ca91caf	0.02064356
184	0x3dd2aead	0.10287223
185	0x3d4f26d8	0.050574154
186	0x3e452567	0.19252549
187	0x3e0da744	0.13833338
188	0x3c61446c	0.013749223
189	0xbd542d3a	-0.051800944
190	0x3bce0b3b	0.00628796
191	0x3db5a078	0.088684976
192	0xbcd609d1	-0.026127728
193	0xbdac1b55	-0.08403651
194	0xbd056cf1	-0.032574598
195	0x3e036543	0.12831597
196	0x3dacf01e	0.08444236
197	0x3d55e1ef	0.05221742
198	0x3dbd2fa0	0.092375994
199	0xbd6b55fd	-0.05745505
200	0xbd404aca	-0.046946324
201	0xbdd6dbd0	-0.10491145
202	0xbd842369	-0.064520665
203	0xbd788183	-0.060670387
204	0x3cf2c686	0.029635679
205	0x3dbbac5c	0.09163734
206	0x3e1a110e	0.15045568
207	0xbd46e311	-0.04855639
208	0xbdac00d1	-0.08398593
209	0xbd4cc406	-0.04999163
210	0xbe08de7c	-0.13366121
211	0x3d5c78c5	0.053826112
212	0x3da1e84a	0.07905634
213	0x3e673c39	0.22581567
214	0x3e80e951	0.25178006
215	0x3dd72ded	0.105068065
216	0xbe17d64b	-0.1482784
217	0xbe077cc0	-0.13231182
218	0xbe12bc8d	-0.14329739
219	0xbd44d6d4	-0.04805644
220	0x3d479eb2	0.048735328
221	0x3d5812e6	0.052752398
222	0x3ea0938d	0.31362572
223	0x3d402b33	0.046916198
224	0xbda905a2	-0.082530275
225	0xbd87a6e2	-0.06623627
226	0xbdd4ad1e	-0.10384582
227	0x3c1a150e	0.009404434
228	0x3e575f6e	0.21032497
229	0x3dd1a378	0.10236257
230	0x3e09faca	0.13474575
231	0x3e36f9e6	0.17868766
232	0xbd5fcda2	-0.054639466
233	0xbdccbf43	-0.09997418
234	0xbdb513fe	-0.08841704
235	0x3daa9096	0.08328359
236	0x3e08b659	0.1335081
237	0x3cbc2d19	0.022970723
238	0x3bc1ceeb	0.005914559
239	0x3d14cb63	0.036326777
240	0xbd073dcf	-0.03301793
241	0x3d09982b	0.033592384
242	0x3d79599f	0.060876485
243	0xbc860727	-0.016360832
244	0x3de7a066	0.113098904
245	0x3d9347e4	0.071914464
246	0xbd8bc2bc	-0.06824252
247	0x3c2f8b20	0.010714322
248	0xbd3694b9	-0.044575427
249	0xbd290cd9	-0.041272018
250	0xbd9b93b4	-0.075965315
251	0xbd487be4	-0.048946276
252	0x3d94bcc1	0.072625645
253	0xbba8bab7	-0.0051492113
254	0xbd9db7df	-0.07701086
255	0x3d0ff58c	0.03514628

fc_layer.0.bias f4 [10]
0	0x3d91f361	0.07126499
1	0xbdb3dddb	-0.0878255
2	0xbca82790	-0.020526677
3	0x3c50ca4d	0.012743545
4	0x3dec3ee5	0.11535434
5	0x3cba9892	0.02277783
6	0x3c749626	0.014928376
7	0xbcc03b33	-0.023465728
8	0xbc956160	-0.018234909
9	0xbd51d86f	-0.051231798
