Knowledge Distillation/TAKD/saved/10-4-2.pth (torch, 57426 bytes, 14 tensors)

conv_layer.0.weight f4 [16, 3, 3, 3]
-0.16940957 0.14360437 -0.30331612 -0.12550582 0.24834135 -0.5679874 0.5304335 -0.096705504
-0.05800427 -0.29965574 -0.0051285345 -0.27059817 -0.15699536 0.34251678 -0.2861117 0.6227551
-0.014969496 0.23214227 -0.17765364 0.8200558 0.36598107 0.24441564 1.1402612 -0.13481642
0.4936048 -0.07894409 -0.82789093 0.56828034 -0.27116862 -0.658584 0.34579575 -0.2881833
-0.002907623 -0.5608673 0.2853784 0.3363008 -0.2700398 -0.32270932 0.4012815 -0.6010868
-0.7022394 1.1872559 -0.6416465 -0.07638516 1.0366328 -0.48912862 0.08989222 0.9121921
-0.8885634 -0.6739229 1.3559304 -0.94558156 -0.112496234 0.799547 -0.44332466 0.8224393
0.8045773 -0.1442668 -0.36769882 0.46018764 -0.1641981 0.07298796 -0.07883105 -0.72017246
-0.031472143 0.6006856 -0.23567082 -1.4851176 -0.20681849 0.38534904 -0.39011702 -0.44009623
0.3086935 0.18056488 -0.15533414 0.25894094 -0.44758594 -0.22189802 0.38942215 0.2077616
-0.57128125 -2.2942317 -0.950975 -0.81139654 0.30761874 0.7345064 0.967654 0.2411054
0.91530436 1.0578036 0.27429336 0.5269371 0.41694355 0.5816532 0.21671893 -0.14779782
-0.8388088 -0.15928167 -0.32700565 0.5287427 -0.12488714 0.29209664 0.7120896 -0.47509733
-0.1946236 -0.08125546 -0.59555846 -0.5582988 0.29300836 -0.63122183 -0.44409913 0.13254796
-0.38694626 -0.6283595 1.0492034 0.8133345 0.35859528 0.17711292 0.17896627 0.4659433
-0.7242016 -0.7140097 -0.6911748 -0.46208426 -0.70964795 -0.614321 0.7311107 1.1560861
1.3488568 -0.6232795 0.19866656 0.3948126 -0.5752384 -0.110885926 0.0702873 0.1450491
1.1450465 -0.6064936 1.0921718 -1.3535521 -0.12691657 -0.61414444 0.30817214 0.8007542
0.0069868537 0.009372042 -0.6814076 0.6215756 -2.1158073 -0.051238026 -0.955564 -0.045756057
1.2475003 0.48041078 0.14171353 -0.5334348 0.4418146 -1.8690711 0.16651085 -0.51578444
0.86621046 1.4237581 0.49106908 0.42617163 -0.1468492 -0.21640728 0.7197344 0.5431201
-0.31341663 0.61090523 0.51928246 0.47743094 0.59780854 -0.060384538 -0.87136626 -0.31797856
-0.13411188 -0.7331669 -0.6381033 -0.29970735 0.41707084 0.48922694 -0.24531776 -0.38097113
-0.27423018 -0.15355265 0.005247233 -0.36395705 0.46160564 0.47932056 -0.8565157 0.6516159
0.61837983 1.0310661 -1.0488816 -1.5727642 0.02267106 0.7100447 0.32319736 -1.032741
0.8795196 0.33790672 1.2171407 -1.3882085 -1.2641925 0.42692122 0.5693664 1.1448005
-1.5892415 -0.3163092 0.7970533 1.060286 -1.630466 -1.2427641 0.7780361 1.1562763
0.6036734 0.8417683 0.1279734 0.92864585 -0.33829525 -1.0910064 -0.16019954 -1.214516
-0.2903171 1.1005977 0.042077843 0.48075378 0.705094 -0.51095694 -0.44026867 -0.084808536
-0.7588169 0.501201 0.317992 -0.3755003 0.04883623 0.1712767 -0.3255024 -0.564976
-0.24453783 -0.40891257 0.7450386 -0.071857885 -0.6555852 0.89972925 0.5785522 -1.6272664
0.9001332 0.6232912 -1.2076252 0.56006247 0.65433323 -1.3772743 0.5159003 1.5595819
00000000: b479 2dbe 060d 133e 404c 9bbe 9984 00be
00000010: 324d 7e3e 9f67 11bf 7dca 073f 890d c6bd
00000020: e395 6dbd 7a6c 99be 440d a8bb d88b 8abe
00000030: 64c3 20be 5c5e af3e 3c7d 92be e16c 1f3f
00000040: 9e42 75bc b4b6 6d3e d6ea 35be 2def 513f
00000050: df61 bb3e 1848 7a3e 14f4 913f 510d 0abe
00000060: c5b9 fc3e 70ad a1bd a9f0 53bf d27a 113f
00000070: 9dd6 8abe f698 28bf 240c b13e c38c 93be
00000080: d28d 3ebb 0095 0fbf 1e1d 923e 9e2f ac3e
00000090: a842 8abe 283a a5be c574 cd3e d3e0 19bf
000000a0: f6c5 33bf 00f8 973f f242 24bf d36f 9cbd
000000b0: 62b0 843f 116f fabe 6a19 b83d 6c85 693f
000000c0: e478 63bf 3686 2cbf 218f ad3f a211 72bf
000000d0: 6d64 e6bd 1daf 4c3f 73fb e2be 628b 523f
000000e0: c7f8 4d3f adba 13be 0543 bcbe b79d eb3e
000000f0: 8c23 28be b67a 953d 2c72 a1bd 395d 38bf
00000100: efe8 00bd 88c6 193f b153 71be 5518 bebf
00000110: 3ac8 53be 784c c53e 6bbd c7be 4b54 e1be
00000120: 130d 9e3e 00e6 383e ea0f 1fbe e893 843e
00000130: fc29 e5be 3c39 63be 5762 c73e 75bf 543e
00000140: 7d3f 12bf b1d4 12c0 1973 73bf afb7 4fbf
00000150: 3480 9d3e 9d08 3c3f 2cb8 773f 55e4 763e
00000160: 6351 6a3f 1c66 873f 2e70 8c3e 5ae5 063f
00000170: a079 d53e 39e7 143f 91eb 5d3e 5058 17be
00000180: 2cbc 56bf bc1a 23be 496d a7be ae5b 073f
00000190: d4c4 ffbd b18d 953e 814b 363f f53f f3be
000001a0: 694b 47be 4369 a6bd 8576 18bf acec 0ebf
000001b0: 3105 963e c197 21bf f660 e3be a7ba 073e
000001c0: d21d c6be 2bdc 20bf 4c4c 863f b136 503f
000001d0: cd99 b73e 175d 353e ef42 373e 1f90 ee3e
000001e0: 4765 39bf 57c9 36bf d5f0 30bf 4f96 ecbe
000001f0: 7dab 35bf 2444 1dbf 122a 3b3f a1fa 933f
00000200: 57a7 ac3f 3f8f 1fbf 3f6f 4b3e e124 ca3e
00000210: d342 13bf 2918 e3bd caf2 8f3d c087 143e
00000220: e290 923f 2a43 1bbf 49cc 8b3f 3241 adbf
00000230: 6bf6 01be 9238 1dbf bdc8 9d3e 3afe 4c3f
00000240: faf1 e43b 318d 193c ba70 2ebf 941f 1f3f
00000250: 6369 07c0 f7de 51bd d89f 74bf b46a 3bbd
00000260: 17ae 9f3f 67f8 f53e 5a1d 113e 2f8f 08bf
00000270: 8635 e23e b93d efbf d281 2a3e 730a 04bf
00000280: f8bf 5d3f b53d b63f 686d fb3e 2b33 da3e
00000290: a35f 16be df99 5dbe 8340 383f eb09 0b3f
000002a0: 2578 a0be 4964 1c3f b2ef 043f d471 f43e
000002b0: fb09 193f c755 77bd dc11 5fbf 16ce a2be
000002c0: a054 09be d3b0 3bbf bd5a 23bf 3e73 99be
000002d0: 4f8a d53e f47b fa3e 9434 7bbe a60e c3be
000002e0: e667 8cbe e83c 1dbe fbf0 ab3b 9458 babe
000002f0: 9357 ec3e 8169 f53e 9d44 5bbf 4dd0 263f
00000300: 244e 1e3f f9f9 833f c141 86bf 5650 c9bf
00000310: a9b8 b93c 7dc5 353f 207a a53e db30 84bf
00000320: 3228 613f 1c02 ad3e 44cb 9b3f d1b0 b1bf
00000330: 0fd1 a1bf 6b95 da3e ffc1 113f d388 923f
00000340: 446c cbbf 48f3 a1be af0b 4c3f 74b7 873f
00000350: 1cb3 d0bf e512 9fbf 602d 473f dd00 943f
00000360: 578a 1a3f 217e 573f 750b 033e bcbb 6d3f
00000370: 0935 adbe 19a6 8bbf 590b 24be 4375 9bbf
00000380: 71a4 94be 63e0 8c3f d159 2c3d 5c25 f63e
00000390: 0a81 343f 13ce 02bf e56a e1be 19b0 adbd
000003a0: d341 42bf b54e 003f d9cf a23e 9341 c0be
000003b0: 8008 483d 2963 2f3e 40a8 a6be 44a2 10bf
000003c0: 2068 7abe fd5c d1be daba 3e3f 3a2a 93bd
000003d0: 6fd4 27bf a854 663f ff1b 143f 444a d0bf
000003e0: 216f 663f 0390 1f3f 7693 9abf 4160 0f3f
000003f0: 6282 273f 864a b0bf 0b12 043f 61a0 c73f

conv_layer.0.bias f4 [16]
0.08988184 -0.089928746 0.052933957 0.10852997 -0.13365287 0.016550692 -0.124923885 -0.023841722
-0.18945542 -0.180793 0.17322493 0.17201446 0.1308742 0.16585737 -0.123916216 0.15117389
00000000: f813 b83d 902c b8bd 47d1 583d f644 de3d
00000010: 4cdc 08be 5195 873c 18d8 ffbd b74f c3bc
00000020: 9a00 42be cd21 39be e061 313e 8f24 303e
00000030: e303 063e 84d6 293e c9c7 fdbd 54cd 1a3e

conv_layer.1.weight f4 [16]
1.549517 1.515138 1.4029531 1.0566068 1.3188742 1.2960236 1.3914024 1.0105277
1.5793282 1.960468 1.0865695 1.5383846 1.6013066 1.5763592 0.915468 1.613057
00000000: 9356 c63f 0bf0 c13f f893 b33f e43e 873f
00000010: dfd0 a83f 1ae4 a53f 7919 b23f f958 813f
00000020: 6d27 ca3f 9ef0 fa3f b614 8b3f c9e9 c43f
00000030: 9df7 cc3f 23c6 c93f 1c5c 6a3f a778 ce3f

conv_layer.1.bias f4 [16]
-0.7682679 -0.23927526 -0.40149102 -0.09442653 -0.23782955 -0.14059305 -0.65631306 -0.07372303
-0.44279853 -0.41524193 0.36818257 -0.66630733 -0.19314502 -0.3583778 0.23638894 -0.7575915
00000000: 35ad 44bf 9304 75be 3b90 cdbe b262 c1bd
00000010: 9789 73be a0f7 0fbe 2204 28bf 1afc 96bd
00000020: 7db6 e2be 979a d4be 6d82 bc3e 1e93 2abf
00000030: cfc7 45be 4c7d b7be f10f 723e 84f1 41bf

conv_layer.1.running_mean f4 [16]
1.5580827 -0.34846047 -1.4811414 0.47226727 -0.29807493 -0.65758437 0.41955087 0.20432656
-0.43976083 -0.575805 -0.4426112 -1.047108 -0.050333288 -0.3824235 -0.37397757 -0.6655778
00000000: 416f c73f 6969 b2be 0b96 bdbf 04cd f13e
00000010: 479d 98be 7357 28bf 5fcf d63e fb3a 513e
00000020: 5528 e1be f567 13bf ef9d e2be a307 86bf
00000030: 472a 4ebd 03cd c3be fd79 bfbe 4f63 2abf

conv_layer.1.running_var f4 [16]
1.173838 2.7076466 1.0616325 0.5699501 1.1300412 1.2803198 0.9646344 0.68971395
1.9929113 4.2564106 1.2224754 1.0300069 3.772932 2.6315029 0.656159 1.0413139
00000000: 5340 963f 154a 2d40 93e3 873f 40e8 113f
00000010: 31a5 903f 85e1 a33f 48f2 763f 1891 303f
00000020: b817 ff3f 8434 8840 137a 9c3f 44d7 833f
00000030: b877 7140 8b6a 2840 09fa 273f c649 853f

conv_layer.4.weight f4 [16, 16, 3, 3]
-0.06310055 0.17564279 0.1965046 -0.08742005 -0.08459252 0.19036146 -0.5811779 -0.04406442
-0.5030626 -0.2097044 -0.056944363 0.49608985 -0.36826658 -0.30637494 -0.031133467 0.5538697
0.30421036 0.26450804 -0.027277987 0.4297354 -0.22676513 0.07441385 0.62191117 -0.53018165
0.018441167 0.26456684 0.78031695 0.28663474 0.2197598 -0.34203923 0.38396317 0.43803594
-0.7754962 -0.46964628 0.22018208 0.31099507 0.060943134 0.58090717 0.334901 -0.42589444
-0.22623028 -0.2615582 -0.49002317 -0.14801157 0.43221492 0.42925233 -0.4913438 -0.17045279
0.06956835 0.22180024 -0.4952075 -0.32283223 0.50408375 0.11051988 -0.35341305 0.05155958
0.22480336 0.06745948 -0.4370566 0.28012484 -0.20693395 -0.4373081 -0.1862955 -0.040371895
0.045044422 0.17224993 -0.027608449 -0.011177415 0.020961368 -0.14940777 0.12658343 -0.19856907
-0.0049329526 0.16792643 -0.7851004 0.0790038 0.33619747 -0.10652633 -0.773347 0.15252706
0.8933178 -0.20331158 -0.20382045 -0.056799687 -0.09428501 -0.1306234 0.14890295 0.33489347
0.10610918 -0.16971971 -0.025186362 -0.10097618 -0.1856857 0.49022987 -0.87819666 -0.045967195
0.1710032 -0.019324 0.02619736 -0.5841424 0.06259618 0.49251005 0.5865068 -0.19014084
-0.10229266 -0.12362985 -0.65415984 0.13159953 0.090560645 -0.19933939 0.30838293 0.32653263
0.013974769 0.34309536 0.515628 0.22470409 -0.61296934 -0.58541995 0.27840042 -0.36173195
-0.17271808 0.5766761 -0.28386465 -0.46675634 -0.15228997 0.6508778 -0.15067232 0.028773187
-0.48071587 0.4219222 -0.18838279 -0.41325873 -0.14765918 -0.31959936 -0.24854708 0.07466947
-0.1961874 -0.22051291 -0.10660936 -0.2515145 -0.21151282 -0.029310042 -0.5511358 -0.16373792
0.24029243 0.0591838 0.14576738 0.10315991 0.15187055 -0.5968702 -0.13876565 -0.11123574
-0.3752134 -0.32126462 -0.36584622 -0.15559803 -0.41057658 -0.37950096 -0.8754648 0.13592328
-0.22461642 -0.18558733 -0.43948933 0.0124621615 -0.032364342 -0.076043144 0.035186905 0.3037268
0.22764196 0.07704816 -0.022522038 0.36949545 -0.020057378 -0.037078194 -0.22435907 0.43571955
0.3691702 -0.4186646 0.22012025 -0.060451698 0.2912349 -0.0308927 0.042277824 0.062359676
0.34038627 -0.2682732 -0.21752168 0.08848104 0.5224362 0.42584774 0.60321563 0.20539314
0.19777368 -0.17014378 0.16870075 -0.5004462 0.14863206 0.006613181 0.017447913 -0.01989019
-0.020776235 -0.3315113 0.059220523 -0.2684902 0.13117592 0.040411394 -0.3725307 0.1853776
0.050537292 0.5409612 0.67720145 -0.073304206 -0.596813 -0.06234972 -0.24036293 0.25238663
-0.110271946 -0.3071452 0.41875818 0.0204978 0.14919434 0.04355919 0.48535773 -0.19097242
0.25787786 0.32623592 0.10350109 -0.02223464 -0.16570847 -0.8858048 -1.3888501 -0.019093655
-0.5040787 0.27073082 0.24139525 0.0031963754 -0.31492028 -0.10102964 0.047123633 -0.19684127
0.1718062 0.27663887 -0.019228961 -0.7668329 -0.3646994 -0.16002163 -0.18379545 -0.37978658
-0.06787053 0.40135324 0.099416286 0.024620328 -0.22829272 0.30607292 -0.28330046 -0.58435315
00000000: dc3a 81bd b4db 333e 8038 493e 4809 b3bd
00000010: d83e adbd 1dee 423e 13c8 14bf e57c 34bd
00000020: b6c8 00bf c0bc 56be 7e3e 69bd 7dff fd3e
00000030: 708d bcbe 2ddd 9cbe 9d0b ffbc 68ca 0d3f
00000040: 76c1 9b3e 996d 873e 1676 dfbc 4706 dc3e
00000050: 1e35 68be 4a66 983d 9235 1f3f fcb9 07bf
00000060: ee11 973c 4e75 873e dac2 473f cac1 923e
00000070: b708 613e c41f afbe d296 c43e 3f46 e03e
00000080: eb86 46bf 7a75 f0be 6977 613e bf3a 9f3e
00000090: 829f 793d 55b6 143f 2578 ab3e d60e dabe
000000a0: e9a8 67be f5ea 85be 51e4 fabe 5890 17be
000000b0: 464b dd3e f6c6 db3e 6a91 fbbe 2d8b 2ebe
000000c0: da79 8e3d 9a1f 633e d68b fdbe 444a a5be
000000d0: a20b 013f 3f58 e23d 8ef2 b4be 2330 533d
000000e0: da32 663e 3228 8a3d e2c5 dfbe 866c 8f3e
000000f0: 7ee6 53be d9e6 dfbe 3fc4 3ebe 005d 25bd
00000100: 8080 383d 4962 303e 1d2b e2bc 7a21 37bc
00000110: 2db7 ab3c 5afe 18be 169f 013e b155 4bbe
00000120: 9ba4 a1bb e8f4 2b3e 57fc 48bf bfcc a13d
00000130: 1322 ac3e 7a2a dabd 12fa 45bf 0e30 1c3e
00000140: 7ab0 643f e930 50be 4fb6 50be caa6 68bd
00000150: 8018 c1bd 24c2 05be 047a 183e 2877 ab3e
00000160: c54f d93d 01cb 2dbe a153 cebc 99cc cebd
00000170: 6424 3ebe 69ff fa3e 7fd1 60bf 1948 3cbd
00000180: 761b 2f3e 5e4d 9ebc d99b d63c 5b8a 15bf
00000190: 6d32 803d 472a fc3e 4f25 163f 48b4 42be
000001a0: d07e d1bd a631 fdbd 0577 27bf 07c2 063e
000001b0: dc77 b93d a01f 4cbe 5ee4 9d3e 492f a73e
000001c0: 6ef6 643c 32aa af3e 3200 043f d418 663e
000001d0: 8feb 1cbf 15de 15bf 808a 8e3e ee34 b9be
000001e0: 02dd 30be 0ba1 133f b556 91be b0fa eebe
000001f0: e7f1 1bbe ed9f 263f d849 1abe bfb5 eb3c
00000200: 6420 f6be 3006 d83e 6be7 40be a696 d3be
00000210: f833 17be 87a2 a3be 2083 7ebe 4fec 983d
00000220: 5ae5 48be 23ce 61be 0256 dabd 82c6 80be
00000230: d196 58be 9d1b f0bc 3c17 0dbf eaaa 27be
00000240: 380f 763e b66a 723d 0b44 153e 8145 d33d
00000250: f483 1b3e 7ccc 18bf 9518 0ebe 90cf e3bd
00000260: f91b c0be cc7c a4be 3250 bbbe 1755 1fbe
00000270: 1837 d2be f34d c2be 761e 60bf 792f 0b3e
00000280: d901 66be 9b0a 3ebe bf04 e1be 182e 4c3c
00000290: 7990 04bd 82bc 9bbd 2520 103d 1482 9b3e
000002a0: f91a 693e 6dcb 9d3d 2380 b8bc 822e bd3e
000002b0: 5f4f a4bc 4edf 17bd 62be 65be a216 df3e
000002c0: e003 bd3e 355b d6be 3467 613e 339c 77bd
000002d0: be1c 953e b012 fdbc 832b 2d3d dc6c 7f3d
000002e0: 1c47 ae3e 1b5b 89be 01be 5ebe 8c35 b53d
000002f0: 61be 053f b708 da3e 576c 1a3f 9452 523e
00000300: 2f85 4a3e 2c3a 2ebe e4bf 2c3e 3e1d 00bf
00000310: 0133 183e 62b3 d83b edee 8e3c c0f0 a2bc
00000320: ec32 aabc d9bb a9be 3891 723d 8c77 89be
00000330: fb52 063e 6b86 253d 58bc bebe a0d3 3d3e
00000340: 3100 4f3d 6f7c 0a3f 135d 2d3f 8420 96bd
00000350: bdc8 18bf 6c62 7fbd b321 76be d238 813e
00000360: 42d6 e1bd 2342 9dbe 7967 d63e 01eb a73c
00000370: 67c6 183e 1f6b 323d cf80 f83e 468e 43be
00000380: 9108 843e 6508 a73e 61f8 d33d 6b25 b6bc
00000390: 7baf 29be 1ac4 62bf d7c5 b1bf 4c6a 9cbc
000003a0: 4d0b 01bf 3b9d 8a3e 5130 773e 487a 513b
000003b0: 3b3d a1be a1e8 cebd b604 413d c290 49be
000003c0: f7ed 2f3e 9ca3 8d3e 0e86 9dbc 294f 44bf
000003d0: e1b9 babe b6dc 23be e034 3cbe 6373 c2be
000003e0: b4ff 8abd 2c7e cd3e c49a cb3d 92b0 c93c
000003f0: 91c5 69be 97b5 9c3e c20c 91be 2b98 15bf

conv_layer.4.bias f4 [16]
0.05710296 0.032340586 -0.049583726 -0.018946549 -0.070474744 -0.019956201 0.06571173 0.07309732
0.020936042 0.026678255 -0.016836932 0.014945243 0.08128359 -0.023075312 -0.08284481 0.0049207206
00000000: cbe4 693d 9077 043d 4e18 4bbd cb35 9bbc
00000010: 1055 90bd 307b a3bc df93 863d 0cb4 953d
00000020: 1082 ab3c 5b8c da3c 9bed 89bc e4dc 743c
00000030: 0378 a63d 7008 bdbc 8aaa a9bd ff3d a13b

conv_layer.5.weight f4 [16]
1.1561447 1.6308786 0.99351406 0.9570379 1.1548282 1.068381 1.4598192 1.3932612
1.5231694 1.5496824 1.1487175 0.8174721 1.0020524 1.012498 1.060452 1.1774317
00000000: 8dfc 933f a1c0 d03f f056 7e3f 7000 753f
00000010: 69d1 933f b5c0 883f 5bdb ba3f 6256 b23f
00000020: 37f7 c23f fe5b c63f 2d09 933f da45 513f
00000030: 4143 803f 8999 813f e4bc 873f 15b6 963f

conv_layer.5.bias f4 [16]
-0.8657318 -0.77919257 -0.46048632 -0.43676063 -0.9890399 -0.55591375 -0.8117242 -0.9291199
-0.80312 -1.4660873 -0.8837408 -0.41245097 -0.6919547 -0.4718254 -0.43349847 -0.85359925
00000000: 99a0 5dbf 2a79 47bf ddc4 ebbe 179f dfbe
00000010: b831 7dbf 5d50 0ebf 28cd 4fbf cdda 6dbf
00000020: 4699 4dbf c0a8 bbbf d63c 62bf c62c d3be
00000030: f123 31bf 1993 f1be 83f3 ddbe 7b85 5abf

conv_layer.5.running_mean f4 [16]
-2.1657202 -2.6069922 -1.5102475 -2.4763896 -1.6354449 -2.227858 -2.8260686 -2.9333048
-6.871425 -1.5293899 -1.7836269 -0.9673908 0.25598636 -1.9219495 -2.3872242 -3.2587342
00000000: 299b 0ac0 f6d8 26c0 ca4f c1bf 2b7d 1ec0
00000010: 4256 d1bf 3a95 0ec0 4fde 34c0 44bb 3bc0
00000020: b7e2 dbc0 0cc3 c3bf e34d e4bf eca6 77bf
00000030: a510 833e 7102 f6bf 48c8 18c0 1a8f 50c0

conv_layer.5.running_var f4 [16]
7.4206285 18.36554 8.748445 9.815655 9.702635 8.967344 15.523803 10.798665
22.566479 9.893594 10.156799 6.088287 7.5153084 9.998257 9.90894 10.068192
00000000: ca75 ed40 a0ec 9241 a1f9 0b41 ec0c 1d41
00000010: fe3d 1b41 3e7a 0f41 7f61 7841 55c7 2c41
00000020: 2688 b441 294c 1e41 4082 2241 3fd3 c240
00000030: 687d f040 dcf8 1f41 058b 1e41 5017 2141

fc_layer.0.weight f4 [10, 1024]
0.32040298 -0.17128941 0.057838246 -0.20818342 -0.1188087 -0.36129385 -0.31918344 0.03955113
0.23956607 0.018848043 0.062997155 0.06810056 0.00922733 0.025189333 -0.11228188 0.0692749
0.2375987 -0.0063059633 0.02549363 -0.056802575 -0.27231595 -0.025588637 -0.0032153158 0.03724911
0.0378747 0.04529914 -0.14921112 -0.24992128 -0.2570052 -0.16660579 -0.06343494 -0.10913454
-0.045188062 -0.07187543 -0.23188616 -0.34438616 -0.0068913004 -0.17916808 0.11495664 -0.1541812
0.014925651 -0.13015424 -0.2512391 -0.16483006 -0.24677995 -0.056804 -0.06272699 -0.22417188
-0.22732638 0.04569028 -0.13585216 -0.29390904 -0.034037415 -0.2760536 0.02581642 -0.060607344
0.09634011 -0.13343868 -0.045755923 -0.25803187 -0.013871479 0.31048363 -0.20712683 -0.099717
0.2579 -0.29894447 0.42996022 -0.09836638 0.04443317 0.13342237 -0.03974032 -0.31784344
-0.18808186 0.27381805 0.21436977 -0.21080509 -0.0965037 0.31706673 0.20588574 -0.123943314
0.14964956 0.2746733 0.026707504 -0.21013176 0.15163508 0.2071487 -0.25372073 0.041766904
-0.057799242 0.3653987 0.15922867 0.18240014 0.2002612 0.14453764 0.104875736 -0.26324403
0.17013349 0.13222994 0.22766492 0.03694853 -0.0036601801 0.3289448 0.19936092 0.10678638
-0.06946727 0.27757946 -0.097893685 0.15184508 0.016473318 0.22304417 0.25324813 -0.063756056
-0.023164947 0.15837333 0.02826198 0.00039209053 -0.012601429 0.09656991 0.08760274 -0.09088938
0.11426234 -0.27375957 0.06298415 -0.3048898 0.11193646 0.007765279 0.0012446984 -0.037533112
-0.3872564 0.049687345 0.357985 0.081307754 -0.05010211 -0.25211823 -0.29849806 0.124303944
-0.25522014 -0.012153884 -0.077799335 -0.2036941 -0.030944915 0.09571843 -0.27610388 0.11921404
0.16903092 -0.0063816514 0.10881076 -0.029384358 -0.110308 -0.19473544 -0.41729203 0.13865717
-0.03740848 0.18259072 -0.26541287 -0.19780633 -0.2385849 -0.12811486 -0.13205965 0.250033
0.03539811 -0.008727076 -0.17188415 -0.12567739 -0.113294914 -0.10649491 -0.018487593 0.04161067
0.3282945 0.30375436 0.029164841 -0.007043447 -0.15106536 0.27163282 -0.019112526 0.2335819
0.06513727 0.13473664 0.1577272 -0.20878471 0.13054812 0.12115866 -0.16341773 0.1580341
0.058318973 0.15624394 -0.05467454 0.27388182 -0.2874216 -0.07257246 -0.23958063 0.0591105
-0.15334468 -0.06900789 -0.030109297 0.2115203 0.07956505 0.095326394 0.25900742 -0.20016484
0.10578276 -0.13146864 -0.10279709 0.10184027 0.26953304 0.17635956 -0.098209135 0.21364067
-0.18080807 0.111293 -0.14812 -0.17262943 -0.21908101 -0.3346115 0.16157766 -0.041570693
-0.25155064 -0.06580627 -0.18975762 -0.006650221 -0.07064465 -0.1664131 -0.19125794 -0.11497437
-0.034790657 -0.235375 -0.22922732 -0.23014957 -0.028397102 -0.17178847 0.047561284 -0.1888581
-0.17881031 0.14614718 -0.12258546 -0.38438162 -0.092533045 0.053144112 -0.18914595 0.18276593
0.34213495 0.048112504 -0.22134426 0.08556014 -0.31941342 -0.53455424 0.004177385 -0.07693992
0.055212546 -0.26120782 -0.2158257 0.03813339 0.084413715 0.27178147 0.15174842 0.007254308
00000000: dc0b a43e 7e66 2fbe cce7 6c3d 092e 55be
00000010: fa51 f3bd 82fb b8be 036c a3be 5e00 223d
00000020: cf50 753e 3667 9a3c a704 813d 4e78 8b3d
00000030: 3a2e 173c dc59 ce3c 0bf4 e5bd 00e0 8d3d
00000040: 134d 733e 41a2 cebb 04d8 d03c d1a9 68bd
00000050: ff6c 8bbe 439f d1bc 0cb8 52bb 8692 183d
00000060: 8022 1b3d 978b 393d cdca 18be 5deb 7fbe
00000070: 3096 83be b59a 2abe 2eea 81bd ee81 dfbd
00000080: 1e17 39bd 6d33 93bd 9173 6dbe 6253 b0be
00000090: 6bd0 e1bb d677 37be 636e eb3d ade1 1dbe
000000a0: b88a 743c 2747 05be 69a2 80be 36c9 28be
000000b0: e2b3 7cbe 50ab 68bd 0277 80bd 508d 65be
000000c0: 3fc8 68be bb25 3b3d d41c 0bbe 3f7b 96be
000000d0: d16a 0bbd e656 8dbe f57c d33c 683f 78bd
000000e0: f74d c53d 26a4 08be 906a 3bbd c11c 84be
000000f0: 3345 63bc b6f7 9e3e 0e19 54be 6d38 ccbd
00000100: 780b 843e 400f 99be bf23 dc3e 5074 c9bd
00000110: 8eff 353d e09f 083e bfc6 22bd 60bc a2be
00000120: 8898 40be e131 8c3e c083 5b3e 4add 57be
00000130: bba3 c5bd 9256 a23e b6d3 523e fed5 fdbd
00000140: bc3d 193e fba1 8c3e b2c9 da3c c82c 57be
00000150: 3a46 1b3e ca1e 543e afe7 81be c613 2b3d
00000160: e6be 6cbd 8a15 bb3e d70c 233e 1ac7 3a3e
00000170: 4611 4d3e ad01 143e 17c9 d63d ecc7 86be
00000180: 7937 2e3e 4967 073e fe20 693e 5757 173d
00000190: a2df 6fbb 746b a83e 4525 4c3e d1b2 da3d
000001a0: db44 8ebd e51e 8e3e 7c7c c8bd 477d 1b3e
000001b0: 0df3 863c b165 643e bda9 813e 8992 82bd
000001c0: 6ac4 bdbc 9e2c 223e ab85 e73c 8091 cd39
000001d0: 3976 4ebc 72c6 c53d 1169 b33d 3624 babd
000001e0: 6002 ea3d 372a 8cbe d6fd 803d 841a 9cbe
000001f0: f13e e53d e273 fe3b 2625 a33a 52bc 19bd
00000200: 7946 c6be f584 4b3d cf49 b73e ae84 a63d
00000210: df37 4dbd a415 81be bdd4 98be 1193 fe3d
00000220: 37ac 82be 1621 47bc 4255 9fbd 3095 50be
00000230: 3180 fdbc 0608 c43d 7d5d 8dbe 7e26 f43d
00000240: 7116 2d3e 2c1d d1bb 2dd8 de3d 77b7 f0bc
00000250: 29e9 e1bd ba68 47be 4da7 d5be 25fc 0d3e
00000260: a239 19bd 10f9 3a3e 32e4 87be be8d 4abe
00000270: 9a4f 74be 8b30 03be a53a 07be 5304 803e
00000280: 9cfd 103d 03fc 0ebc 6602 30be 93b1 00be
00000290: 2a07 e8bd 011a dabd 4b73 97bc f36f 2a3d
000002a0: 3716 a83e b185 9b3e 1beb ee3c b7cc e6bb
000002b0: e1b0 1abe 7513 8b3e df91 9cbc 1830 6f3e
000002c0: b066 853d 67f8 093e 3d83 213e a9cb 55be
000002d0: 68ae 053e 0822 f83d fa56 27be b1d3 213e
000002e0: e0df 6e3d 69fe 1f3e 69f2 5fbd 3d3a 8c3e
000002f0: ed28 93be dfa0 94bd a054 75be da1d 723d
00000300: 6306 1dbe 0254 8dbd c6a7 f6bc c798 583e
00000310: 00f3 a23d 7c3a c33d 9f9c 843e 03f8 4cbe
00000320: a2a4 d83d b79f 06be 4887 d2bd a291 d03d
00000330: 3c00 8a3e 9a97 343e df21 c9bd 9fc4 5a3e
00000340: c025 39be 96ed e33d c5ac 17be c5c5 30be
00000350: c656 60be 3352 abbe 9d74 253e 0846 2abd
00000360: 3fcb 80be 70c5 86bd d24f 42be 19ea d9bb
00000370: 24ae 90bd 3268 2abe 1fd9 43be af77 ebbd
00000380: a680 0ebd 2506 71be 91ba 6abe 54ac 6bbe
00000390: 0aa1 e8bc 51e9 2fbe 9fcf 423d 0564 41be
000003a0: 0d1a 37be 9ba7 153e 160e fbbd abcd c4be
000003b0: f781 bdbd a4ad 593d 7aaf 41be fe26 3b3e
000003c0: 502c af3e 9e11 453d 12a8 62be 283a af3d
000003d0: 288a a3be 8cd8 08bf 72e2 883b ad92 9dbd
000003e0: 8d26 623d 08bd 85be 6a01 5dbe c231 1c3d
000003f0: 19e1 ac3d f126 8b3e f063 1b3e 8cb5 ed3b

fc_layer.0.bias f4 [10]
-0.81646186 -0.6094901 -0.35458538 0.4739139 0.9594698 -0.40921253 0.5149821 -0.7277221
0.3790903 0.50530386
00000000: a503 51bf 8b07 1cbf 378c b5be d8a4 f23e
00000010: d09f 753f 4e84 d1be ded5 033f ff4b 3abf
00000020: 2018 c23e 985b 013f
