Knowledge Distillation/TAKD/saved/10-6-4-2.pth (torch, 58298 bytes, 14 tensors)

conv_layer.0.weight f4 [16, 3, 3, 3]
0	0xbc057069	-0.008144476
1	0x3fa8e5ed	1.3195168
2	0x3f26a278	0.6509166
3	0xbec65c80	-0.38742447
4	0x3f3ffd33	0.74995726
5	0x3f35eddf	0.7106609
6	0xbfb3823b	-1.4024118
7	0xbe3836b0	-0.17989612
8	0x3d8af368	0.06784707
9	0xbf0c94bd	-0.54914457
10	0xbe8e9013	-0.27844295
11	0xbe34f569	-0.17671742
12	0xbe3d1fbf	-0.18469141
13	0x3e42b0ef	0.19012807
14	0xbd7ab723	-0.06120981
15	0xbbdf3bf7	-0.0068125683
16	0x3ec082ee	0.3759989
17	0xbe5ad192	-0.21369007
18	0x3e94093c	0.28913295
19	0xbf5f9fcc	-0.87353206
20	0xbf2381c4	-0.6386988
21	0x3f2b9791	0.67028147
22	0xbf4641ac	-0.7744396
23	0xbef1f1c7	-0.47254774
24	0x3f3031b1	0.68825823
25	0xbdf970c3	-0.12179711
26	0xbe19f287	-0.15033923
27	0x3f40f437	0.7537264
28	0xbe6de1ce	-0.23230669
29	0xbf0ef138	-0.5583682
30	0xbe10cc50	-0.14140439
31	0xbf02fc06	-0.5116581
32	0x3f040a69	0.51578385
33	0xbf129939	-0.5726505
34	0x3eae5c47	0.34054777
35	0xbc93c03d	-0.018036002
36	0xbf08c4c9	-0.5342527
37	0xbeef888f	-0.46783873
38	0xbf08b1ee	-0.533965
39	0xbe647105	-0.22308739
40	0xbe4fddb9	-0.20299424
41	0x3f3068d2	0.68909943
42	0xbed8bd4a	-0.42331916
43	0x3e66d33b	0.22541516
44	0x3efe808c	0.49707448
45	0x3f0b3d88	0.54390764
46	0x3e0900be	0.1337919
47	0xbea40b9b	-0.32040104
48	0xbe472089	-0.19446005
49	0xbf75bdad	-0.9599255
50	0xbe862037	-0.26196453
51	0x3ddda34e	0.108221635
52	0x3e066139	0.13123025
53	0x3e51fe3f	0.20507143
54	0x3ec5c3d8	0.3862598
55	0xbdb10e0a	-0.08645256
56	0x3f195cb3	0.5990707
57	0xbf48b7c3	-0.784054
58	0xbf5facb8	-0.8737292
59	0xbf037be3	-0.5136091
60	0x3e42760b	0.18990342
61	0x3edb34d9	0.42813757
62	0x3f1b28fa	0.606094
63	0x3f72da3e	0.9486426
64	0x3f87e0b1	1.0615445
65	0x3f57a54b	0.8423659
66	0xbed708d7	-0.41998932
67	0xbf1ee9a8	-0.6207528
68	0xbf6ad381	-0.9172898
69	0xbebcd789	-0.3688319
70	0xbe970867	-0.29498598
71	0x3e0decb8	0.13859832
72	0x3f37c164	0.71779466
73	0x3e39e56f	0.18153928
74	0x3f94dd9e	1.1630132
75	0xbe61e082	-0.22058299
76	0xbf7d1a64	-0.98868394
77	0xbf47b15b	-0.78005
78	0x3e698fe8	0.22808802
79	0xbed84191	-0.42237523
80	0xbe5eb3b2	-0.21748236
81	0x3f6bfdae	0.9218396
82	0x3f96bf20	1.1777077
83	0x3f2c7b79	0.67375904
84	0x3ea2428b	0.31691393
85	0x3f1c501e	0.6105975
86	0xbeea5ef5	-0.4577557
87	0xbebd2447	-0.3694174
88	0xbf712f60	-0.94212914
89	0xbf47fbe0	-0.78118706
90	0xbeb0918d	-0.34486046
91	0xbf0403b8	-0.51568174
92	0x3daa617c	0.08319375
93	0xbf66fd1a	-0.9022995
94	0xbfa99de2	-1.3251307
95	0xbf0fe792	-0.56212723
96	0x3f1e7175	0.6189187
97	0xbe32405d	-0.17407365
98	0x3ee3d3c1	0.44497493
99	0xbe1b3507	-0.15156947
100	0xbe901029	-0.2813733
101	0xbeb3dcc6	-0.35129374
102	0xbf41d604	-0.75717187
103	0x3db8c3d1	0.09021724
104	0x3e937120	0.28797245
105	0x3eeb2ace	0.45931095
106	0x3f988255	1.1914774
107	0x3f6ff3a2	0.9373113
108	0xbfbcc401	-1.4747316
109	0x3f5a0674	0.85166097
110	0x3f97127f	1.180252
111	0x3f28c76f	0.6592931
112	0x3f8d3377	1.1031331
113	0xbf99e615	-1.202334
114	0x3f7b2846	0.9810833
115	0xbfaa9a0d	-1.3328263
116	0x3f04f15c	0.51930785
117	0xbf472cdf	-0.7780284
118	0x3f52a491	0.8228236
119	0x3e183b42	0.14866355
120	0x3f42f0f4	0.76148915
121	0x3f18f967	0.5975556
122	0xbfdeb058	-1.7397566
123	0x3e96bac7	0.29439375
124	0xbfd178b3	-1.636496
125	0x3e193d26	0.14964733
126	0xbfda1aa8	-1.7039385
127	0x3f242e68	0.6413331
128	0x3e1430ab	0.1447169
129	0x3f6f4e7b	0.93479127
130	0x3f928f68	1.1450014
131	0xbf64920a	-0.8928534
132	0x3f136552	0.5757648
133	0xbf6183d1	-0.8809176
134	0x3f197048	0.5993695
135	0x3f16bf1d	0.58885366
136	0xbf512508	-0.8169713
137	0x3e60250d	0.21889134
138	0x3fa2d55c	1.2721362
139	0xbfd57bc7	-1.6678399
140	0x3f1d079f	0.61339754
141	0x3f3bdce4	0.7338393
142	0xbfb78335	-1.4336916
143	0x3ee5d349	0.4488776
144	0x3f59cc44	0.8507731
145	0xbfb728e4	-1.4309354
146	0x3f5817fe	0.8441161
147	0x3f651710	0.89488316
148	0xc02a493a	-2.6607194
149	0x3fba973b	1.4577402
150	0x3f37b9fa	0.7176815
151	0xc0135339	-2.3019545
152	0x3fd34ff7	1.6508778
153	0x3e65c0d3	0.22436838
154	0xbf106ceb	-0.56416196
155	0x3dd47956	0.103747055
156	0x3f16ef6f	0.58959097
157	0xbfc3210b	-1.5244459
158	0x3f369fae	0.713374
159	0x3f085538	0.53255033
160	0xbf5b6695	-0.857034
161	0x3f457fe3	0.77148265
162	0x3f347632	0.7049285
163	0xbea59d6a	-0.3234666
164	0x3edb16c9	0.4279082
165	0x3f38315b	0.7195031
166	0xbed94c1d	-0.42440882
167	0xbe754a0d	-0.2395403
168	0x3ee55c08	0.44796777
169	0xbf377aa0	-0.71671486
170	0xbed9c11d	-0.42530146
171	0x3ea97ef8	0.33104682
172	0xbe94f143	-0.29090318
173	0xbe74d3fb	-0.23908989
174	0x3f048a77	0.5177378
175	0xbedc8016	-0.43066472
176	0xbeb79988	-0.35859323
177	0x3f244a80	0.6417618
178	0xbeaab0e7	-0.3333809
179	0xbe764630	-0.24050212
180	0x3f1b30b6	0.606212
181	0xbefa2167	-0.4885361
182	0xbf84ef76	-1.0385578
183	0x3f826ee6	1.0190094
184	0x3dca8140	0.09887934
185	0xbf45ab23	-0.7721426
186	0x3f838406	1.0274665
187	0x3e84219a	0.25806886
188	0xbf084bac	-0.53240466
189	0xbf3cfae8	-0.7382035
190	0x3ed979e4	0.42475808
191	0xbebb5108	-0.3658526
192	0x3e45f8e1	0.19333221
193	0xbfca2b0a	-1.5794384
194	0x3dfea255	0.12433306
195	0xbf4cf322	-0.8005849
196	0xbf924b37	-1.1429204
197	0x3f9eb449	1.2398769
198	0x3f34117f	0.70339197
199	0x3fcf06c6	1.6173942
200	0xbda7a259	-0.08185262
201	0x3fbff2f6	1.4996021
202	0xbdaf9662	-0.08573605
203	0x3e283830	0.16427684
204	0x3edbf050	0.4295678
205	0x3d0ffdc3	0.035154115
206	0x3daabab5	0.08336393
207	0xbf0d52ea	-0.5520464
208	0x3d0a5680	0.0337739
209	0xbf3757c4	-0.71618295
210	0x3b87eeda	0.0041483464
211	0xbf836d73	-1.0267776
212	0xbd70c41b	-0.05878077
213	0x3bed7ff7	0.0072479206
214	0xbec1ea77	-0.37874195
215	0x3f02c299	0.5107818
216	0xbb9f1688	-0.004854981
217	0x3e8cbdf7	0.27488682
218	0xbc8a29c8	-0.016865626
219	0x3e07280b	0.13198869
220	0x3f06a4f1	0.5259543
221	0xbe9f11b4	-0.31068194
222	0xbe288b2a	-0.16459337
223	0x3e9c8a2c	0.30574167
224	0x3e922150	0.2854104
225	0x3e848bd6	0.25887936
226	0xbda3f009	-0.080047674
227	0xbf47c452	-0.78033936
228	0xbee6e74a	-0.45098335
229	0x3f23a66a	0.639258
230	0xbe93f5dd	-0.28898516
231	0xbeb5618b	-0.35425982
232	0x3ed97488	0.4247172
233	0x3ec1b25c	0.3783139
234	0x3f3da721	0.74083143
235	0x3ed183bc	0.40920818
236	0xbf2b2512	-0.6685344
237	0x3e922996	0.28547353
238	0x3faba587	1.340989
239	0x3d5c3c41	0.0537684
240	0xbf661880	-0.89881134
241	0xbe099934	-0.13437349
242	0xbe83d1bc	-0.25745952
243	0x3f0c4c3f	0.5480384
244	0xbed920c1	-0.42407802
245	0xbd989d6f	-0.07451903
246	0xbe7fd07c	-0.24981874
247	0xbeb498f2	-0.35272938
248	0x3eed601d	0.4636239
249	0xbe5cff35	-0.21581729
250	0x3ee452bd	0.44594374
251	0x3a9f7524	0.0012165648
252	0xbcd25081	-0.025673153
253	0xbea02488	-0.3127787
254	0x3e18868f	0.1489508
255	0xbf2c9631	-0.67416674

conv_layer.0.bias f4 [16]
0	0xbde0ecf2	-0.10982694
1	0xbd58ef45	-0.05296256
2	0x3b9289d2	0.004471996
3	0xbc0269b8	-0.007959776
4	0x3dab2c38	0.083580434
5	0x3dc570d3	0.0964066
6	0x3d0c926f	0.034319337
7	0xbe015f9d	-0.1263413
8	0xbded7769	-0.11595041
9	0xbe1fb5e7	-0.15596734
10	0xbdb0898c	-0.08619985
11	0xbdcb1505	-0.099161185
12	0x3d0d66d5	0.034521896
13	0x3d73bc3b	0.059505682
14	0xbdebad71	-0.11507691
15	0x3ddd2f8b	0.10800084

conv_layer.1.weight f4 [16]
0	0x3fa6bbfd	1.302612
1	0x3fd60e5f	1.6723136
2	0x3fc96dbd	1.5736614
3	0x3faa39ea	1.3298924
4	0x3f8c861f	1.097843
5	0x4005d237	2.0909555
6	0x3fc2cf55	1.5219523
7	0x3f8bc95b	1.0920824
8	0x3fab1521	1.3365823
9	0x3fb85644	1.4401326
10	0x3fd51beb	1.6649145
11	0x3fb482b4	1.4102387
12	0x3f946c0b	1.1595472
13	0x3fa5fbdd	1.2967488
14	0x3fafd9da	1.3738358
15	0x3f9932e8	1.196866

conv_layer.1.bias f4 [16]
0	0xbf194286	-0.5986713
1	0xbf4d896f	-0.8028783
2	0xbe8f73e0	-0.28018093
3	0xbf478b0c	-0.77946544
4	0x3d1997a2	0.037498124
5	0xbefaf61e	-0.49015898
6	0xbe266144	-0.16248041
7	0x3e3a463a	0.18190852
8	0xbee770bb	-0.45203194
9	0xbe30a970	-0.17252135
10	0xbf573ee1	-0.8408032
11	0xbe7ddf9d	-0.24792333
12	0xbe52eb89	-0.20597662
13	0xbed72716	-0.42022008
14	0xbcde9df9	-0.027174937
15	0x3dbc2899	0.09187431

conv_layer.1.running_mean f4 [16]
0	0xbf330491	-0.6992884
1	0xbffd779b	-1.9802126
2	0xbe9dc5c3	-0.30814943
3	0xbe90ca9a	-0.28279573
4	0x3f1297fc	0.5726316
5	0xbeae5233	-0.34047088
6	0xbe639a41	-0.22226812
7	0xbf0c3ca9	-0.5478006
8	0x3fc1b616	1.5133693
9	0xbdc5ccd4	-0.096582085
10	0xbf954afe	-1.1663511
11	0xbe900700	-0.2813034
12	0xbe4faa3f	-0.20279787
13	0xbf32c105	-0.69825774
14	0xbee2e359	-0.44314077
15	0xbf3dab1e	-0.7408923

conv_layer.1.running_var f4 [16]
0	0x3f0d2825	0.5513938
1	0x3f90346a	1.1265996
2	0x401da6ef	2.4633138
3	0x3ee74df9	0.45176676
4	0x3f635a74	0.88809896
5	0x4097fd86	4.7496977
6	0x404086b6	3.008222
7	0x3f2847bb	0.6573445
8	0x3f87ffdf	1.0624961
9	0x4047d4a7	3.1223543
10	0x3f9e594c	1.2371001
11	0x3fca9917	1.5827969
12	0x3f3d2db4	0.7389786
13	0x3f37a233	0.7173187
14	0x402096b9	2.5091994
15	0x3fb95246	1.4478233

conv_layer.4.weight f4 [16, 16, 3, 3]
0	0x3eaa52bb	0.33266243
1	0xbc994f94	-0.018714704
2	0x3f1ad30e	0.60478294
3	0x3e64658b	0.2230436
4	0x3c18e38b	0.009331594
5	0xbf1210a8	-0.57056665
6	0xbf41ec43	-0.7575113
7	0xbdb7799e	-0.089587435
8	0xbf001fbf	-0.5004844
9	0x3f358d41	0.7091866
10	0x3f58bb23	0.8466055
11	0xbe7dcd69	-0.24785389
12	0xbe93a3b1	-0.28835824
13	0x3e6daf31	0.23211361
14	0xbe957466	-0.29190367
15	0x3e172f32	0.14764097
16	0xbeb304a7	-0.34964487
17	0xbee7847e	-0.4521827
18	0x3df78926	0.12086706
19	0x3e6c7e3c	0.2309503
20	0x3eeb89e7	0.4600365
21	0x3d606c46	0.054790758
22	0xbee13b98	-0.4399078
23	0x387d5094	6.0394945e-05
24	0xbd443a2c	-0.04790704
25	0x3e648fab	0.2232043
26	0x3dfd6591	0.12372888
27	0xbe168ebf	-0.14702891
28	0x3dd99305	0.10623745
29	0xbe4f0e7f	-0.20220374
30	0xbef721eb	-0.48268065
31	0xbf09e793	-0.5386898
32	0x3c8fbc9c	0.01754599
33	0xbe172f89	-0.14764227
34	0xbe41e226	-0.18933925
35	0xbe932635	-0.28740087
36	0x3bfa51bd	0.0076391385
37	0x3edbce90	0.42931032
38	0xbde7f257	-0.113255195
39	0x3dd71f9f	0.10504078
40	0xbca1764a	-0.019709725
41	0x3e468783	0.19387631
42	0x3d8638f8	0.06553835
43	0x3c863ee9	0.01638742
44	0x3e9fa22d	0.31178418
45	0x3e06e43a	0.13172999
46	0x3dd6bba0	0.104850054
47	0x3e2f83ed	0.1714017
48	0xbe1afb9a	-0.15135041
49	0xbf06acbf	-0.5260734
50	0xbdb5d908	-0.08879286
51	0xbec7a271	-0.3899112
52	0x3d79a7d1	0.060951058
53	0x3e768498	0.24074018
54	0x3dd201d3	0.10254254
55	0x3d6e56aa	0.058188118
56	0xbf144bac	-0.57927966
57	0xbe3e452d	-0.18581076
58	0x3de4be73	0.11169138
59	0xbed0b469	-0.40762642
60	0x3ddcdfa9	0.10784847
61	0x3a005668	0.0004895688
62	0x3f07660e	0.528901
63	0xbdf6afe8	-0.1204527
64	0x3ee8b56a	0.45450908
65	0x3ef0d410	0.4703679
66	0x3daa5557	0.083170585
67	0xbea8cbf7	-0.32968113
68	0x3e757779	0.23971356
69	0xbe9863d6	-0.2976367
70	0xbe7a8ce7	-0.24467812
71	0xbecb85dd	-0.39750567
72	0xb98e4ea1	-0.00027142934
73	0xbe3da41e	-0.18519637
74	0xbebbfd77	-0.36716816
75	0xbe262348	-0.16224396
76	0xbc2e2814	-0.010629673
77	0xbe6cf2e0	-0.23139524
78	0xbe6f88a5	-0.2339197
79	0x3e792792	0.24331501
80	0xbef88fad	-0.48547116
81	0xbea9124b	-0.3302177
82	0xbe1f9631	-0.15584637
83	0xbe71492d	-0.2356307
84	0xbe10042e	-0.14064094
85	0xbe209d79	-0.15685071
86	0x3eb3ca2e	0.35115188
87	0x3eb17fa6	0.346677
88	0x3e37d4b4	0.17952234
89	0x3e8eb09a	0.2786911
90	0xbeb8719e	-0.36024183
91	0xbe796f36	-0.2435883
92	0xbe49e152	-0.19714859
93	0xbeb3aeb1	-0.35094216
94	0x3db5614e	0.0885645
95	0xbea58cdb	-0.32334027
96	0x3e2393fd	0.15974422
97	0xbe163dab	-0.14671962
98	0x3e8e7b7b	0.27828583
99	0x3e2cbe3a	0.1686944
100	0x3f297f0f	0.662095
101	0xbec041d3	-0.3755022
102	0xbf3ccd50	-0.7375078
103	0x3e748bdc	0.23881477
104	0x3e988c9b	0.29794773
105	0xbec90adb	-0.39266095
106	0xbcad40d1	-0.021149071
107	0x3d79ab8d	0.06095462
108	0x3cdc3b75	0.02688382
109	0xbe12d3e9	-0.1433865
110	0xbf0f33b6	-0.5593828
111	0x3f004ae7	0.5011429
112	0x3e70285d	0.23452897
113	0x3ef75cd2	0.48313004
114	0x3e3a10e7	0.1817051
115	0x3f68c9f8	0.9093318
116	0xbe879c38	-0.26486373
117	0x3e23665d	0.15957017
118	0x3ef7aeb8	0.48375487
119	0x3e345cf0	0.17613578
120	0x3f0d571c	0.55211043
121	0x3e983995	0.29731432
122	0x3c453ddd	0.012038675
123	0xbe7c80ac	-0.2465846
124	0xbec202cb	-0.37892756
125	0xbf1c885e	-0.6114558
126	0x3dc3d656	0.09562366
127	0xbf01981c	-0.50622725
128	0xbd19de47	-0.037565496
129	0xbe844cd4	-0.25839865
130	0xbf297cfa	-0.66206324
131	0x3e32df39	0.17467965
132	0x3e91e9ef	0.2849879
133	0xbf34072a	-0.7032343
134	0xbecb123f	-0.39662358
135	0xbebf3de0	-0.37351894
136	0xbdb99cc3	-0.09063103
137	0xbdb588b1	-0.088639624
138	0xbe8ff4b7	-0.2811639
139	0xbe8390d0	-0.2569642
140	0xbf13715a	-0.57594836
141	0x3c022faa	0.007945934
142	0x3e0ad2c2	0.1355696
143	0xbe49692a	-0.19669023
144	0xbc608b75	-0.013705124
145	0xbf5e04ef	-0.8672628
146	0x3f2b97be	0.67028415
147	0x3ee1a645	0.44072166
148	0xbed33b77	-0.41256306
149	0xbe1a9671	-0.15096451
150	0x3e97a932	0.29621273
151	0x3f2590a5	0.64673835
152	0xbeb875dd	-0.36027423
153	0xbf5f701f	-0.8728046
154	0xbe576c32	-0.21037367
155	0xbeadf29c	-0.3397416
156	0x3e35e009	0.17761244
157	0xbdcf969a	-0.10136147
158	0xbe83cf8c	-0.25744283
159	0x3f0e1320	0.5549793
160	0x3e662182	0.2247372
161	0x3e54cea4	0.20781952
162	0x3ee12f18	0.43981242
163	0xbd0c3a6c	-0.034235403
164	0x3e345e4f	0.17614101
165	0xbd487566	-0.048940085
166	0xbd4f6b66	-0.050639533
167	0x3e8c583a	0.27411062
168	0x3eb83c0a	0.35983306
169	0x3e418c17	0.18901096
170	0x3db8e1af	0.09027421
171	0x3e225928	0.15854323
172	0x3e80e1af	0.25172183
173	0x3dbb4c6d	0.091454364
174	0x3ee25a34	0.44209445
175	0x3f6e03ee	0.92974746
176	0xbf045898	-0.51697683
177	0xbc45226d	-0.0120321335
178	0x3f1dbc54	0.6161549
179	0xbf067d4b	-0.5253493
180	0xbe9642ab	-0.2934774
181	0xbb6697ec	-0.0035185767
182	0xbdd05583	-0.1017256
183	0x3dd0527e	0.10171984
184	0xbeb0c234	-0.34523165
185	0xbc843a3a	-0.016141046
186	0x3f03f67f	0.51548
187	0xbe1ef534	-0.15523225
188	0xbe9f5980	-0.3112297
189	0xbae02ac2	-0.0017102587
190	0xbe12fc92	-0.1435416
191	0xbdcd87e8	-0.10035688
192	0x3c6f5061	0.014606566
193	0xbca3863e	-0.019961473
194	0x3e064efc	0.13116068
195	0x3efa01b7	0.48829433
196	0x3ea83d2f	0.3285918
197	0x3ea4181d	0.32049647
198	0xbe6f81c3	-0.23389344
199	0xbe06612d	-0.13123007
200	0x3ea1eb8d	0.31625023
201	0xbe65187b	-0.2237262
202	0x3ddf7d2b	0.10912546
203	0xbe8e4bc9	-0.27792194
204	0x3e34125f	0.17585133
205	0xbe88635e	-0.2663831
206	0x3edb0f38	0.42785048
207	0x3d7f4bf8	0.06232831
208	0xbe096563	-0.13417582
209	0x3dbae761	0.09126163
210	0x3e6b5523	0.22981696
211	0xbd0e80b9	-0.03479073
212	0xbf0730d8	-0.52808905
213	0x3e36b59d	0.17842717
214	0xbd4569c2	-0.04819656
215	0x3e8b2b9d	0.27181712
216	0xbe326448	-0.17421067
217	0xbde1c792	-0.11024393
218	0xbdcf6ff8	-0.10128778
219	0xbef0abcb	-0.47006068
220	0x3ead8201	0.33888248
221	0xbddebc35	-0.108757414
222	0x3abce405	0.0014411217
223	0xbec97d10	-0.39353228
224	0xbe65a525	-0.22426279
225	0xbddd4986	-0.10805039
226	0xbe5b6676	-0.21425804
227	0xbeb9b305	-0.36269394
228	0x3dc145e9	0.094371624
229	0xbf017633	-0.5057098
230	0x3e0f2bad	0.13981505
231	0xbdf62000	-0.12017822
232	0x3dcd0836	0.10011332
233	0x3eb0006c	0.34375322
234	0xbee25497	-0.44205162
235	0x3e95dc2c	0.2926954
236	0x3e234ee1	0.15948059
237	0xbe3a9b52	-0.18223312
238	0x3f02eac1	0.51139456
239	0xbe6924d4	-0.22767955
240	0x3f1f2a4b	0.6217391
241	0x3e265f18	0.16247213
242	0xbf2a52d2	-0.66532624
243	0x3e814e7f	0.252552
244	0x3e9bf722	0.30461985
245	0xbea7b1f8	-0.32752967
246	0x3e13397b	0.14377396
247	0x3e12137a	0.14265242
248	0xbe2326f7	-0.15932833
249	0xbcb75f95	-0.022384444
250	0xbeed1ce2	-0.46311098
251	0xbf01c85f	-0.5069637
252	0xbdf0147f	-0.11722659
253	0xbefa142d	-0.48843518
254	0x3e031f61	0.12804939
255	0xbe7e37e5	-0.2482601

conv_layer.4.bias f4 [16]
0	0xbd8ef69a	-0.06980629
1	0xbcb31aa6	-0.021863293
2	0xbd9cc980	-0.076556206
3	0x3d3eb160	0.046555877
4	0xbd7e9796	-0.062156282
5	0xbd529576	-0.05141207
6	0xbd66a6a6	-0.056311272
7	0x3cd3301b	0.025779774
8	0x3c2f9bfb	0.010718341
9	0x3d7c28d0	0.06156236
10	0xbc6c879e	-0.0144366305
11	0x3d513528	0.051076084
12	0xbd0bf616	-0.034170233
13	0xbd1dcc56	-0.038524948
14	0x3d13d9bb	0.036096316
15	0x3cd75366	0.026284885

conv_layer.5.weight f4 [16]
0	0x3f8ad7f6	1.0847156
1	0x3f88390e	1.0642412
2	0x40020d4b	2.0320613
3	0x3fc860e7	1.5654572
4	0x3fa39c06	1.278199
5	0x3f88fa41	1.0701371
6	0x3fb1f139	1.390174
7	0x3faef2a9	1.3667804
8	0x3f41dfbc	0.75732017
9	0x3fc258c6	1.5183342
10	0x3f555e2f	0.8334684
11	0x3fb35def	1.4013041
12	0x3fed5e74	1.854445
13	0x3f7d6107	0.98976177
14	0x3f808ce0	1.0042992
15	0x3f996123	1.1982769

conv_layer.5.bias f4 [16]
0	0xbed35832	-0.41278225
1	0xbf4c4ef6	-0.79807985
2	0xbf9b51c4	-1.2134328
3	0xbf76e9c4	-0.9645045
4	0xbf4e09b8	-0.8048358
5	0xbf4ba1f0	-0.7954397
6	0xbf8418e6	-1.0320098
7	0xbf693375	-0.9109414
8	0xbd4f9b95	-0.050685484
9	0xbf840f81	-1.0317231
10	0xbe9958e3	-0.29950628
11	0xbf7a01ee	-0.97659194
12	0xbfcf195a	-1.6179612
13	0xbed6ce34	-0.41954195
14	0xbee8f296	-0.45497578
15	0xbf8f54aa	-1.1197712

conv_layer.5.running_mean f4 [16]
0	0xc02241d3	-2.5352676
1	0xbed9e230	-0.4255538
2	0xc0c382e0	-6.109726
3	0xc00c304e	-2.1904483
4	0xc03478a5	-2.8198636
5	0xc0094ba3	-2.1452415
6	0xc02adb19	-2.6696227
7	0xc01abf5c	-2.4179296
8	0xbf27c0b8	-0.6552844
9	0xc06285b4	-3.5394106
10	0xbf92b462	-1.1461298
11	0xc07956d2	-3.895924
12	0xc04ed0b2	-3.2314878
13	0xc009b511	-2.1516764
14	0xbfa23ccb	-1.2674803
15	0xbf96279c	-1.1730838

conv_layer.5.running_var f4 [16]
0	0x41479b2c	12.475384
1	0x41064440	8.391663
2	0x41d44d6c	26.537804
3	0x4163cba3	14.237216
4	0x4141d765	12.115087
5	0x411e1350	9.879715
6	0x4160e68c	14.056286
7	0x4120dfa4	10.0546
8	0x41071471	8.442491
9	0x416ac940	14.674133
10	0x41098ad7	8.596396
11	0x4137f6a2	11.497713
12	0x416bd943	14.740542
13	0x410451e3	8.269992
14	0x41124453	9.141681
15	0x40f130c3	7.5372024

fc_layer.0.weight f4 [10, 1024]
0	0xbeff4778	-0.49859214
1	0xbd6eb108	-0.0582743
2	0x3ef2a5b5	0.4739205
3	0xbdcded3f	-0.10055017
4	0xbeb04e2c	-0.3443464
5	0xbd758e6b	-0.059950273
6	0xbd322637	-0.043493476
7	0xbe12a55d	-0.14320894
8	0xbe34e3cc	-0.17665023
9	0x3e6e48ac	0.2326991
10	0xbe0a5a66	-0.13511047
11	0xbe31afd6	-0.17352232
12	0xbe351fa6	-0.17687854
13	0xbdfdb56c	-0.12388119
14	0x3d06b732	0.032889552
15	0xbee4f58d	-0.4471859
16	0x3dca1c8e	0.098687276
17	0xbc956166	-0.01823492
18	0x3d123d85	0.0357032
19	0xbeae1845	-0.3400289
20	0xbdecc404	-0.115608245
21	0xbee5e60b	-0.4490207
22	0xbf0ca6f4	-0.5494225
23	0x3d1c9cc5	0.038235445
24	0xbe85a67c	-0.2610358
25	0xbd99209b	-0.07476922
26	0xbe5bdac5	-0.21470173
27	0xbe8fe9a0	-0.2810793
28	0xbed679be	-0.41889757
29	0xbf0a7921	-0.5409108
30	0x3d4b2f3d	0.049605597
31	0x3e9a8d55	0.30185953
32	0xbdd604a5	-0.104501046
33	0x3c9c668a	0.019091863
34	0xbe29ce19	-0.16582526
35	0xbe6b89e0	-0.23001814
36	0xbdb4b72a	-0.08823998
37	0xbe4613f3	-0.19343548
38	0xbe4cc1e4	-0.19995838
39	0x3d196747	0.03745201
40	0x3df1bf0f	0.1180402
41	0xbe3c98f8	-0.18417728
42	0xbddf9e65	-0.10918883
43	0xbe26c569	-0.16286243
44	0xbd606222	-0.054781087
45	0x3e194a39	0.1496972
46	0xbdb11858	-0.08647221
47	0x3d07f0ad	0.03318851
48	0x3d7413a7	0.059589054
49	0x3e020071	0.12695481
50	0x3e4d7aec	0.20066422
51	0xbdc262eb	-0.09491523
52	0x3dc4637c	0.09589288
53	0xbdc2e07d	-0.09515474
54	0x3dfd8a6a	0.12379916
55	0xbd7537b9	-0.059867594
56	0x3d3e8b90	0.046519816
57	0x3d95bff1	0.073120005
58	0x3ed8f064	0.42370903
59	0xbd133997	-0.035943594
60	0x3c370427	0.011170424
61	0x3e65189f	0.22372673
62	0x3cc46a3b	0.023976436
63	0x3de4cee1	0.111722715
64	0x3e288237	0.16455923
65	0xbe34879c	-0.17629856
66	0xbe10b071	-0.14129807
67	0x3d8f06b8	0.069837034
68	0xbe070bcf	-0.13188098
69	0xbe709f2a	-0.23498216
70	0xbd9dbed0	-0.0770241
71	0x3e2bbde8	0.16771662
72	0xbe2f9b9d	-0.17149206
73	0x3e58bea7	0.21166478
74	0xbe7c5a84	-0.24643904
75	0x3de0b025	0.10971097
76	0xbe3eb7c3	-0.18624787
77	0x3c969bec	0.018384896
78	0xbe6719ed	-0.22568484
79	0x3d8f2ee0	0.069913626
80	0x3dd7bced	0.105340816
81	0x3de30a29	0.11085922
82	0x3e4a99e9	0.19785275
83	0x3bcde590	0.0062834695
84	0xbe373fa4	-0.1789537
85	0x3d6849ac	0.056710884
86	0x3e20bef8	0.15697849
87	0x3e30717f	0.17230795
88	0xbdb6e1d8	-0.08929795
89	0x3e11e82b	0.14248721
90	0x3d835ad2	0.06413807
91	0x3e2a7912	0.16647747
92	0x3e46346f	0.1935594
93	0xbd0b2fa9	-0.033981
94	0x3e6e74cc	0.23286742
95	0x3dc531b8	0.09628624
96	0xbe3c2bf3	-0.1837614
97	0x3e978892	0.29596382
98	0xbad18ebd	-0.0015987974
99	0x3e456f4e	0.1928074
100	0x3e0a23ec	0.13490266
101	0x3e6e06a8	0.23244727
102	0x3d0aa392	0.0338474
103	0xbd9e715c	-0.07736465
104	0xbdb4f59d	-0.088359095
105	0x3c8ca2ab	0.01716741
106	0xbd20c820	-0.039253354
107	0x3d12af49	0.035811696
108	0x3d2294b7	0.039692607
109	0xbdee14c0	-0.116250515
110	0x3de8fc89	0.11376292
111	0x3db67497	0.089089565
112	0x3da3acd7	0.07991951
113	0xbe2b24e2	-0.16713288
114	0x3e9554af	0.2916617
115	0xbbbc1b21	-0.0057405387
116	0x3e5a4bfa	0.21318045
117	0x3e263d1e	0.16234252
118	0xbe1e0e22	-0.15435079
119	0x3e8c53b8	0.27407622
120	0x3dffbb4b	0.12486895
121	0x3c707b2d	0.014677805
122	0x3d1b503b	0.03791831
123	0xbcc6d0f8	-0.024269566
124	0xbe0ae07a	-0.13562194
125	0x3d82bb7a	0.063834146
126	0x3ec54d17	0.38535377
127	0xbe928e6d	-0.28624287
128	0x3e9475b8	0.28996062
129	0xbe835065	-0.25647274
130	0x3e146bb0	0.14494205
131	0xbc7efec2	-0.015563669
132	0x3ea90e14	0.33018553
133	0xbe7b9a12	-0.24570492
134	0x3e5dea70	0.21671462
135	0x3daf0fef	0.08547961
136	0x3d30a597	0.04312667
137	0x3c271c4c	0.010199618
138	0x3ca9d3f5	0.020730952
139	0x3e3fdf7d	0.18737598
140	0x3eb78a9b	0.35847935
141	0x3de941c6	0.113894984
142	0x3e33b1a4	0.17548233
143	0xbd530571	-0.05151886
144	0xbf150f91	-0.5822688
145	0x3e286e06	0.1644822
146	0x3e94a65c	0.29033172
147	0xbd99ff7e	-0.075194344
148	0x3dfee307	0.12445646
149	0x3e206ae9	0.15665783
150	0x3e1dfb84	0.15427977
151	0xbcaf707d	-0.021415943
152	0x3e469b92	0.19395283
153	0x3dd47cbb	0.10375353
154	0xbd831cdf	-0.06401991
155	0x3e255395	0.16145165
156	0xbdef7a70	-0.11693275
157	0x3ca84144	0.020538934
158	0x3d4a311c	0.04936324
159	0xbd78ea04	-0.06077005
160	0x3e7c1a9b	0.24619524
161	0x3eb5b047	0.3548605
162	0x3d37504c	0.04475431
163	0xbe674b8e	-0.22587416
164	0xbc127f58	-0.008941494
165	0x3e119946	0.14218625
166	0x3e9cb74b	0.3060859
167	0xbe809725	-0.25115314
168	0x3c1b3338	0.009472661
169	0x3e617070	0.22015548
170	0xbde55aa2	-0.111989275
171	0x3e1af568	0.15132678
172	0x3e5fda82	0.21860698
173	0xbe94b3ae	-0.29043335
174	0x3ce9e2a1	0.028550448
175	0xbc78bb6e	-0.0151814055
176	0xbdb266f1	-0.08711041
177	0x3e98559d	0.29752818
178	0x3db34423	0.087532304
179	0xbdc2e09c	-0.09515497
180	0x3db19b4b	0.08672198
181	0x3e1a45be	0.15065667
182	0x3ea8d122	0.32972056
183	0x3e4d7999	0.20065917
184	0x3ebae0fb	0.3649977
185	0xbddb911e	-0.10721038
186	0x3e91df85	0.28490844
187	0x3e7a138e	0.24421522
188	0xbd88ddde	-0.06682943
189	0x3da8fc82	0.08251287
190	0x3d73d97b	0.059533577
191	0x3e9f02f8	0.31056952
192	0x3c915f0f	0.017745523
193	0xbcb32529	-0.021868305
194	0xbd2d1647	-0.042257573
195	0x3e193fce	0.14965746
196	0x3e3c12b9	0.18366517
197	0x3c8fad41	0.017538669
198	0xbd74e977	-0.059792962
199	0x3e2a43b3	0.16627388
200	0xbe0c5d86	-0.13707551
201	0xbd7f20f9	-0.062287305
202	0x3d5293d8	0.051410526
203	0x3de6c499	0.11267967
204	0xbdec138c	-0.11527166
205	0x3e4cc82b	0.19998233
206	0x3e33d94b	0.1756336
207	0x3d4cc767	0.049994852
208	0xbd2712a7	-0.040789273
209	0xbdf4a966	-0.11946373
210	0xbd0eb2c5	-0.034838457
211	0x3da22aab	0.079182945
212	0x3d9d20d5	0.07672278
213	0x3e7b4424	0.24537712
214	0x3dafd32e	0.08585201
215	0xbb5b7a8a	-0.0033489787
216	0xbd2f5b9f	-0.042811986
217	0xbd267bd8	-0.04064545
218	0x3dd59d15	0.10430352
219	0x3e2404f4	0.16017514
220	0x3ee3b461	0.44473556
221	0x3e0c3d3f	0.13695239
222	0xbd2a57d7	-0.041587677
223	0x3e0aa95d	0.1354117
224	0xbda46fb0	-0.08029115
225	0x3d9d5af5	0.07683364
226	0x3e2821f3	0.164192
227	0xbba55b62	-0.005046294
228	0x3e4a6031	0.19763257
229	0x3e3eba6c	0.18625802
230	0x3e8e5afe	0.27803797
231	0x3e0b1256	0.13581213
232	0xbd75ed82	-0.06004096
233	0x3d88c65d	0.0667846
234	0x3e54153c	0.20711225
235	0x3d093ac0	0.033503294
236	0xbd3eb4de	-0.046559207
237	0x3e25e1b9	0.16199388
238	0x3d6d3862	0.0579151
239	0x3e3c44b7	0.18385588
240	0xbda3673f	-0.07978677
241	0x3de128c0	0.109941006
242	0x3de9f087	0.1142283
243	0x3d50e863	0.05100287
244	0xbe66f43c	-0.22554106
245	0xbe053b11	-0.13010813
246	0xbe619b81	-0.22031976
247	0xbd416be5	-0.047222037
248	0x3db27d17	0.08715265
249	0x3daf1e49	0.08550698
250	0xbd42f156	-0.047593437
251	0x3c16c129	0.009201326
252	0xbd8fdc24	-0.0702441
253	0xbea713fc	-0.32632434
254	0x3d8287ae	0.06373535
255	0xbea07ca8	-0.31345105

fc_layer.0.bias f4 [10]
0	0xbe6dc141	-0.23218252
1	0xbf561de7	-0.8363938
2	0x3e510e1e	0.20415542
3	0xbd900d23	-0.07033756
4	0x3f8458c4	1.0339589
5	0xbddb6881	-0.10713292
6	0x3e86e443	0.26346025
7	0xbf4dae64	-0.80344224
8	0x3e1f0ab1	0.15531422
9	0x3ec58d3c	0.38584316
