Knowledge Distillation/TAKD/saved/10-6-2.pth (torch, 57426 bytes, 14 tensors)

conv_layer.0.weight f4 [16, 3, 3, 3]
-0.53288317 0.20612457 0.3179934 0.1334977 0.7177428 1.0657105 -0.6757845 0.41546738
0.5882231 0.08421529 0.18074483 -0.17771769 -0.27406192 -0.48409292 -0.3987544 -0.27719477
-0.013441217 -0.1330464 0.64426374 0.17212385 0.0618039 0.08327779 -0.75590277 -0.9321036
0.58311844 -0.21427044 -0.35526484 -0.6035987 -0.37999398 1.1804479 0.6455027 -0.77575105
0.029452711 -0.02504687 1.0853949 -0.84553844 -0.6888604 -0.33803615 0.90711045 0.781681
-0.85881054 -0.050487805 -0.2282758 1.0034206 -1.1197504 -0.5882483 -0.31203327 0.9507888
1.0020695 -0.84687 -0.1722835 0.2899578 0.8145705 -1.0301726 -0.1709225 -0.011557558
0.5172542 0.26005375 0.83447534 0.02236282 0.42646673 -0.022515805 -0.49263746 -0.4718363
-0.19082831 0.41184798 -0.28201476 0.68031484 -0.18262933 0.21679984 -0.2451547 -0.6532721
-0.63202786 -0.3264718 0.64137274 -0.42833093 0.7437566 0.039708044 0.31991014 0.17289124
-0.3612273 -0.27637455 -0.533197 0.034510598 0.08782122 -0.09303777 -0.1656026 0.043357965
-0.06384526 0.097167745 -0.0616797 -0.18500358 0.21705405 0.0122583825 0.17190829 0.020263243
0.015392028 -0.041183177 0.23316029 -0.31031013 -0.4119054 -0.050966304 0.17732403 -0.31796148
-0.08551393 0.070519224 -0.2029074 -0.10181987 -0.20439087 -0.4586199 -0.23736466 -0.10498559
-0.33607492 -0.50698584 0.7807759 0.55690885 0.6179334 -0.42783022 -0.1555091 -0.13454522
0.021871595 -0.29153273 -0.106992766 0.51964676 0.17941537 0.48213616 -0.22713546 0.007573432
-0.054137055 0.12550035 -0.4639725 -0.3101292 0.11834152 0.26941854 0.27898312 0.3632263
0.3570997 -0.45771083 0.60114664 0.36739942 -0.58646375 0.20457006 0.2638761 -0.41559288
0.09519623 -0.30071115 0.02898756 -0.16262744 -0.39096826 -0.16041546 -0.25208184 -0.35323435
-0.22519262 -0.22900589 -0.11289535 0.4179395 -0.6223521 -0.060060713 0.5999193 0.06381755
-0.0625262 0.2568536 0.5421535 -0.88922095 0.18265425 0.6426866 -1.1686778 0.60530025
0.47088662 -0.9489523 0.45202738 0.3513095 -1.0745448 0.51732075 0.757791 -1.2809608
0.78476685 0.101507 -0.86534977 0.71472764 0.2909342 -0.8258526 0.45588928 0.6092284
-1.2225311 0.6919276 0.09568103 -0.83940786 0.73036104 0.25976786 1.0591009 0.29770067
-1.2316024 -0.5591234 -0.6093039 0.0065497165 0.5204401 0.2159672 0.39489752 0.6934241
0.088687286 -0.9202277 -0.54846835 -0.7505888 0.09872886 0.5577423 0.41858673 0.15330245
0.21627192 -0.006410552 -0.3194574 -0.56898046 -0.73104125 0.46774122 0.43269745 0.3164529
0.6042044 -0.37078267 -0.3650758 0.039301626 -0.792299 0.18435183 -0.5123101 0.68256867
-0.4169457 0.83543277 -0.22157368 0.109495446 -0.101255536 -0.15036702 0.56056327 -0.63191
0.96912557 -0.035804763 0.26309097 -0.48728877 -0.33376402 -0.4890578 -0.7968611 0.89468277
-0.7073784 0.8483479 0.2829294 0.2909078 0.05473371 -0.23744199 -0.14857888 -0.108391106
0.60857755 -0.09314792 0.1510744 0.2534229 -0.05354119 -0.4331399 -0.5840816 -0.3703829
00000000: 086b 08bf 5212 533e 08d0 a23e 9fb3 083e
00000010: febd 373f 3469 883f 3700 2dbf 24b8 d43e
00000020: ca95 163f 1179 ac3d 2c15 393e a0fb 35be
00000030: d851 8cbe 07db f7be 8929 ccbe 79ec 8dbe
00000040: 8d38 5cbc 513d 08be 78ee 243f 3c41 303e
00000050: 1626 7d3d 8c8d aa3d d882 41bf 579e 6ebf
00000060: 4047 153f b669 5bbe 46e5 b5be 7285 1abf
00000070: 928e c2be eb18 973f aa3f 253f 9f97 46bf
00000080: d046 f13c 182f cdbc 38ee 8a3f 3575 58bf
00000090: 2859 30bf 1313 adbe 6438 683f 3f1c 483f
000000a0: 02db 5bbf 4dcc 4ebd 22c1 69be 1670 803f
000000b0: fb53 8fbf 7197 16bf d3c2 9fbe e566 733f
000000c0: d043 803f 79cc 58bf 166b 30be 5975 943e
000000d0: b187 503f b2dc 83bf 4f06 2fbe e95b 3dbc
000000e0: c56a 043f c425 853e 2da0 553f 3c32 b73c
000000f0: d959 da3e 1173 b8bc fa3a fcbe 8794 f1be
00000100: 7f68 43be bddd d23e 3d64 90be 1d29 2e3f
00000110: 2f03 3bbe c700 5e3e d509 7bbe d73c 27bf
00000120: 94cc 21bf 5027 a7be 0131 243f 314e dbbe
00000130: d566 3e3f e7a4 223d 43cb a33e 670a 313e
00000140: c9f2 b8be f780 8dbe 997f 08bf fc5a 0d3d
00000150: 9ddb b33d 968a bebd ba93 29be 1f98 313d
00000160: 4ec1 82bd e2ff c63d daa3 7cbd 9471 3dbe
00000170: 6b43 5e3e 62d7 483c ba08 303e 1aff a53c
00000180: d82e 7c3c b1af 28bd 92c1 6e3e f8e0 9ebe
00000190: 44e5 d2be 0bc2 50bd 6e94 353e d9cb a2be
000001a0: ed21 afbd 626c 903d f5c6 4fbe f086 d0bd
000001b0: d74b 51be 3ad0 eabe b90f 73be af02 d7bd
000001c0: 0312 acbe d3c9 01bf eee0 473f 9491 0e3f
000001d0: e230 1e3f 900c dbbe c73d 1fbe 39c6 09be
000001e0: 0f2c b33c c743 95be 061f dbbd 9207 053f
000001f0: aab8 373e 8dda f63e 3396 68be 8d2a f83b
00000200: d1be 5dbd 2a83 003e ce8d edbe 41c9 9ebe
00000210: 0a5d f23d 3af1 893e e0d6 8e3e ccf8 b93e
00000220: c6d5 b63e 1359 eabe bfe4 193f c71b bc3e
00000230: 7d22 16bf d07a 513e c51a 873e 97c8 d4be
00000240: 3ef6 c23d d0f6 99be 5277 ed3c cf87 26be
00000250: fe2c c8be f343 24be df10 81be 22db b4be
00000260: e598 66be 8580 6abe ad35 e7bd 2bfc d53e
00000270: 7852 1fbf 3902 76bd 5094 193f c7b2 823d
00000280: bd0d 80bd 5182 833e 92ca 0a3f fca3 63bf
00000290: b709 3b3e 1c87 243f 3c97 95bf f5f4 1a3f
000002a0: 0d18 f13e 8aee 72bf 2270 e73e d7de b33e
000002b0: af8a 89bf 226f 043f 97fe 413f 86f6 a3bf
000002c0: 7be6 483f e7e2 cf3d 9087 5dbf 64f8 363f
000002d0: 54f5 943e 136b 53bf 526a e93e 64f6 1b3f
000002e0: e67b 9cbf 2b22 313f 6af4 c33d 6fe3 56bf
000002f0: f1f8 3a3f 4b00 853e 9e90 873f 396c 983e
00000300: 26a5 9dbf b622 0fbf 57fb 1bbf 019f d63b
00000310: 903b 053f 8126 5d3e 0230 ca3e 3e84 313f
00000320: aea1 b53d 0b94 6bbf 6c68 0cbf 9626 40bf
00000330: 5b32 ca3d 33c8 0e3f 0051 d63e 51fb 1c3e
00000340: 6376 5d3e 9c0f d2bb ec8f a3be b4a8 11bf
00000350: 8525 3bbf c77b ef3e 858a dd3e 1d06 a23e
00000360: 24ad 1a3f 3ad7 bdbe 37eb babe befa 203d
00000370: 1bd4 4abf bac6 3c3e c126 03bf d2bc 2e3f
00000380: e879 d5be ecde 553f 36e4 62be 263f e03d
00000390: 105f cfbd d0f9 19be 1381 0f3f dbc4 21bf
000003a0: 9d18 783f 04a8 12bd dcb3 863e ea7d f9be
000003b0: 1ee3 aabe c965 fabe 17ff 4bbf ee09 653f
000003c0: c016 35bf 542d 593f 1fdc 903e def1 943e
000003d0: 7430 603d fe23 73be 1025 18be 28fc ddbd
000003e0: bdcb 1b3f 56c4 bebd 3fb3 1a3e a5c0 813e
000003f0: 024e 5bbd 83c4 ddbe 5f86 15bf d4a2 bdbe

conv_layer.0.bias f4 [16]
0.06654369 -0.036782235 -0.031119402 -0.12699467 0.17506218 0.12868518 0.005415162 0.12048533
-0.09196118 0.058890637 0.19093584 -0.15963557 0.15639096 -0.13326496 0.16319075 0.16880563
00000000: 0f48 883d f8a8 16bd 1eee febc e40a 02be
00000010: 8043 333e 0cc6 033e ac71 b13b 03c1 f63d
00000020: 2556 bcbd 4f37 713d af84 433e 8277 23be
00000030: f424 203e 9c76 08be 7a1b 273e 62db 2c3e

conv_layer.1.weight f4 [16]
0.7970538 0.9733249 0.9795655 1.1289344 1.1679527 1.143725 1.7719951 1.2686765
0.83459705 1.0051785 1.051779 1.0582335 1.0813342 1.3515117 1.1589135 0.9565368
00000000: b80b 4c3f d22b 793f cec4 7a3f ec80 903f
00000010: 797f 953f 9565 923f bcd0 e23f fe63 a23f
00000020: 27a8 553f b0a9 803f b2a0 863f 3274 873f
00000030: 2969 8a3f 56fe ac3f 4757 943f 99df 743f

conv_layer.1.bias f4 [16]
0.26333818 -0.21741287 -0.28127018 -0.44052267 -0.16045631 -0.48610413 -0.42457387 -0.21954802
0.08139622 -0.53954935 -0.0029887129 -0.00041081867 -0.57334036 -0.11531373 -0.5831246 -0.1440736
00000000: 43d4 863e 7ba1 5ebe a502 90be 308c e1be
00000010: a94e 24be a4e2 f8be bf61 d9be 32d1 60be
00000020: 10b3 a63d e81f 0abf 48de 43bb 2663 d7b9
00000030: 6fc6 12bf 9b29 ecbd a747 15bf 0888 13be

conv_layer.1.running_mean f4 [16]
0.2046517 -0.12432928 0.8949496 -1.7033736 0.062966675 -0.66545695 -0.33691892 -0.073752955
-0.24916963 -0.47883415 -0.064614944 -0.38083974 -1.3992 -0.18591578 0.92278165 -0.03481784
00000000: 3790 513e 59a0 febd 6b1b 653f 2508 dabf
00000010: acf4 803d 635b 2abf a380 acbe ca0b 97bd
00000020: 5326 7fbe c029 f5be d754 84bd 6dfd c2be
00000030: fc18 b3bf b560 3ebe 6b3b 6c3f 279d 0ebd

conv_layer.1.running_var f4 [16]
0.4003945 0.52862567 0.5162838 0.7716978 1.3031783 0.25272986 2.2835672 1.2213638
0.3341789 0.3889437 1.2345331 1.3587408 0.69281554 1.5640593 1.0300388 0.5296137
00000000: 8200 cd3e 0354 073f 2d2b 043f fd8d 453f
00000010: 8cce a63f cf65 813e f725 1240 a655 9c3f
00000020: 7f19 ab3e a123 c73e 2e05 9e3f 38eb ad3f
00000030: 5c5c 313f 1833 c83f 50d8 833f c394 073f

conv_layer.4.weight f4 [16, 16, 3, 3]
-0.08325082 -0.20469089 -0.094152786 0.14555675 0.11339381 -0.044937104 0.06564874 0.14019614
0.14338827 0.27468812 -0.10989789 -0.099922515 -0.117954575 -0.23458812 -0.17069031 0.084143825
-0.3399328 -0.31217855 -0.3583192 -0.375772 -0.3341702 0.005672645 -0.3310081 -0.27490258
-0.0099061625 -0.18132761 -0.23401287 -0.25329605 -0.23424402 0.007678393 -0.15027417 -0.03995296
0.017709624 -0.14226738 0.109299585 0.056413222 0.19729802 0.11103895 0.17829548 -0.2545617
-0.11722674 0.1379741 0.08089888 0.16919222 0.1928274 0.06662896 -0.12637608 -0.26278457
-0.12741564 -0.17254816 -0.29350582 0.31782135 -0.12720306 -0.030445542 0.39692992 -0.08736017
-0.19806163 0.26024976 0.24127549 -0.2284869 0.023587633 -0.048410613 0.13100465 0.06864589
0.33865622 0.6113429 0.052128814 0.31300208 0.3023084 -0.0794875 0.10804068 0.09669412
0.07937415 0.1804238 -0.13312721 -0.02515277 0.13305739 -0.22788392 -0.16481486 0.050769307
-0.24432847 -0.13984442 -0.22927824 -0.31302235 -0.21669511 -0.052963447 -0.34084758 -0.15394491
-0.15322937 -0.07507805 -0.20396711 0.048632026 0.09470093 -0.03998529 0.08775269 0.10963488
0.045743156 -0.05427966 0.1726954 -0.2659748 0.115609385 -0.298271 -0.22236183 -0.20288426
-0.0057871463 -0.08941203 -0.18260568 -0.0022644743 -0.038382303 0.09201551 0.18663704 0.059353624
0.06892932 0.08385197 0.07328961 0.030256432 -0.066522196 0.25682867 -0.36162138 0.036831956
0.15354721 0.022538623 -0.11054758 -0.15243456 0.17959596 -0.012126289 -0.33112034 0.10577866
0.03832158 0.01988114 -0.040417414 0.07579572 0.096182935 0.06756738 0.033986744 -0.17993574
0.29601377 0.13001552 0.04334737 0.32683092 0.27953282 0.07731865 0.05860199 0.053205784
-0.33046645 -0.1687284 -0.31702033 -0.46101835 -0.26626873 -0.33861473 -0.185304 0.09905403
0.033567067 0.12966084 0.053823493 0.15464303 0.16310936 -0.03578901 -0.0691838 0.10373245
0.454041 0.29509708 0.17874122 -0.009038283 0.04562282 0.368579 0.021964254 -0.027826468
0.059400566 -0.11513963 0.1487553 -0.2472137 -0.21809225 -0.14846906 -0.10807959 0.040824722
-0.04114381 0.10849637 0.04315352 0.045439355 0.47307327 -0.14232561 0.3461692 0.23530604
0.14462273 0.18814547 -0.115024656 0.06737382 -0.17128272 0.31143004 0.1731536 -0.20144373
-0.093813546 -0.1390149 -0.089214444 -0.12449438 -0.13912211 0.04127946 -0.044191394 0.008609036
0.16436833 -0.21972832 -0.2533784 -0.17505091 0.14363654 0.26555157 -0.098413415 -0.12738681
-0.049710684 0.20006059 -0.3185971 0.028507069 -0.01689604 -0.07079895 0.006414463 -0.38000843
0.19819292 0.048218533 0.09644302 -0.23776154 -0.22336699 -0.07276971 0.1817397 -0.036076404
0.04573076 -0.20324664 -0.1431295 -0.113475874 -0.06275216 0.0803957 -0.047104333 0.20297031
0.0056797666 -0.18265392 -0.15283473 -0.08861149 0.04906503 0.28901112 0.19125526 0.22274128
-0.02794935 0.05540359 -0.14524211 -0.18632786 0.19293202 0.0034987913 -0.12264137 -0.051047895
-0.15782273 0.1464058 0.10428863 -0.13187447 -0.06290823 -0.065192044 -0.284232 0.05233535
00000000: 687f aabd 7d9a 51be 2dd3 c0bd d40c 153e
00000010: 043b e83d f80f 38bd d972 863d 948f 0f3e
00000020: 60d4 123e eca3 8c3e 2512 e1bd 2da4 ccbd
00000030: 2b92 f1bd de37 70be 71c9 2ebe 9953 ac3d
00000040: ac0b aebe ded5 9fbe 9d75 b7be 3065 c0be
00000050: 5b18 abbe 98e1 b93b e579 a9be 08c0 8cbe
00000060: 754d 22bc f2ad 39be 12a1 6fbe 05b0 81be
00000070: aadd 6fbe 079b fb3b 79e1 19be b7a5 23bd
00000080: c613 913c 8aae 11be 76d8 df3d 8d11 673d
00000090: 7e08 4a3e 6468 e33d 1793 363e e955 82be
000000a0: 9314 f0bd 1549 0d3e 50ae a53d ba40 2d3e
000000b0: 8c74 453e c474 883d bb68 01be b38b 86be
000000c0: 3f79 02be 77b0 30be 6546 96be 7bb9 a23e
000000d0: 8541 02be ee68 f9bc 663a cb3e e4e9 b2bd
000000e0: abd0 4abe 753f 853e ec10 773e 78f8 69be
000000f0: da3a c13c 354a 46bd 1526 063e 3796 8c3d
00000100: 5964 ad3e f880 1c3f 0685 553d cf41 a03e
00000110: 2bc8 9a3e 58ca a2bd 6f44 dd3d 9107 c63d
00000120: ea8e a23d 04c1 383e 8052 08be 2f0d cebc
00000130: 3240 083e 675a 69be 3ac5 28be 7af3 4f3d
00000140: 3e31 7abe 6033 0fbe eac7 6abe 7744 a0be
00000150: 53e5 5dbe 33f0 58bd 9383 aebe bca3 1dbe
00000160: 29e8 1cbe 85c2 99bd c1dc 50be 6032 473d
00000170: 90f2 c13d 9ec7 23bd afb7 b33d 4188 e03d
00000180: 2d5d 3b3d 5954 5ebd 10d7 303e d92d 88be
00000190: 9dc4 ec3d fab6 98be d2b2 63be e4c0 4fbe
000001a0: 1aa2 bdbb a81d b7bd fcfc 3abe 9367 14bb
000001b0: c336 1dbd a172 bc3d c81d 3f3e c91c 733d
000001c0: d12a 8d3d 95ba ab3d dd18 963d 56dc f73c
000001d0: ca3c 88bd 0c7f 833e 7026 b9be 1bdd 163d
000001e0: 7b3b 1d3e eba2 b83c c566 e2bd ce17 1cbe
000001f0: 01e8 373e 58ad 46bc 9b88 a9be 7ba2 d83d
00000200: 17f7 1c3d c6dd a23c bb8c 25bd c93a 9b3d
00000210: 8ffb c43d c460 8a3d af35 0b3d 1341 38be
00000220: 1e8f 973e ca22 053e 038d 313d 6256 a73e
00000230: ed1e 8f3e 3e59 9e3d a408 703d 4fee 593d
00000240: e632 a9be 23c7 2cbe 7d50 a2be 990a ecbe
00000250: 6054 88be e95e adbe 55c0 3dbe d7dc ca3d
00000260: 9f7d 093d d0c5 043e 0676 5c3d be5a 1e3e
00000270: 2406 273e 7f97 12bd 3cb0 8dbd ae71 d43d
00000280: 1078 e83e f716 973e f007 373e 4e15 14bc
00000290: fede 3a3d 63b6 bc3e 61ee b33c 55f4 e3bc
000002a0: 024e 733d 54ce ebbd 4f53 183e 9725 7dbe
000002b0: 9353 5fbe 4608 18be d558 ddbd d337 273d
000002c0: 6986 28bd 5833 de3d bfc1 303d 9e1e 3a3d
000002d0: a936 f23e cebd 11be 173d b13e 11f4 703e
000002e0: fb17 143e 35a9 403e 0c92 ebbd 49fb 893d
000002f0: bd64 2fbe c273 9f3e 2d4f 313e 4447 4ebe
00000300: 5121 c0bd ec59 0ebe 10b6 b6bd e9f6 febd
00000310: 0776 0ebe a714 293d 0902 35bd ea0c 0d3c
00000320: 2c50 283e 7600 61be d0ba 81be 8c40 33be
00000330: 7515 133e 60f6 873e f98c c9bd b071 02be
00000340: 6e9d 4bbd afdc 4c3e 291f a3be a887 e93c
00000350: 9069 8abc 0aff 90bd 6a30 d23b 7790 c2be
00000360: 16f3 4a3e cc80 453d eb83 c53d c377 73be
00000370: 51ba 64be 4908 95bd f919 3a3e dac4 13bd
00000380: 2d50 3b3d e31f 50be 8a90 12be 0a66 e8bd
00000390: 3484 80bd 80a6 a43d 79f0 40bd 73d7 4f3e
000003a0: 561d ba3b a109 3bbe b580 1cbe f179 b5bd
000003b0: 6af8 483d 44f9 933e 6bd8 433e 4a16 643e
000003c0: 09f6 e4bc e0ee 623d 59ba 14be bbcc 3ebe
000003d0: f98f 453e fa4b 653b 662b fbbd 9917 51bd
000003e0: 489c 21be 67eb 153e 4795 d53d 1a0a 07be
000003f0: 08d6 80bd 6883 85bd db86 91be 985d 563d

conv_layer.4.bias f4 [16]
0.052917294 -0.043107163 -0.079917125 -0.0229921 0.009229217 0.06674459 0.048959296 0.02196012
0.058677267 0.07322627 0.0023559073 0.07164615 0.038825057 -0.0034219718 0.021922553 -0.06608914
00000000: cebf 583d 2391 30bd 97ab a3bd ee59 bcbc
00000010: 2436 173c 63b1 883d 8b89 483d b6e5 b33c
00000020: 9357 703d a8f7 953d 9165 1a3b 37bb 923d
00000030: 0607 1f3d 2943 60bb ed96 b33c be59 87bd

conv_layer.5.weight f4 [16]
1.1847161 1.4194562 1.0694672 1.6459484 1.5028602 1.0931548 1.3345035 1.8995777
1.183415 1.8948002 0.97329664 1.456479 1.6408848 1.1960166 1.0919071 1.0104282
00000000: c7a4 973f beb0 b53f 4de4 883f 70ae d23f
00000010: b95d c03f 7fec 8b3f 03d1 aa3f 5d25 f33f
00000020: 257a 973f d088 f23f f829 793f e76d ba3f
00000030: 8308 d23f 1217 993f 9dc3 8b3f b655 813f

conv_layer.5.bias f4 [16]
-0.52094465 -1.0172008 -0.6735937 -0.8118739 -1.0613936 -0.41138622 -0.83150035 -1.051668
-0.6471499 -1.4272022 -0.43059853 -0.96466637 -1.4294845 -0.70280766 -0.100492254 -0.5400234
00000000: a15c 05bf a333 82bf a370 2cbf f8d6 4fbf
00000010: bfdb 87bf 37a1 d2be 35dd 54bf 0f9d 86bf
00000020: 9eab 25bf 90ae b6bf 6977 dcbe 60f4 76bf
00000030: 59f9 b6bf 34eb 33bf e2ce cdbd f93e 0abf

conv_layer.5.running_mean f4 [16]
-0.871402 -1.487754 0.092191026 -3.6066833 -1.3245249 -0.89322245 -1.0979124 -3.2319508
-0.53542155 -2.3030963 -0.68119794 -1.3804027 -1.3099271 -0.63180846 -1.0500534 0.19384955
00000000: 3414 5fbf b96e bebf a6ce bc3d e6d3 66c0
00000010: 088a a9bf 3aaa 64bf 6588 8cbf 48d8 4ec0
00000020: 6311 09bf ee65 13c0 fd62 2ebf 09b1 b0bf
00000030: b1ab a7bf 33be 21bf 2668 86bf 7f80 463e

conv_layer.5.running_var f4 [16]
3.2423117 3.3038673 2.5085318 4.675287 4.2617054 3.6032248 3.8715308 8.948989
2.853025 5.367082 4.0156865 3.6436644 3.8814855 2.0704198 4.8544264 2.8343248
00000000: 0982 4f40 9072 5340 c98b 2040 f39b 9540
00000010: e45f 8840 3c9b 6640 29c7 7740 0f2f 0f41
00000020: f697 3640 23bf ab40 8180 8040 cc31 6940
00000030: 426a 7840 c281 0440 7657 9b40 9465 3540

fc_layer.0.weight f4 [10, 1024]
0.109111995 0.07767623 0.18741351 -0.07656769 0.020794136 -0.04837881 0.0142614655 0.087377496
0.073973514 0.050295334 0.059277628 -0.105158836 0.05217079 0.1265243 -0.24589719 0.0058856937
0.028792074 0.23001488 0.037169047 -0.19357999 0.08287992 -0.1278599 -0.12963004 -0.11722424
0.11851006 0.15729235 0.07064809 0.24906215 0.17222498 -0.05893084 -0.16866256 -0.21016732
-0.0014756625 -0.08498814 0.11989014 0.05931042 -0.08155446 0.11079732 -0.031579826 -0.19306013
0.05331083 0.13421778 0.16728668 -0.17027768 0.031257097 0.12543972 0.0112167075 -0.012393649
-0.08073589 -0.08406886 -0.066164955 0.015530399 0.04787875 0.09852322 0.16425546 -0.2064126
-0.14968027 -0.055833716 -0.12061765 0.117954694 0.017447302 0.07616721 0.055441126 0.13360739
-0.013054566 -0.08652822 -0.015387433 -0.039848387 -0.012750691 0.054271884 -0.03202025 0.08873311
0.21156338 -0.012717191 -0.12055311 -0.00044977732 -0.15199581 -0.054488342 -0.14286427 0.023447247
0.14175865 -0.021798976 -0.1093407 0.13258883 -0.078743175 0.13987838 0.23080727 -0.08793984
0.16584562 -0.07467317 0.20255992 0.07505354 0.029943025 0.045688447 0.18166752 0.008616338
-0.058719974 0.13512756 0.2724864 0.074734956 0.1764602 0.028584769 0.15779448 0.0993047
0.056187015 -0.028909454 -0.019637655 -0.0120131215 -0.0016146919 -0.15650116 0.08904678 -0.041712955
0.02356793 0.093734354 0.21443929 -0.0062991907 0.020319896 0.15884858 -0.011821484 0.054266714
0.1870943 -0.01154964 -0.10330879 -0.0041449415 0.1741581 0.014357186 -0.13580203 -0.086914025
0.003453696 0.08950654 -0.033942945 -0.1280181 0.09139901 0.08688866 -0.06785088 0.012011236
0.04196448 0.1917205 -0.09729131 0.104426675 -0.00958174 0.13452084 -0.086140506 0.117467806
0.057093613 0.2190486 -0.044843074 -0.020144023 -0.113822535 0.1403615 0.0968197 0.16098149
-0.049935516 0.42650476 0.25229672 0.035009075 0.1117566 0.22799432 0.18006086 0.25625783
0.124214716 0.3666806 -0.010065833 0.13203035 -0.043803506 0.22627813 0.27234977 0.14225318
-0.00505413 0.21071343 0.31450275 -0.05376018 0.030987468 0.05629499 0.091803655 0.15993793
-0.07383361 0.028738163 0.15684478 -0.14748584 -0.02599279 0.009694784 0.004889321 0.28110304
-0.038481332 -0.09398315 0.03106024 -0.008014023 -0.10123616 -0.11802256 -0.020724896 -0.019532535
-0.1538316 0.087439954 0.15968195 0.1153348 -0.13256662 0.081149966 0.19445351 0.07939627
0.26142007 0.15463379 0.16778512 0.004873584 0.16152051 0.029797295 -0.14373846 -0.09772504
-0.12854487 0.28987733 0.23466107 0.24946052 0.22561656 0.05011089 -0.018156093 -0.115764715
-0.09497112 -0.19284977 0.0069652833 0.11289417 0.08933891 -0.08776607 -0.030393114 -0.013640482
0.04875743 0.18443283 -0.018888397 0.023052359 -0.04644439 0.034745466 -0.16685513 0.007247359
0.021035885 -0.1745132 0.07827154 0.07664944 0.27185383 0.21024181 -0.03488294 0.072408356
-0.08794801 0.110213995 -0.14482144 0.20462662 0.0083872685 0.10158181 -0.027806677 -0.12725529
-0.27695057 -0.030078137 0.09378363 0.094163775 -0.12970589 0.018044993 0.1757411 0.049146913
00000000: 1c76 df3d b714 9f3d 54e9 3f3e 85cf 9cbd
00000010: 7758 aa3c dc28 46bd eca8 693c f9f2 b23d
00000020: 6d7f 973d 7b02 4e3d 19cd 723d 845d d7bd
00000030: 0ab1 553d 968f 013e 79cc 7bbe c7dc c03b
00000040: 5bdd eb3c 0589 6b3e 923e 183d d539 46be
00000050: f3bc a93d b5ed 02be bdbd 04be 4313 f0bd
00000060: 67b5 f23d 3f11 213e f2af 903d 260a 7f3e
00000070: bf5b 303e 7761 71bd e1b5 2cbe 1a36 57be
00000080: 046b c1ba 430e aebd f688 f53d 7cef 723d
00000090: 0606 a7bd b5e9 e23d d959 01bd 8eb1 45be
000000a0: 755c 5a3d 6370 093e 334d 2b3e 465d 2ebe
000000b0: 7107 003d 4573 003e 48c6 373c bb0e 4bbc
000000c0: dc58 a5bd 4b2c acbd 7e81 87bd 3773 7e3c
000000d0: 821c 443d 8bc6 c93d 9532 283e d35d 53be
000000e0: c945 19be e5b1 64bd 6306 f7bd 3b92 f13d
000000f0: a5ed 8e3c 8efd 9b3d 3c16 633d 60d0 083e
00000100: d2e2 55bc b535 b1bd 921b 7cbc 1038 23bd
00000110: 46e8 50bc 324c 5e3d aa27 03bd b4b9 b53d
00000120: 12a4 583e c45b 50bc 8de4 f6bd 17d0 ebb9
00000130: caa4 1bbe 2b2f 5fbd 034b 12be 7114 c03c
00000140: 2e29 113e c493 b2bc 04ee dfbd 5ec5 073e
00000150: 1a44 a1bd 473c 0f3e be58 6c3e ce19 b4bd
00000160: 6fd3 293e 3fee 98bd de6b 4f3e acb5 993d
00000170: 134b f53c cf23 3b3d 0d07 3a3e 8a2b 0d3c
00000180: 5b84 70bd e15e 0a3e 5683 8b3e a40e 993d
00000190: fcb1 343e 9b2a ea3c e094 213e 4360 cb3d
000001a0: 5b24 663d 85d3 ecbc 26df a0bc afd2 44bc
000001b0: 12a4 d3ba d741 20be 285e b63d 34db 2abd
000001c0: 8811 c13c ccf7 bf3d f995 5b3e 7169 cebb
000001d0: e975 a63c 34a9 223e e6ae 41bc c646 5e3d
000001e0: a695 3f3e b43a 3dbc 8f93 d3bd 4ad2 87bb
000001f0: 8056 323e 673a 6b3c b00f 0bbe fbff b1bd
00000200: 6757 623b 344f b73d c207 0bbd 2d17 03be
00000210: 672f bb3d aff2 b13d 67f5 8abd c6ca 443c
00000220: f2e2 2b3d 6152 443e ab40 c7bd a7dd d53d
00000230: bbfc 1cbc d5bf 093e 6f6a b0bd f692 f03d
00000240: feda 693d 474e 603e 5fad 37bd 1405 a5bc
00000250: ca1b e9bd edba 0f3e 6849 c63d 55d8 243e
00000260: 2f89 4cbd d55e da3e 092d 813e ad65 0f3d
00000270: a5e0 e43d 5877 693e e061 383e 3a34 833e
00000280: 4964 fe3d 8fbd bb3e 2aeb 24bc f732 073e
00000290: 4e6b 33bd 74b5 673e 6e71 8b3e d1aa 113e
000002a0: 1e9d a5bb 43c5 573e 8106 a13e a233 5cbd
000002b0: 6ed9 fd3c 9395 663d 8e03 bc3d c5c6 233e
000002c0: 1336 97bd 4c6c eb3c eb9b 203e 8706 17be
000002d0: d5ee d4bc dfd6 1e3c 9936 a03b bdec 8f3e
000002e0: 9a9e 1dbd 3d7a c0bd 0b72 fe3c 404d 03bc
000002f0: e754 cfbd d0b5 f1bd 42c7 a9bc b202 a0bc
00000300: 0886 1dbe b813 b33d aa83 233e a734 ec3d
00000310: 8bbf 07be f431 a63d d21e 473e 839a a23d
00000320: dad8 853e 5258 1e3e ddcf 2b3e 96b2 9f3b
00000330: a265 253e 7519 f43c 2d30 13be 1124 c8bd
00000340: 44a1 03be cd6a 943e fe4a 703e 9472 7f3e
00000350: 0708 673e 1441 4d3d 16bc 94bc 0d16 edbd
00000360: 3880 c2bd 697a 45be 083d e43b 0f35 e73d
00000370: 52f7 b63d b3be b3bd fbfa f8bc 547c 5fbc
00000380: dfb5 473d f6db 3c3e d7bb 9abc 4dd8 bc3c
00000390: 793c 3ebd 4351 0e3d 12dc 2abe 417b ed3b
000003a0: 7353 ac3c 97b3 32be d44c a03d 62fa 9c3d
000003b0: 6d30 8b3e a149 573e 6ae1 0ebd d54a 943d
000003c0: 161e b4bd e0b7 e13d 124c 14be a489 513e
000003d0: c16a 093c 200a d03d d4ca e3bc 364f 02be
000003e0: 77cc 8dbe 6d66 f6bc a211 c03d f0d8 c03d
000003f0: 9fd1 04be 18d3 933c 7af5 333e 464e 493d

fc_layer.0.bias f4 [10]
-0.3134591 -0.27800316 -0.1480421 0.34758243 0.4287588 -0.09791253 0.41662598 -0.33025318
-0.06715006 0.027316645
00000000: b67d a0be 6e56 8ebe 5998 17be 53f6 b13e
00000010: 4686 db3e 5d86 c8bd 0050 d53e f216 a9be
00000020: f885 89bd 28c7 df3c
