Knowledge Distillation/TAKD/saved/10-6-4.pth (torch, 158490 bytes, 26 tensors)

conv_layer.0.weight f4 [16, 3, 3, 3]
000000 ce d2 87 3e 09 77 a9 3e be 6a a0 3e df 41 8a bc
       0.2652802 0.3309863 0.31331438 -0.016877113
000010 0b a7 2e be 98 7e 08 be 24 3f c4 3d 45 3c 12 be
       -0.1705591 -0.13329542 0.095823556 -0.14280804
000020 f3 85 71 bd ea 90 56 3d e3 48 90 3e f6 6c 25 3f
       -0.058965635 0.052384295 0.28180608 0.64619386
000030 51 78 17 3d 3d 78 32 be 34 cd 1a bb 57 da 2e 3e
       0.036979977 -0.1742868 -0.0023620846 0.17075478
000040 7e 7a 10 3e 82 42 e2 bd ae cc 5b 3e b5 be 1a 3c
       0.14109227 -0.110478416 0.21464798 0.009444882
000050 57 a7 d7 3e 94 4f a2 be 97 56 cd be 81 0f bd bd
       0.42119858 -0.31701338 -0.40105125 -0.09231473
000060 ef 1a 38 be ef 2d c5 be 46 68 05 be 96 01 63 be
       -0.17979024 -0.38511607 -0.13028058 -0.22168574
000070 67 61 d0 bd 63 db 74 3d c0 9a b1 be c6 b2 ff bd
       -0.10174828 0.059779536 -0.34688377 -0.1248527
000080 64 27 70 3d d7 2d 14 3b 22 c3 9c 3e ff 04 38 be
       0.058631316 0.002261033 0.30617625 -0.17970656
000090 d2 a8 79 bb cb f6 05 bd 77 45 ff bd b6 52 ef be
       -0.003809501 -0.032706063 -0.12464421 -0.4674279
0000a0 45 47 90 be 92 2b 8a be 52 b6 48 be 81 0a b3 3e
       -0.28179374 -0.26986367 -0.196008 0.3496895
0000b0 a6 1b 13 be f9 c2 83 3e 78 ff a0 3e f9 b8 01 3d
       -0.14366016 0.2573469 0.31444907 0.031670544
0000c0 ab e8 a5 be 93 f6 14 3d 87 41 31 bb 25 84 0e 3e
       -0.32404074 0.036367964 -0.0027047114 0.13917597
0000d0 a8 dd d9 3e 37 4e 57 be ca a9 33 be 34 60 97 be
       0.42551923 -0.2102593 -0.17545238 -0.29565585
0000e0 e1 52 3d be ff 85 61 be fe 89 93 be db 90 fd bd
       -0.18488647 -0.22023772 -0.28816217 -0.123811446
0000f0 65 60 28 3f 93 43 da 3e 21 0f 85 3e cd 0d a5 be
       0.65772086 0.4262968 0.25988105 -0.32237092
000100 26 02 90 3c c2 a2 bd 3d 9f 9e 9d be 40 59 9f be
       0.01757915 0.09259559 -0.3078508 -0.3112278
000110 94 a3 c4 3d 46 e4 25 bc b2 48 92 3e 56 67 9f 3e
       0.096015126 -0.010125225 0.28571087 0.31133527
000120 96 00 ad be 9a f1 8b be 11 40 d2 3d 9f f6 ae be
       -0.3378951 -0.27332765 0.10266126 -0.34172532
000130 d6 8d fe be 81 fe 9f 3e b5 da 31 3e 81 72 a4 3e
       -0.49717587 0.3124886 0.17368586 0.3211861
000140 a1 43 b4 3e 47 ba ac 3d ca f7 91 3e 5d 3c 40 3e
       0.35207847 0.08433967 0.2850936 0.18773027
000150 50 81 a7 bc 95 04 28 3e df bc 6a 3e 80 36 d8 be
       -0.020447403 0.16407998 0.22923611 -0.4222908
000160 bd 15 01 bf 39 79 89 bd 6d 7f 9c bd 92 af 1c 3e
       -0.50423795 -0.067125745 -0.07641492 0.1530135
000170 48 d8 19 3e a4 a5 9d bd ed 1a eb 3d 87 52 08 3e
       0.15023911 -0.07697609 0.11479745 0.13312732
000180 2e fc 40 be c6 6e b5 be 67 ed 9c 3e 2b 04 94 3d
       -0.18846199 -0.35436076 0.30649874 0.072273575
000190 2f 21 24 be 42 2d b2 be c6 48 af bd ea 80 3e be
       -0.16028284 -0.34800154 -0.08558802 -0.18603864
0001a0 21 e3 be bd 6d 6b 14 be f3 09 d4 be f3 98 2e be
       -0.09320665 -0.14494105 -0.4141384 -0.17050533
0001b0 4c 33 18 be a4 fb bc bc 30 5f d5 3e 65 e7 1b bf
       -0.14863318 -0.02306921 0.41674185 -0.60899955
0001c0 b4 a4 03 bf e2 59 05 3e e1 c4 1d be c8 b9 b3 be
       -0.5142319 0.13022569 -0.15407135 -0.35102677
0001d0 08 81 80 3e 1f 33 f2 bd 25 55 c4 3e d8 9e 92 3e
       0.25098443 -0.11826157 0.3834621 0.28636813
0001e0 cc f6 9b be 3e ca ec bd 7a 26 aa 3e c7 11 cd bd
       -0.3046173 -0.11562012 0.3323248 -0.100131564
0001f0 1d 98 a6 be 20 5d 48 be 64 6f 8b bd 2b ce 05 3f
       -0.32537928 -0.19566774 -0.068083555 0.5226771
000200 37 7e ff 3e 98 42 6d bd a6 6e 66 3e 94 39 ba 3e
       0.49900982 -0.057924837 0.22503147 0.36372054
000210 ac d7 65 be 2b b8 d4 bd 7f 93 20 be 82 28 68 be
       -0.22445554 -0.1038669 -0.15681265 -0.22671703
000220 ea 97 f1 be 3c 98 d9 3a 1f 73 a0 3d 5f 00 31 be
       -0.47186214 0.0016601156 0.078344576 -0.17285298
000230 39 4e b2 be d7 74 53 3e c0 8c f8 3e 30 14 70 bd
       -0.34825304 0.2065004 0.48544884 -0.058613002
000240 3a d4 f8 bc 3b 04 99 bd 16 0e 87 3e 26 a0 cc 3d
       -0.030374635 -0.0747151 0.26377934 0.099914834
000250 b8 fc 8c 3e f8 ae 25 be 29 72 0a bd 58 40 25 3f
       0.2753656 -0.16180027 -0.033800278 0.64551306
000260 5b 59 a9 bd b4 ea 3a be 90 1e d6 be a6 4c 76 be
       -0.08268996 -0.18253595 -0.41820192 -0.24052677
000270 ce 9b 8e 3d 2b 9d 68 3d db 8b 92 be 6d 52 25 3c
       0.06963311 0.056790512 -0.28622326 0.010090453
000280 1a 7c 2f 3f 89 de 1e 3b e5 8a 26 bf 26 8a da be
       0.6854874 0.0024241528 -0.65055686 -0.42683524
000290 14 46 12 bc 5d 74 01 bf aa e7 8a 3e ae d3 94 3e
       -0.008927841 -0.5056818 0.2712987 0.2906775
0002a0 ed ec bc 3d 98 ee fc 3e fc f7 0e 3f 0b 73 ab be
       0.092248775 0.49400783 0.55847144 -0.33486208
0002b0 8e 04 9b 3d 90 42 e6 3d 01 dd e6 be ee d3 0b 3e
       0.07569228 0.112431645 -0.45090488 0.13655064
0002c0 5a d1 f9 3d 1c ac a1 bd 4e 49 b6 3d 1d cc c9 3c
       0.12198134 -0.078941554 0.089007005 0.024633462
0002d0 0e 3e 8b 3e 87 dc dd 3e 01 23 0d 3e 2f 60 0c 3e
       0.2719578 0.43332312 0.13782884 0.13708566
0002e0 3c 50 78 3e e3 c9 99 be 6d 14 b6 3d 4e bc 47 be
       0.24249357 -0.3003684 0.08890615 -0.19505426
0002f0 81 68 2b bf 63 7d 3b 3e e8 c2 bb 3d 3e c6 92 3e
       -0.66956335 0.1830955 0.09168035 0.28666872
000300 dc 37 89 3e fc 94 70 bd ca f8 e6 bd e9 d5 28 be
       0.2680043 -0.058735833 -0.112779215 -0.1648785
000310 e9 ac 8f be 9c fa c7 bd f7 fa fe 3e 73 67 51 3d
       -0.28061607 -0.09764597 0.49800846 0.051124047
000320 42 d2 a8 bd b8 36 73 3e d6 4d 8a 3c ae 41 6c be
       -0.082432285 0.23751342 0.016882818 -0.2307193
000330 98 1e 84 be e8 1e 01 bf 53 00 c3 be eb 87 e9 3e
       -0.2580459 -0.50437784 -0.38086185 0.4561151
000340 7d fc 88 3d a8 a9 7b be 3a 3d 25 3f 8d 1a aa 3e
       0.06688783 -0.24576437 0.6454655 0.33223382
000350 cf a4 d5 be 51 3b 0e 3e 53 a0 bf bd 60 47 d7 be
       -0.417273 0.13889815 -0.09356751 -0.42046642
000360 fc 34 29 3e f6 70 52 bd 42 c3 ce 3d 37 a4 70 3b
       0.16524118 -0.05137726 0.10095836 0.0036718973
000370 d4 a4 d6 be b2 0b f9 be 13 6a 96 3d fb 5a c4 be
       -0.4192263 -0.48641735 0.07344451 -0.38350663
000380 12 ef 30 3e 7f 98 5d 3d 4b 82 b0 3d 96 af 53 bd
       0.17278698 0.05410051 0.086186014 -0.051681124
000390 9e 8c 12 be c4 56 3a be 27 58 8d 3d df cf b5 be
       -0.14311454 -0.18197161 0.06901579 -0.35510156
0003a0 99 fd fd be 2f 93 b4 bd 98 07 ae 3e 10 f0 0d 3f
       -0.49607542 -0.088171355 0.3399017 0.5544443
0003b0 db 4a a6 3e 95 fd a4 3e ae e6 f1 3d e6 45 b7 3e
       0.32478985 0.32224718 0.11811577 0.35795516
0003c0 07 f5 45 3d fa f7 85 be f4 5a c6 3e 3e c3 09 3f
       0.04832938 -0.26165754 0.38741267 0.5381354
0003d0 36 a8 60 be db 0b 5f be eb e1 50 3f c2 82 19 3e
       -0.21939167 -0.21781866 0.81594723 0.14991286
0003e0 3b da 85 be f9 4a 4f 3e 8f 6b 3a be e1 87 ee 3d
       -0.2614306 0.20243444 -0.18205093 0.116470106
0003f0 ae 95 b8 3e 8c 6c 16 bf f9 aa eb be 74 cd a7 3e
       0.36051697 -0.5875938 -0.4602888 0.32773936

conv_layer.0.bias f4 [16]
000000 16 5d 16 bd ca 10 0d 3e 74 88 09 bb 65 2c 32 bd
       -0.036709867 0.13775936 -0.0020985873 -0.04349937
000010 08 21 23 be 18 a1 42 be fb 34 00 3e 85 f1 1e 3d
       -0.15930569 -0.19006765 0.1252021 0.03880455
000020 28 93 33 be c9 e0 3f 3e 43 3a f1 bd c2 d3 ae bd
       -0.17536604 0.18738092 -0.11778691 -0.08536483
000030 a6 ce b7 bd d0 64 8c bd 82 dc eb bd 6b 37 cc 3d
       -0.08974962 -0.06855166 -0.11516668 0.09971508

conv_layer.1.weight f4 [16]
000000 b9 49 68 3f 2a c6 51 3f 5f 44 78 3f ad 9a 80 3f
       0.9073749 0.81943 0.96979326 1.0047203
000010 4d 70 84 3f f2 e5 52 3f d9 38 85 3f 7f fa 6d 3f
       1.0346771 0.8238212 1.0407974 0.9296035
000020 8e a7 2e 3f f1 67 8f 3f e8 2e 74 3f 70 d9 4a 3f
       0.6822442 1.1203595 0.95384073 0.79238033
000030 94 41 3f 3f 32 c3 69 3f eb e1 b7 3f 53 3e a4 3f
       0.7470944 0.9131347 1.436582 1.283152

conv_layer.1.bias f4 [16]
000000 ff 11 53 be b4 68 4e be 2c 54 44 3e 20 08 f8 be
       -0.20612334 -0.20157129 0.19172734 -0.484437
000010 f5 7e 17 3d 73 7a b1 3e 1d 57 30 be 73 9a 93 3a
       0.03698631 0.34663734 -0.17220731 0.0011261239
000020 a5 a0 3b 3d 64 47 b6 bd e2 62 cf 3e 31 c8 3a 3e
       0.0458075 -0.089003354 0.4050513 0.1824043
000030 87 33 1a 3d 27 45 ae bc b6 40 7d 3f 14 a2 4d 3f
       0.037646797 -0.021273209 0.98926866 0.80325437

conv_layer.1.running_mean f4 [16]
000000 9f 57 1d 3f 72 a4 46 bf 22 11 aa be 75 9e 92 bf
       0.61461824 -0.77594674 -0.33216196 -1.1454607
000010 26 fb ce be 73 16 4d be a3 b6 40 3e 90 2d 42 bd
       -0.40425986 -0.20028095 0.1881967 -0.047406733
000020 c9 87 c6 ba dd e6 e3 3c 63 73 24 bd b6 d1 00 bf
       -0.0015146668 0.027820045 -0.040149104 -0.50319993
000030 40 21 00 bf 01 bd 19 3f 0e 2a b5 be 50 d1 ca 3d
       -0.50050735 0.6005402 -0.35383648 0.099032044

conv_layer.1.running_var f4 [16]
000000 a6 ef 1c 3f c3 bf a3 3e 9b a8 5c 3f 96 c6 31 3f
       0.61303174 0.3198224 0.8619477 0.69443643
000010 f3 bd 6d 3f fd e7 fd 3e 3e bc 59 3e 44 01 61 3f
       0.92867965 0.49591056 0.21263215 0.87892556
000020 b6 0a 12 3f e4 d3 7b 3f 6c 89 87 3e 5a 12 12 3f
       0.57047594 0.98370194 0.26472032 0.5705925
000030 97 56 0b 3f ee 97 a2 3e 76 0f a1 3e 47 1c a7 3e
       0.54429 0.31756538 0.31457108 0.3263876

conv_layer.3.weight f4 [16, 16, 3, 3]
000000 31 0e e0 bd 64 1c 40 bd 7a bc 4f bd 24 bf 9d 3c
       -0.10940207 -0.046902075 -0.050716855 0.019256182
000010 ed 10 7f 3d 67 77 2c be 26 7b 20 bd 19 a3 3a 3e
       0.062272 -0.16842423 -0.039179944 0.1822628
000020 22 d1 b6 3d ad 15 11 bd 1c a3 df bc c3 22 c9 bd
       0.08926608 -0.035421062 -0.027299456 -0.098210834
000030 fc 3d 0e 3e 01 8f f2 bd be 30 3f be cf 2b 7e bd
       0.13890833 -0.11843682 -0.18670937 -0.062053498
000040 48 4b 2d bd 27 73 36 3d f3 42 87 3b ec 27 cd bc
       -0.042308122 0.04454341 0.004127854 -0.02504345
000050 34 a9 d3 3d 7e 81 b1 3d 6f b3 3e be 1e 59 5e be
       0.10335007 0.08667277 -0.18623136 -0.21713683
000060 00 1a ce bd f8 2f f4 bd 2a e2 7d bd 9c 96 31 be
       -0.10063553 -0.11923212 -0.061983265 -0.17342609
000070 bd 75 86 bd 38 62 13 be 47 f9 2f be 23 8e 64 bd
       -0.065654255 -0.14392936 -0.17184936 -0.055799615
000080 8f 96 3b bd e6 a2 93 bd bc 7f b7 bc 13 0f a4 3d
       -0.04579788 -0.07208805 -0.022399776 0.08010688
000090 bc dd 9d bc 5c 39 84 be c4 d3 ef bd 3e 22 d2 3a
       -0.01927077 -0.25825012 -0.11710313 0.0016031933
0000a0 15 ca a9 3d b1 f7 a2 bb ac de c7 3a 45 6c 3a 3c
       0.08290497 -0.004973375 0.0015248857 0.0113783525
0000b0 62 44 38 3e c4 4a 1e be 63 9a 2f 3e 3a e3 c4 3e
       0.17994836 -0.15458208 0.17148738 0.3845461
0000c0 af 95 25 bd 69 57 53 bc 5e 32 b2 bd 80 91 08 be
       -0.040425953 -0.012899258 -0.08701013 -0.13336754
0000d0 e1 15 4b bd 38 a7 41 be 1b 31 41 3c 8d 83 51 be
       -0.049581412 -0.18911445 0.011791493 -0.20460339
0000e0 fa a3 e5 bc 0a c5 9d 3d df 85 c4 bd cb 33 e1 bd
       -0.028032292 0.07703598 -0.095958464 -0.10996207
0000f0 ed 43 b4 3d d4 34 62 bd 14 fd 09 be 4b b2 9e bd
       0.08802018 -0.055226162 -0.13475448 -0.077488504
000100 0a 20 fa bd 82 b4 8d be 66 3b 4c 3e 3e 26 ca 3d
       -0.12213142 -0.2767678 0.19944534 0.09870575
000110 56 df aa 3c 58 7b 89 bd 34 1e da 3d 26 23 83 bd
       0.020858448 -0.06712979 0.10650292 -0.064031884
000120 21 e8 ae bd dd f0 31 3d 45 4a ca bd 22 d9 ef 3c
       -0.08540369 0.043442596 -0.09877447 0.029278342
000130 3e 9c 59 3e a7 18 c4 3d fd 4f 9d 3d a5 cc 17 3e
       0.21251008 0.095750146 0.07681272 0.1482416
000140 03 19 64 3e 47 e2 16 3d 8c 73 7d bd 9e 03 39 3e
       0.22275166 0.03683689 -0.061877772 0.18067786
000150 14 fa b0 bd 70 ef 34 be ae 19 3d 3e 7b 8c ce bd
       -0.086414486 -0.17669463 0.18466827 -0.10085388
000160 c5 9b fc bd 4c 2e 74 be 66 d5 ad be 83 6d 29 3b
       -0.12334398 -0.23845786 -0.33951873 0.0025852628
000170 65 d4 a2 3e 06 04 72 3e ed 56 24 bc b6 b9 58 be
       0.3180267 0.23634347 -0.01003049 -0.21164593
000180 25 7c 00 3d 84 db 52 3e 7a d5 c9 3d f4 cb 20 bd
       0.031368393 0.20591551 0.098551705 -0.039257005
000190 00 ce a0 bd 0b b5 5c bd 0c 49 0e 3e ee 7b e3 3d
       -0.078517914 -0.053883594 0.13895053 0.11107622
0001a0 ef 9e a0 3e fc 13 91 3d 96 ee 79 3b 46 f0 67 3d
       0.31371257 0.0708389 0.0038136593 0.056625627
0001b0 9f d0 00 be fa 5e b0 bd 9b f5 8e 3d cd 95 d5 bc
       -0.12579583 -0.08611865 0.06980439 -0.026072407
0001c0 b8 47 a9 3d 21 48 c8 bd 25 4e 8c bd b5 23 cb bd
       0.082656324 -0.097793825 -0.068508424 -0.0991892
0001d0 b8 bf 9d be 6d 09 5c 3e bd 1b 1f 3e ad cd 47 3e
       -0.30810332 0.2148797 0.15537925 0.19512053
0001e0 71 15 f1 bd dc 69 1c 3d fa a5 a2 bd 6d 87 3d 3e
       -0.11771668 0.038186893 -0.07941814 0.18508692
0001f0 32 9a fa bc fc 15 30 3d 9c 6c 0a 3e 71 9a 96 be
       -0.030591104 0.042989716 0.13517994 -0.29414704
000200 10 aa eb 3c e9 fb 83 3e 2e dc a0 bd cc db b0 be
       0.028767616 0.2577813 -0.07854496 -0.34542692
000210 fe af 8f be ac a2 a7 3e 7e 82 69 3e ad 76 15 bd
       -0.2806396 0.32741296 0.22803685 -0.03649013
000220 33 b5 f4 bd 1b 20 13 3d cc 50 89 3e 4c 15 aa 3d
       -0.119486235 0.03591929 0.26819456 0.08304843
000230 c5 21 a8 be 30 43 98 bd e2 1a bd 3e a9 77 d3 bc
       -0.32838264 -0.0743469 0.36934572 -0.025813894
000240 35 b2 2b 3d 8e 95 b5 3d 20 d5 6b 3e 37 b9 8d 3e
       0.041918 0.08866416 0.2303052 0.2768037
000250 e0 1c 70 3e 2e be 41 bd 25 27 d0 3d dc 9a 9a 3d
       0.23448515 -0.04730051 0.10163716 0.07549068
000260 49 0f d8 bd a5 6b 89 be 0f ee 25 be 78 06 4e be
       -0.105497904 -0.2683994 -0.16204093 -0.20119655
000270 05 00 93 3d 98 64 84 3e 58 17 a5 3e 55 a8 9d 3d
       0.07177738 0.25857997 0.32244372 0.076981224
000280 b6 79 6a 3d ad 9d aa 3d 93 02 01 be 56 bd 0e be
       0.05724498 0.083308555 -0.12598638 -0.13939413
000290 3b 1d 1c be 34 53 fa bd e3 77 3a 3e d2 7d 0c 3e
       -0.15245526 -0.12222901 0.18209796 0.13719872
0002a0 e2 cd 66 bd d0 3f 82 bd 8c e4 41 bd 33 39 90 bd
       -0.05634869 -0.063598275 -0.0473371 -0.0704216
0002b0 cb b8 ee 3d 0f 87 f7 3d 00 b0 3f 3d 71 23 bc 3d
       0.1165634 0.12086307 0.046798706 0.091864474
0002c0 2e c0 90 3d 77 a6 52 3e b1 0a 4a 3e 84 84 8c 3e
       0.07067905 0.20571314 0.19730641 0.2744485
0002d0 4a a2 28 3c 80 03 aa 3d 5f aa 69 3d 29 c9 44 3c
       0.010292599 0.08301449 0.057047244 0.012010851
0002e0 73 64 a6 3d ed a1 56 bd 1f bf 2b be de c8 9d bd
       0.08124628 -0.05240052 -0.16772126 -0.07704328
0002f0 b5 9d 35 be 52 d1 9d 3d 0e da 40 bd 95 00 3b bd
       -0.17735942 0.0770594 -0.047082953 -0.045654852
000300 16 b8 00 bd 49 df e0 bb 58 e5 e5 3c 42 40 9b bb
       -0.031425558 -0.006862555 0.028063461 -0.0047378847
000310 97 ef a0 3d 6d bc 1b 3e 1d cd 2b 3e f5 17 55 3d
       0.07858198 0.15208597 0.16777463 0.0520248
000320 bd 7d 19 be 41 c3 5c 3d 57 28 ba 3d 6b f1 8e bd
       -0.14989372 0.053897146 0.090897255 -0.069796406
000330 e2 3f 3c bd 63 95 fb bd 48 87 2c be dc 71 ff 3b
       -0.04595936 -0.12284353 -0.1684848 0.0077955555
000340 f7 2e e7 3c cc 57 5e 3e e2 a7 27 3e e0 eb fd bc
       0.028220637 0.2171318 0.16372636 -0.030996263
000350 75 0a 84 3d 32 8d 71 3d 27 63 4d be 73 0e 88 bd
       0.06447307 0.058972545 -0.20057355 -0.06643381
000360 b6 3c a7 3d f9 60 8c 3d 3f ca 35 3e a1 8b b7 bd
       0.081658766 0.068544336 0.17752932 -0.08962179
000370 78 55 09 be e7 30 02 3e 13 ec 18 be 22 f5 2f be
       -0.1341151 0.12713967 -0.14933805 -0.17183354
000380 dd 84 35 3d f4 0c c1 3d ca ba 82 be 8f bc 60 3c
       0.04431616 0.09426299 -0.25533134 0.013716831
000390 93 17 e6 bc d7 e5 01 bd 9c 5c 39 3c 93 27 d6 3c
       -0.028087413 -0.031713333 0.011313584 0.026141917
0003a0 0c 9c 98 3d 08 82 be bc 51 37 a2 be 2a 8f 81 be
       0.074516386 -0.023255363 -0.31682828 -0.25304538
0003b0 3a 0b 0e be e8 48 24 be 07 64 1b 3e 11 0d f7 3e
       -0.1387147 -0.16043437 0.15174876 0.48252156
0003c0 12 c0 26 be cb 35 67 3e 1c b7 6a 3e 5a bf 86 bd
       -0.16284207 0.22579114 0.22921413 -0.06579466
0003d0 cf 8a 1e 3e b2 43 3a 3e 96 79 be bc a2 a2 45 3d
       0.15482639 0.18189886 -0.023251336 0.0482508
0003e0 96 0b 0e bd 79 e0 af 3c 72 44 ec 3d 35 c7 89 3d
       -0.034679018 0.021469342 0.115364924 0.06727449
0003f0 84 35 1a be 21 2b 36 be e8 e5 a0 bd 6f c1 37 be
       -0.15059477 -0.1778989 -0.07856351 -0.17944883

conv_layer.3.bias f4 [16]
000000 a6 37 05 3d fd 6b 05 bb 5b fa 7f 3b 98 51 33 bd
       0.032523774 -0.0020358555 0.0039059136 -0.043778986
000010 b6 6d 6e 3d 5c 2b 4b 3d ac 54 91 bd 90 b5 93 3c
       0.058210097 0.049601898 -0.07096228 0.018030912
000020 07 c4 91 3d 28 13 52 ba e6 43 a3 3d f3 28 bb bc
       0.071174674 -0.0008013719 0.07971935 -0.022846675
000030 44 5e e5 bc f6 33 6a bd 32 5d 80 3d d0 96 2f bd
       -0.02799905 -0.05717846 0.062677756 -0.042868435

conv_layer.4.weight f4 [16]
000000 9e 86 86 3f 92 81 84 3f 69 71 83 3f 89 6e 81 3f
       1.0509832 1.0352042 1.0268985 1.0111858
000010 17 99 72 3f 99 81 99 3f c4 9f 8e 3f 89 90 90 3f
       0.94764847 1.1992675 1.1142507 1.1294109
000020 1f 07 8d 3f ea ac 73 3f 55 99 8d 3f 3f 92 85 3f
       1.1017798 0.9518572 1.1062418 1.0435256
000030 0c 31 7e 3f 80 e4 88 3f 15 2f 92 3f 99 42 8f 3f
       0.9929359 1.0694733 1.1420618 1.1192199

conv_layer.4.bias f4 [16]
000000 ff d3 96 be 80 e8 4f be 02 0d 9f bd d5 b2 6a be
       -0.29458615 -0.20303535 -0.07766153 -0.22919782
000010 3e f3 4d be c4 bb b1 be b8 1b 77 be fc 52 80 be
       -0.20112321 -0.34713566 -0.24131668 -0.25063312
000020 e0 f0 24 bd 50 f9 9c be e2 79 72 be 92 f2 53 be
       -0.04026878 -0.3065896 -0.23679307 -0.20698002
000030 f7 15 97 be 85 c2 8b be 75 f0 93 be b1 5e a0 be
       -0.29508945 -0.27296844 -0.28894392 -0.31322244

conv_layer.4.running_mean f4 [16]
000000 19 90 da 3d ef 04 36 3e d4 fa 1d c0 81 14 92 be
       0.10672016 0.1777532 -2.4684343 -0.28531268
000010 d9 6a a1 3f 29 51 47 bf d3 14 b9 bf a0 a6 6b bf
       1.2610732 -0.77858216 -1.445948 -0.92051125
000020 52 f1 1e c0 9f 08 3d bf a8 a3 1d bf 23 c4 ca bf
       -2.483479 -0.7384128 -0.61577845 -1.5841106
000030 1f 3e 6e be 42 33 79 be af 0c e6 be 73 09 c0 bf
       -0.23265885 -0.2433596 -0.44931552 -1.5002884

conv_layer.4.running_var f4 [16]
000000 81 8c 45 40 cf 3c 44 40 06 b8 57 40 b7 4d 09 40
       3.0867007 3.0662115 3.370607 2.1453683
000010 71 99 ed 3f 81 29 90 40 ed 5c 93 40 44 cd 82 40
       1.8562452 4.5050664 4.6050935 4.087557
000020 52 d5 82 40 28 d8 c9 3f 26 07 d6 40 4a a6 2d 40
       4.08854 1.5769091 6.6883726 2.7132745
000030 7c b7 5f 40 47 bb 66 40 9c a8 92 40 3d f3 26 40
       3.495574 3.6051805 4.583082 2.608596

conv_layer.7.weight f4 [32, 16, 3, 3]
000000 2c 7a 56 3d 7d ab ae bd 4e 2d 28 be cb 2d 81 bd
       0.052362606 -0.085288025 -0.16423532 -0.063075624
000010 97 f4 0f be 9e 06 b6 bd 37 73 e2 bd 04 2f 76 be
       -0.14058147 -0.08887981 -0.11057132 -0.24041373
000020 73 6d 15 be 78 b3 23 3e 94 25 0e bc 84 00 c2 bb
       -0.14592533 0.1598643 -0.0086759515 -0.0059204716
000030 48 1a b9 3d b3 f1 8d bd 77 23 48 3d 6b b3 cd 3d
       0.09038216 -0.06930866 0.048861947 0.10043987
000040 3f 87 4f bd 43 78 be 3d d7 25 66 be 55 32 7b 3b
       -0.05066609 0.09300282 -0.22475372 0.003832956
000050 62 20 60 3c 1d f8 90 bd 2e 94 1a be 94 cd e0 bd
       0.013679596 -0.07078574 -0.15095589 -0.10976711
000060 22 d3 9b bb 5f e2 b1 bd d7 8d 06 be be 9e f1 bc
       -0.0047553936 -0.08685755 -0.13140045 -0.02949464
000070 da 9e 83 3d 49 c1 9f bd 54 a4 38 be c5 c9 c4 3d
       0.06426783 -0.07800538 -0.18031436 0.09608797
000080 ff 3f df bd e5 39 e1 bd 69 cb eb 3d 82 18 04 be
       -0.10900878 -0.10997371 0.11513407 -0.12899974
000090 70 71 d8 3d 1e da 45 3e 58 31 8c bd 8e ab ba bd
       0.105685115 0.19321486 -0.06845349 -0.09114753
0000a0 f5 55 09 bd ab 41 1d be d6 5b da bd 5c c6 62 be
       -0.03352924 -0.15357082 -0.106620476 -0.2214598
0000b0 55 98 47 be ef 71 d6 3d ec ce 9e 3d dc 07 88 3d
       -0.19491704 0.1047095 0.07754311 0.06642124
0000c0 94 74 36 3e 00 86 82 3e b3 4b ad 3b 68 50 e3 3e
       0.17817909 0.2549286 0.005288565 0.44397283
0000d0 5c 97 c9 bd 0f fd 89 be de c2 63 bc af d9 9f 3d
       -0.09843323 -0.2695088 -0.01390144 0.07805192
0000e0 f8 ab 9c bd 5a 57 4f 3e 74 28 92 bc df 15 50 bd
       -0.07649988 0.20248166 -0.017841555 -0.050802108
0000f0 06 71 81 3e 99 22 2a 3e 0c db 78 be 91 cb 0a 3e
       0.25281543 0.1661476 -0.2430231 0.13554217
000100 9c 4f 17 3e bb 84 47 3e 92 40 a1 bd 4c 93 b6 bd
       0.14776462 0.19484226 -0.07873644 -0.089148134
000110 87 0a aa 3d fe 9b 41 bd 7b 64 6f bb ac 3d d4 3d
       0.08302789 -0.047267906 -0.0036528397 0.103633255
000120 b4 94 86 bb 77 cf fb bd e3 da 8d bd d8 b3 e9 bd
       -0.0041070823 -0.1229543 -0.06926515 -0.114112556
000130 a1 b8 99 bd 23 6b 7e be bd a4 05 3d 75 ce 32 be
       -0.07505918 -0.24845557 0.03262781 -0.1746157
000140 66 6e 3c 3d 64 f7 bc 3d cd 6b 69 3d 14 3a 4f bd
       0.04600372 0.092268735 0.056987572 -0.050592497
000150 8f 73 2b 3e 81 44 28 3c d5 a2 c3 bd bf 7e a3 3d
       0.16743301 0.010270239 -0.09552542 0.07983159
000160 2f af d8 3d 1e 33 08 be fd 8e 99 3c 9e 6e 9f 3c
       0.105802886 -0.1330075 0.01874494 0.019461926
000170 da b8 31 bd db 12 51 3e 6e 46 b3 3d 0d 83 40 3e
       -0.04338918 0.20417349 0.08753668 0.18799992
000180 d7 c2 18 3e 47 25 f2 3d 4a f7 8d 3d 59 b5 af bd
       0.14918076 0.11823516 0.06931932 -0.08579511
000190 c4 2e 1c be 2a 8a dd bd 7a 36 44 3c 41 a1 1b bd
       -0.15252215 -0.10817368 0.011975879 -0.03799558
0001a0 50 ea 00 3e bc 22 f6 bd d2 09 9e 3d 00 74 ee 3d
       0.12589383 -0.12018344 0.07716717 0.11643219
0001b0 3f 7b 71 bd 69 25 ce bc ec 9d 36 be b7 22 c4 3a
       -0.058955427 -0.025164323 -0.1783368 0.0014963959
0001c0 de bc 6f be 5b ca 77 3d a2 86 2d be eb a4 e0 bd
       -0.23411891 0.060495716 -0.1694589 -0.109689556
0001d0 e2 8b 25 3e 40 62 2a be 81 6d 20 be a2 5b 1b 3c
       0.16166642 -0.16639042 -0.15666772 0.009482296
0001e0 02 50 cc 3d 9b 8b 63 bd 0a db 18 be ba 24 aa bb
       0.09976198 -0.05555306 -0.14927307 -0.0051923664
0001f0 ef 67 b8 3d 48 9d 3c be 8e d6 7c bd b8 7e 3f 3d
       0.09004199 -0.18419373 -0.061728053 0.046751708
000200 15 04 c5 bd 80 97 de bd 14 97 07 be b0 5b a7 be
       -0.09619919 -0.1086874 -0.13241225 -0.3268714
000210 a1 d4 64 be 31 67 3e be ef d5 67 be be c8 ac bd
       -0.22346736 -0.18594052 -0.22640203 -0.08436726
000220 b6 7a c0 3d a1 b4 42 bd 82 04 b6 3d dd 75 05 bd
       0.09398405 -0.047535542 0.088875785 -0.032583106
000230 b6 98 2f be dd 3c df bd d9 a8 26 3d 4f 8e 01 be
       -0.17148098 -0.109002806 0.04068837 -0.12651943
000240 57 21 bb bd 15 9d 89 be 91 2f 05 be e1 88 0c 3e
       -0.091372184 -0.26877657 -0.13006426 0.1372409
000250 a9 4a 2b 3e 96 a4 2e be e4 62 d7 3d cd 1d 15 bd
       0.167277 -0.17054972 0.10516909 -0.036405373
000260 0f 78 91 bc a6 58 e5 3d 68 a0 ec bd 15 52 77 be
       -0.017757444 0.11198549 -0.115540326 -0.24152406
000270 65 d9 0a 3d 09 3e 22 3d 31 ac 9f 3e 80 56 b8 3d
       0.03389873 0.039609943 0.3118606 0.090008736
000280 65 28 04 3e e0 c3 c5 3e 5b d2 27 3e 85 6f b9 3d
       0.12906034 0.38626003 0.16388838 0.09054474
000290 b8 3d 3e 3e e8 2a 01 3d e2 11 21 bd 52 a9 0b 3d
       0.18578231 0.03153506 -0.039323695 0.034097023
0002a0 85 e2 e8 3d f2 99 9d 3d f2 c6 b5 bd 08 7f bf bd
       0.1137133 0.07695378 -0.088758364 -0.09350401
0002b0 06 20 36 bd 65 78 4e be 9f c9 9b 3d 9b d4 7f 3e
       -0.044464134 -0.20163114 0.076068155 0.24983446
0002c0 2a c6 70 3d 52 26 2f 3e c1 e9 eb bc b2 5f 3d bd
       0.058782734 0.17104462 -0.028797986 -0.04623384
0002d0 69 28 25 3c a1 0f 56 be 38 8f 45 be 2a b3 90 38
       0.010080435 -0.209044 -0.19292915 6.899827e-05
0002e0 0b 24 13 3d d6 66 85 bc 44 a1 a3 bd 4c 3e 3f be
       0.035923045 -0.016284388 -0.07989743 -0.18676108
0002f0 5a 57 b2 bd 3d 1a 7f bd 11 e3 51 bd d9 54 82 bd
       -0.08708067 -0.062280882 -0.051241938 -0.0636384
000300 61 42 4d 3e 33 f9 1c 3d d0 a3 34 3e 47 95 22 be
       0.20044853 0.038323592 0.17640615 -0.15877257
000310 f4 38 5b be d6 6b 03 3e db 0b 64 be 4b af 82 be
       -0.21408445 0.12834105 -0.22270148 -0.25524363
000320 a2 56 2f bd 2e 61 77 3e 5b 37 9d bd 67 04 5f 3d
       -0.04280723 0.24158165 -0.07676574 0.054447558
000330 8b 83 82 3e 6a dd 49 bd c1 ab 12 be f8 8d 7b be
       0.25490984 -0.049283423 -0.14323331 -0.24565876
000340 04 3f 28 be 98 1d 75 bd f3 80 12 3e eb ce 1e bd
       -0.16430289 -0.059842676 0.14307003 -0.03877155
000350 5f 0e 3d bc 5e 15 88 be ca 76 1e be de f3 fa bc
       -0.011539071 -0.26578802 -0.15475002 -0.030633863
000360 36 6a 93 3e d6 89 0f 3d 28 85 9e 3d b5 63 32 be
       0.2879197 0.03504356 0.07740241 -0.17420848
000370 4c 52 c6 3d db 12 4e 3d 2a aa 2b 3d 3f ae d6 3e
       0.09683666 0.05031095 0.041910328 0.41929814
000380 9b a6 72 3d 8c bc e3 bc 87 d9 36 3c dc 83 ec bd
       0.05924092 -0.027799867 0.011160261 -0.11548588
000390 84 bf 3b 3e 70 75 c2 3e c0 b2 8d 3e 72 50 87 bc
       0.18334776 0.37980223 0.27675438 -0.016517852
0003a0 3e d5 cc bd cb 1a 89 3e ee 96 11 be 46 53 ea 3d
       -0.1000161 0.26778254 -0.14217731 0.114416644
0003b0 2d b6 44 3e 27 de 85 3e 91 bc ce 3e 67 16 08 3e
       0.1921012 0.2614605 0.4037824 0.13289796
0003c0 0b 91 68 bd 61 a5 b1 bc 77 27 e3 3d 60 45 6f 3c
       -0.05677895 -0.021685304 0.11091512 0.014603943
0003d0 73 14 9f 3e 53 1c c1 3c dd fb 9d bd 50 28 3b 3e
       0.3107029 0.023573076 -0.07714055 0.18277097
0003e0 a5 2e c6 3d f7 36 f6 bd d0 4c c8 bc 83 61 66 be
       0.096768655 -0.120222025 -0.02445069 -0.22498135
0003f0 70 94 58 be 41 ff 9a bd 26 16 d7 bd ca 3f 96 3d
       -0.21150374 -0.07568217 -0.10502271 0.073363855

conv_layer.7.bias f4 [32]
000000 94 c8 a5 3d c6 99 28 3d 28 82 81 bd 3f 75 cd bc
       0.08094898 0.041162275 -0.063236535 -0.025080321
000010 e3 6e 0e 3d 58 e9 1f bd 7b 1f 92 3c e8 64 1e 3d
       0.03477372 -0.039040893 0.017837277 0.03867045
000020 68 d9 eb b9 5b 54 46 3d f0 0c a8 3d dc 9d 9f 3d
       -0.00044984673 0.04842029 0.08205593 0.07793781
000030 69 8a c0 3b 25 67 94 bc ab 9c 93 bd 53 5e 84 3d
       0.005875875 -0.01811559 -0.072076164 0.064633034
000040 1b 8a ce 3c 38 42 ce bb 1c ee 95 bd 20 24 ee bc
       0.025212338 -0.006294515 -0.073208064 -0.02906996
000050 24 64 a0 bd 5e 71 62 bc 6e 84 65 bd 10 ba 6c 3d
       -0.078316 -0.013820974 -0.056034498 0.05779463
000060 f5 2f 13 3c c6 35 4f bd 23 13 9e 3d c6 87 63 3d
       0.008983602 -0.05058839 0.07718494 0.055549406
000070 76 78 d3 3c c3 4b 79 bd 60 4f 95 3d 9c 36 f9 3c
       0.025814276 -0.060863268 0.0729053 0.030421548

conv_layer.8.weight f4 [32]
000000 db 56 81 3f 9d 01 64 3f 5b 9c 6e 3f 08 6b 73 3f
       1.0104631 0.8906496 0.9320733 0.9508519
000010 4d 30 89 3f 21 79 87 3f ef a1 6b 3f 65 ce 84 3f
       1.0717865 1.0583841 0.92043966 1.0375487
000020 1d f0 95 3f 42 ea 61 3f 1f 70 7e 3f 81 9d 85 3f
       1.1713902 0.88248074 0.99389833 1.0438691
000030 a3 67 72 3f 1d 00 ba 3f c3 81 6e 3f 62 9e a2 3f
       0.9468939 1.4531285 0.9316675 1.2704585
000040 f8 71 71 3f f9 ca 50 3f 0a 47 8e 3f 51 af 8c 3f
       0.9431453 0.8155971 1.1115429 1.0991002
000050 a5 a3 63 3f 5f 9a 54 3f a8 3c 72 3f c4 13 5b 3f
       0.88921577 0.8304805 0.94623804 0.85577035
000060 2a 00 92 3f 76 8e 94 3f 27 b6 6f 3f a4 5f 8a 3f
       1.14063 1.1605976 0.9363732 1.0810437
000070 5b 29 9a 3f fe 7b a2 3f 46 f6 79 3f fb 2b 67 3f
       1.2043871 1.269409 0.9764141 0.90301484

conv_layer.8.bias f4 [32]
000000 41 95 74 be 34 2f 45 be 4d 00 9b be 1b 4e 2b bd
       -0.23885061 -0.19256288 -0.30273667 -0.041822534
000010 ac 02 cf bd e3 ae 68 be f1 c9 bf bd db 12 b4 bb
       -0.101079315 -0.22722964 -0.09364689 -0.005495412
000020 34 c8 9f bd 8a 33 97 be a1 c8 6b be 67 93 d4 bd
       -0.078018576 -0.2953151 -0.23025753 -0.10379677
000030 4c 65 41 be df e1 fe be 92 45 45 be 7b da e4 bd
       -0.18886298 -0.497817 -0.1926482 -0.11174484
000040 cd c3 48 3e 8e 3a 32 be bc 6f 8d be da 99 57 be
       0.19605942 -0.1740515 -0.2762431 -0.21054783
000050 7b 3e ad be 56 c0 10 be f4 fb 8e be 66 61 95 be
       -0.3383673 -0.1413587 -0.279266 -0.29175872
000060 c6 e3 7f bc 48 34 64 be 2e e0 91 be ac ea 8d be
       -0.01561827 -0.22285569 -0.28491348 -0.27718103
000070 8f c9 c9 be a6 95 ec be c1 a0 9d bd 2f c4 b0 bd
       -0.3941159 -0.46207923 -0.07696677 -0.08631169

conv_layer.8.running_mean f4 [32]
000000 9b 2a bb bf 5c ab 58 3f a4 74 50 3f 83 a5 1f 3e
       -1.4622377 0.84636474 0.8142798 0.15590481
000010 44 3d 4c bf 89 62 89 bf 21 22 12 3f 0a 2c 14 bf
       -0.79780984 -1.0733196 0.57083327 -0.578797
000020 40 56 10 c0 d1 d6 58 be d6 4c 33 be 1b b8 7b bf
       -2.2552643 -0.21175696 -0.1750978 -0.983278
000030 b5 70 ec bf d9 33 a0 bf e9 6e 2d bf a5 59 09 c0
       -1.8471895 -1.2515823 -0.6774736 -2.1460965
000040 ef fb 37 bf 49 c5 4f 3f d2 cc ee bf 07 7c 63 bf
       -0.71868795 0.8116041 -1.8656256 -0.88861126
000050 c7 f1 4c bf bc 6b fd be cf ee 6f 3e 96 17 73 3f
       -0.8005642 -0.49496257 0.23430942 0.94957864
000060 c0 de 2b c0 da f8 c3 bf 46 91 17 be 0e 68 71 be
       -2.6854706 -1.5310318 -0.14801511 -0.2357485
000070 73 1f f0 be 41 a1 a3 bf 7e e2 9a bf 03 6c d5 3e
       -0.46898994 -1.2783586 -1.210037 0.4168397

conv_layer.8.running_var f4 [32]
000000 19 35 1d 40 b4 13 2b 40 41 de 01 40 a1 2a 27 40
       2.4563658 2.6730776 2.0291903 2.6119769
000010 ec 73 36 40 4e 12 71 40 4b be 0e 40 e6 57 4b 40
       2.8508253 3.7667422 2.2303646 3.17724
000020 f7 06 77 40 9c 04 f9 3f 92 8a 05 40 86 0a 73 40
       3.8598 1.9454532 2.0865827 3.7975173
000030 48 61 43 40 b6 8f af 40 66 9c 4a 40 7d c0 ab 40
       3.0528126 5.486293 3.1657958 5.367247
000040 ef 16 8d 40 31 29 38 40 a5 2d 32 40 be dc 32 40
       4.4090495 2.8775141 2.784036 2.794723
000050 ef 0a 14 40 e0 ca 28 40 f8 58 2a 40 7a b9 1a 40
       2.3131673 2.6373825 2.6616802 2.4175706
000060 46 b6 80 40 10 66 32 40 47 97 40 40 d0 b4 15 40
       4.02225 2.7874794 3.0092332 2.339161
000070 06 75 83 40 70 75 81 40 a0 5e 5b 40 e0 f1 67 40
       4.108035 4.0455856 3.4276505 3.6241379

conv_layer.10.weight f4 [32, 32, 3, 3]
000000 70 9a 5c 3d a5 ed 6b 3d f0 92 b6 3c f5 f5 91 3d
       0.05385822 0.057599682 0.022286862 0.07126991
000010 62 27 91 3c ab 9a 61 bd 67 d7 27 be 36 c8 5e be
       0.017718975 -0.055079143 -0.16390763 -0.21756062
000020 02 61 5f 3c 73 71 26 3e 20 21 e4 bc 32 5f 96 3c
       0.013633968 0.16254215 -0.027847826 0.01835594
000030 7e 19 88 3d 0f ce 1e 3d d9 24 1b be e3 55 1e 3e
       0.06645487 0.03877073 -0.15150775 0.1546245
000040 f8 c7 0d 3e e8 3f 3a 3d a4 ee ef bd 80 49 af bc
       0.13845813 0.045471102 -0.11715439 -0.021397352
000050 7a 97 14 be 50 c4 93 bd ae 22 30 be 87 45 df bd
       -0.14510909 -0.07215178 -0.17200729 -0.10901933
000060 2d c7 5b bd d3 af 2a bd 44 e8 80 3c 43 25 44 3e
       -0.053656746 -0.041671585 0.015735753 0.19154839
000070 22 ac a4 3d d9 19 47 3d a7 ef 60 ba 28 67 14 be
       0.08040644 0.048608635 -0.0008580633 -0.14492476
000080 29 51 05 3c 9a 73 7c be ce 68 c5 bd ca 77 ad ba
       0.008137026 -0.24653473 -0.096391305 -0.0013234552
000090 c5 5d 2e bd 24 3d 09 3d db f3 90 3d dd 5a 5a 3d
       -0.042569894 0.033505574 0.07077762 0.05330931
0000a0 58 70 ea 3e a3 8f 29 3e 38 c7 e1 3d 31 ed 4c 3c
       0.45788836 0.165587 0.11024326 0.012507723
0000b0 fe d2 48 3e 17 ff 95 3d 7f 57 95 bd 29 92 ce bd
       0.19611737 0.07324045 -0.07292079 -0.100864716
0000c0 4e 2f 3b 3d 00 9d 88 bd 17 e3 bc bd 3f 83 1c 3e
       0.04569941 -0.066705704 -0.092230015 0.15284441
0000d0 e6 27 bb bd b7 5c a6 bc 6c f0 84 bd d2 8e 69 3c
       -0.091384694 -0.020307882 -0.06491169 0.014255242
0000e0 33 dd 90 3c 10 76 64 be ab e1 97 bb 15 83 55 bd
       0.017683601 -0.22310662 -0.004635056 -0.052126963
0000f0 11 12 ed bd 38 d1 e9 3c d4 47 36 be 79 1f 81 be
       -0.115757115 0.028542146 -0.17800838 -0.25219324
000100 33 6d 6b bd 4e a6 63 bd 3f 31 bb 3c 82 67 28 3e
       -0.057477187 -0.055578522 0.02285063 0.16445735
000110 ac 36 09 be 20 b1 0a be c5 6f 75 bd 73 d0 d1 bd
       -0.13399762 -0.1354413 -0.059921045 -0.10244837
000120 0e b6 42 bd 28 cb 8d bd 4d f2 8f 3c 0f 09 c5 bd
       -0.047536902 -0.069235146 0.017571593 -0.096208684
000130 5a 05 32 bc 6d a4 09 3c ab 42 41 bb 57 91 05 3d
       -0.010865534 0.008401019 -0.00294892 0.03260931
000140 b6 67 00 3d ca 9a 83 3d ad 70 46 be 0d 2e a9 bc
       0.031348906 0.06426008 -0.1937892 -0.020651842
000150 5f b4 4d 3e 87 b2 ea 3a 17 7e 16 be c1 36 88 3e
       0.20088337 0.0017905988 -0.14696537 0.26604274
000160 91 1b e4 3d fc 20 5f 3d 51 0c 47 bd 32 17 13 3e
       0.111380704 0.054474816 -0.04859573 0.14364317
000170 1b b8 a5 3c d2 18 9f 3e 3b d8 83 3d ed 6b 0b bc
       0.02022939 0.31073624 0.06437727 -0.008509618
000180 90 cc ee 3d c2 4b 54 be 77 36 62 be f9 f4 63 3d
       0.11660111 -0.20732024 -0.22091089 0.055653546
000190 4c b2 91 3c f1 e6 f2 bd 30 b1 bc 3a 2a 55 05 be
       0.017785214 -0.11860455 0.0014396068 -0.13020769
0001a0 88 86 a7 bc 10 42 6c 3b a1 a2 83 3d 62 9c c9 bd
       -0.020449892 0.0036050119 0.064275034 -0.09844281
0001b0 cc a8 21 bd ac 40 b6 3c be 4a 4b 3e 35 14 99 bc
       -0.039467618 0.022247635 0.1985273 -0.018686393
0001c0 b0 5c 81 3d 9a c6 49 3d 6d db dc bd 91 03 b7 bd
       0.06316507 0.049261667 -0.1078404 -0.08936227
0001d0 b0 ac aa bd 88 7c 03 3e 91 f5 98 3d fc 7f 9c 3d
       -0.08333719 0.12840474 0.07468713 0.076415986
0001e0 46 2c 14 3e ec 43 9a 3d 31 e6 a6 bc a0 f9 ac 3c
       0.14470014 0.07532486 -0.020373436 0.021115124
0001f0 e7 33 67 be 43 14 02 bd 08 37 46 bd 39 85 0d be
       -0.22578393 -0.031757604 -0.048392326 -0.13820352
000200 6f 54 df 3c 61 54 db bd 1b 78 9e 3d fc 51 82 3d
       0.02726194 -0.107094534 0.07737752 0.063632935
000210 82 19 d1 3d 90 7d 95 3e b1 eb 54 3e 4e be 67 3d
       0.10209943 0.2919736 0.20793034 0.056577973
000220 6f 43 87 3d 16 02 ef bd 74 e8 2b be cf b9 0e be
       0.06604659 -0.1167032 -0.16787893 -0.13938068
000230 e9 e0 64 bd f5 1f a9 bc f2 e7 b0 bd ad 5f 2a bd
       -0.055878554 -0.020645121 -0.0863799 -0.04159515
000240 79 87 01 3e 67 8f cf bd 75 fd 83 3b 46 39 9c bd
       0.12649335 -0.10134774 0.004028017 -0.076281115
000250 81 46 a1 be 9a 76 05 be 52 b7 d5 3d b8 9b 6d be
       -0.31499103 -0.13033524 0.10435356 -0.23203933
000260 43 53 0a be 05 ed 00 bc 95 71 fa bd 88 a5 ad bd
       -0.13508324 -0.00786901 -0.12228695 -0.08478838
000270 df d1 2d 3c cd 0c 3c be 3e 39 89 be 39 cb cd bd
       0.010609119 -0.18364258 -0.26801485 -0.10048527
000280 0f 77 d8 3a 81 25 fd bc 4c a9 8b 3e 55 9c 5a bd
       0.0016514974 -0.030901672 0.272776 -0.053371746
000290 7a 40 e9 bd ad 1b 08 3d 6a 13 e0 bc e2 67 cf 3c
       -0.11389251 0.03322952 -0.027353007 0.02531809
0002a0 c3 8f d1 3d fa a3 16 3e 6d 16 29 bd 3d ee 46 bc
       0.102324985 0.1471099 -0.041281153 -0.012141761
0002b0 f4 b0 0d bd d5 03 36 3d 12 7e 10 be 4e 6b 94 be
       -0.034592584 0.04443725 -0.14110592 -0.28988117
0002c0 0e 14 93 bd 44 3c 8d bd ff fc 05 be 4a c1 1c 3e
       -0.071815595 -0.068962604 -0.13084792 0.15308109
0002d0 ae 5f 2a bd c4 11 0c be 20 e7 00 be c5 94 03 bd
       -0.041595154 -0.13678652 -0.12588167 -0.0321243
0002e0 a4 16 fe bd 1c ba 98 bd 26 4d 04 3d d6 c9 29 3d
       -0.12406662 -0.074573725 0.032300137 0.04145225
0002f0 2d c4 b5 3d b4 48 75 bc 2f 0b f5 3d 29 53 8c bd
       0.08875308 -0.014970947 0.11965024 -0.06851799
000300 ca 1c 16 3e 5a b2 bc 3d 15 e5 d5 b9 38 f5 05 3e
       0.1465942 0.09213705 -0.00040797205 0.13081825
000310 3b 66 94 bd e1 53 5d be ff a0 57 be a2 d4 d3 3b
       -0.072460614 -0.21614029 -0.21057509 0.006464557
000320 15 36 3b 3d ff 9f 98 bd dd c8 10 be a4 db 04 be
       0.045705874 -0.07452392 -0.14139123 -0.12974411
000330 2c a0 07 3e 8e 07 e8 bc ba 0b 32 3e 04 9f db 3c
       0.13244694 -0.028323915 0.17387286 0.026809223
000340 f4 04 3f bd 9a e9 d7 3c 39 e6 71 3e 4d 0a 4c 3d
       -0.046635583 0.026356507 0.23622979 0.04981451
000350 56 48 53 be 6c b9 2a be 20 8f e9 3c 59 5f ed 3c
       -0.20633063 -0.16672295 0.02851063 0.02897613
000360 59 72 a2 bd 2a 42 02 bd a8 0f 09 3d 29 41 79 be
       -0.07931966 -0.03180138 0.033462197 -0.24341263
000370 c1 33 22 be 8d 95 6a bc ae 91 93 3d b5 e5 cf bd
       -0.15840055 -0.014317882 0.072055206 -0.10151235
000380 2a b9 7a bd cb b6 35 bc b0 0a 8d bc 57 70 48 bd
       -0.061211742 -0.0110909445 -0.01721701 -0.04893526
000390 fa 2f 40 bd e7 7b 3e be 87 4a 73 be 04 5f c3 bc
       -0.046920754 -0.18601952 -0.23758899 -0.023849018
0003a0 b3 2f b6 bc e5 73 b0 3d 2a 95 5c bd ac 2c 0d 3e
       -0.022239542 0.08615855 -0.05385319 0.13786572
0003b0 ce 75 d5 bc 9a 44 3a 3c a6 81 60 be 94 9c 44 be
       -0.02605715 0.011368895 -0.21924457 -0.19200355
0003c0 b0 7d 05 be dc 8c 99 be d6 0d 3e bc f9 b9 49 3e
       -0.13036227 -0.2999028 -0.011599978 0.19699849
0003d0 a2 7f 1d 3d e9 79 03 3e 22 37 94 bd 89 9c 47 3e
       0.0384518 0.12839474 -0.07237078 0.19493307
0003e0 d8 18 0d bd 85 0e 55 bc ba 5b 0a 3e 30 b0 d4 3d
       -0.03444752 -0.01300395 0.13511553 0.103851676
0003f0 01 85 11 3e 3d 5a 69 bd ca fd 39 3d b6 a7 10 bd
       0.14210893 -0.056970824 0.045408048 -0.03531619

conv_layer.10.bias f4 [32]
000000 e1 94 53 bc 02 fd a7 bb 5b 88 5c bc da a4 70 bd
       -0.0129139135 -0.0051265964 -0.013460244 -0.058750965
000010 e6 c4 92 3c 48 ac 5a 3d 9f fc db bc 94 ec e2 3c
       0.017916154 0.053386956 -0.026853858 0.0277007
000020 cb 69 e8 3c 70 46 43 bd da 4d 36 3d 42 2c 17 3d
       0.028370759 -0.047674596 0.04450784 0.036907442
000030 99 59 cb 3c 38 ff 00 bd a0 09 2e bc da 69 80 3c
       0.024822997 -0.031493396 -0.010622412 0.015675474
000040 19 fe 29 bd 1a 06 ee bc 2f cb 13 3d 8e f4 65 bd
       -0.041502092 -0.029055644 0.036082443 -0.05614143
000050 a7 19 06 3d 10 8e fe bc 96 80 6d 3d df 08 40 bd
       0.032739308 -0.0310736 0.057983957 -0.04688346
000060 60 b3 5a 3d 6e bd e6 3a 28 a0 94 ba 9c eb 1d bc
       0.05339372 0.0017604062 -0.0011339234 -0.009638693
000070 41 44 c5 bc 56 8b 43 bd 74 e6 08 3d 0a c1 22 3d
       -0.024080398 -0.047740303 0.033422902 0.039734878

conv_layer.11.weight f4 [32]
000000 02 d1 b5 3f a0 c9 c2 3f be bf a7 3f 2e 20 c1 3f
       1.4204409 1.5217781 1.310539 1.5087945
000010 1f 4f c2 3f 7b 1d ba 3f ba 48 b0 3f f6 70 ca 3f
       1.5180396 1.4540247 1.3772194 1.5815723
000020 6c 3c b8 3f 2b d6 b2 3f 24 40 b8 3f 41 c2 c9 3f
       1.4393439 1.3971609 1.4394574 1.5762407
000030 c4 98 b3 3f 72 38 c6 3f fe 6b b9 3f 47 2f ab 3f
       1.4030995 1.5485976 1.4486082 1.3373803
000040 63 a9 c4 3f 3e f9 c7 3f f6 8c c7 3f bf b2 b8 3f
       1.5364193 1.5622938 1.5589893 1.4429549
000050 21 a5 b0 3f de 9b a8 3f 3d 7b b1 3f 63 e6 bd 3f
       1.3800393 1.3172567 1.3865734 1.4835933
000060 b5 25 bb 3f 25 a0 ae 3f 6f 5b af 3f c9 42 c8 3f
       1.4620882 1.3642622 1.3699778 1.5645381
000070 eb 40 ad 3f 0c 90 cb 3f e4 df c2 3f b1 3b ba 3f
       1.3535436 1.5903335 1.5224576 1.4549466

conv_layer.11.bias f4 [32]
000000 df 12 69 bf e3 e4 7a bf 07 c9 4a bf 49 c4 54 bf
       -0.9104442 -0.98005503 -0.79212993 -0.8311201
000010 d8 2d 71 bf 4f 39 3a bf 06 74 3f bf e1 61 70 bf
       -0.94210577 -0.72743696 -0.7478641 -0.9389935
000020 de 5d 6c bf 8c 5a 53 bf bd 44 41 bf a7 31 95 bf
       -0.9233073 -0.8256004 -0.7549551 -1.1655778
000030 52 6c 39 bf f8 6c 8d bf f4 8a 73 bf 44 9c 45 bf
       -0.7243091 -1.104888 -0.951339 -0.7719157
000040 f6 26 8c bf a2 07 a5 bf 2c ce 65 bf a2 2a 5c bf
       -1.094939 -1.2892954 -0.8976772 -0.8600255
000050 18 b7 3a bf d5 53 66 bf 01 ed 3d bf 96 09 3b bf
       -0.7293563 -0.8997167 -0.74189764 -0.730615
000060 cc 2e 6b bf 5f 9b 2b bf e1 eb 26 bf 3b 94 61 bf
       -0.9186828 -0.6703395 -0.6520367 -0.88116807
000070 69 74 47 bf 55 6a 3d bf 48 ad 7e bf 7f 03 83 bf
       -0.77912 -0.73990375 -0.99483156 -1.0235442

conv_layer.11.running_mean f4 [32]
000000 3e 32 d1 bf bb 85 a0 bf a6 98 c4 3e ff c4 ea bf
       -1.6343458 -1.2540811 0.38397712 -1.8341368
000010 a8 d3 91 be 2e 76 97 bf fd 18 91 bf 33 c6 33 c0
       -0.28481793 -1.183294 -1.1335751 -2.8089721
000020 a4 93 9a bf 3a 7f 8f bf 5c 77 ee bf ee 5b 98 bf
       -1.2076306 -1.1210701 -1.8630176 -1.1903055
000030 3e cd 11 bf b8 91 83 bf 8b 7b 5c bf 3d df 99 bf
       -0.569538 -1.0278845 -0.8612601 -1.2021252
000040 3d fb a3 bf 4d d1 92 bf 1b 77 c1 bf bf 63 1b bf
       -1.2811047 -1.1470124 -1.5114473 -0.60699075
000050 e0 53 06 3f a8 3a a5 bf bf 08 9f be 2e e7 14 c0
       0.52471733 -1.2908525 -0.3106136 -2.32661
000060 19 2c 03 c0 53 d5 22 bf 74 35 97 bf b5 55 bd bf
       -2.0495665 -0.63606757 -1.1813188 -1.4791781
000070 f2 ff e2 bf 15 4d b8 bf d2 f5 4c bd 65 89 28 bf
       -1.7734358 -1.4398524 -0.05003912 -0.6583465

conv_layer.11.running_var f4 [32]
000000 20 bd 97 3f 20 2b d0 3f a7 a5 9c 3f d3 53 ea 3f
       1.1854591 1.6263161 1.2238053 1.8306831
000010 17 21 bb 3f 58 f9 a9 3f 25 d9 c0 3f 7b e2 f6 3f
       1.4619473 1.3279219 1.5066267 1.9287866
000020 33 fa d8 3f 08 98 ac 3f 99 c1 b3 3f 7c cb b2 3f
       1.6951355 1.3483896 1.4043456 1.3968349
000030 87 b1 84 3f 5b c7 b9 3f 73 86 b7 3f e3 9e 91 3f
       1.0366677 1.4513963 1.4337906 1.1376613
000040 d2 b9 d0 3f a3 68 da 3f ef 62 ee 3f 66 b2 ae 3f
       1.6306708 1.7063183 1.8623942 1.3648193
000050 af 79 91 3f 5b 0e 94 3f 83 d7 ad 3f 82 ba d4 3f
       1.136526 1.1566881 1.3581394 1.6619418
000060 fa ae b1 3f 61 fc 8e 3f 7b da b2 3f d5 72 d2 3f
       1.3881524 1.117077 1.3972925 1.6441294
000070 22 a7 9c 3f ac a1 d3 3f 93 60 c9 3f 5b 50 c0 3f
       1.2238505 1.6533713 1.5732597 1.5024523

fc_layer.0.weight f4 [10, 2048]
000000 05 0c 10 bd c9 30 a3 bd 01 20 9e bd 66 db 42 3d
       -0.035167713 -0.079682894 -0.07720948 0.047572516
000010 19 8d 8d 3d 96 8f c2 bb 20 db 89 bc a9 bb 50 3d
       0.06911678 -0.005937527 -0.01682812 0.050960217
000020 b6 7e 9f 3c 15 d1 34 3d 3d c3 af 3d a2 c1 2e be
       0.0194696 0.04414471 0.085821606 -0.17066053
000030 11 5b 0b 3d 73 2b d6 3d 10 78 ae bd 5c c7 2a 3e
       0.034022395 0.10457506 -0.08518994 0.16677612
000040 d4 0b 0b bd 8e 45 33 3d 09 f0 c1 bc 1f a8 fd bd
       -0.033946827 0.043767504 -0.023674028 -0.12385582
000050 c2 25 f9 bc 9f 41 89 bd d4 ab 07 3e 76 64 69 3c
       -0.030413512 -0.06701969 0.13249141 0.014245143
000060 c3 62 90 bd c2 a0 e2 bd d6 69 03 be c7 1a 27 be
       -0.07050087 -0.11065818 -0.12833342 -0.16318808
000070 8c 5e 0f bd ec b3 31 be 81 61 3b 3d 0a b7 76 3d
       -0.035002276 -0.17353791 0.045747284 0.060233153
000080 f4 06 29 bd 24 8b 91 bc 35 64 2a be eb b1 58 b9
       -0.041266397 -0.017766543 -0.16639788 -0.00020665645
000090 90 c3 55 be 1a cb 70 3d 1a 6b 93 3d 50 c4 98 3d
       -0.20875382 0.058787443 0.071981624 0.07459319
0000a0 4e 2a 27 be d3 8a 33 be 42 ef 84 3c 7f 9f 92 be
       -0.16324732 -0.17533426 0.016227368 -0.2863731
0000b0 a3 51 d9 bc 1a ab 73 be 89 63 8e bd c1 58 1e bd
       -0.026528185 -0.23795739 -0.069525786 -0.03865886
0000c0 0f 4b e6 bd 9b 9b 59 bd 9a 6c 11 be 65 1b 85 be
       -0.11244785 -0.053126913 -0.14201584 -0.25997463
0000d0 84 f3 7d be d4 0a dd bc fe cc 83 bd 3a a6 95 3d
       -0.24799925 -0.026982702 -0.064355835 0.07307096
0000e0 a5 5b 9e bd 2d 7a 38 3c 99 2c ee bd a6 03 24 3d
       -0.077323236 0.011259598 -0.116296 0.040042542
0000f0 13 a7 f0 bc 36 e2 17 bc e5 ec ad 3b 85 1f 31 3d
       -0.029376542 -0.0092702415 0.005307781 0.04324295
000100 c0 06 69 3d b5 a0 f1 3d 9b ca 97 3d 4e a3 61 bc
       0.056891203 0.117982306 0.07411691 -0.013771845
000110 12 ef 46 be a3 02 2b 3d c5 95 43 bd 69 4a b7 3c
       -0.19427136 0.04175056 -0.047750253 0.022374349
000120 1c a4 85 bd b1 f5 98 3e 33 dd 2a 3e aa 9a 19 be
       -0.06525442 0.29874948 0.16685943 -0.15000406
000130 17 f9 30 bd 1f 0b fb 3c 0a e7 4c be 21 56 1f bd
       -0.0432063 0.030644951 -0.2001001 -0.0389005
000140 1b 93 42 3e ca 1e 65 3e 7d 9d c9 3d 5f 4e 7a bd
       0.19001429 0.22375026 0.09844492 -0.061109897
000150 47 9f f7 3c 45 cd 18 bd e3 cc 9e bd f6 22 0e be
       0.030227317 -0.037305135 -0.07753923 -0.13880524
000160 83 fb 46 3e 4d 3f 05 3d fb 0b 88 3d bc a7 a8 bd
       0.19431882 0.03253107 0.0664291 -0.08235118
000170 dc 4d cc bc a8 d3 3c be a6 73 07 be 1d b8 8d bd
       -0.02493947 -0.18440115 -0.1322771 -0.069198824
000180 f3 6b b8 3d 70 67 54 3d 42 d0 8f 3c c6 47 b7 bd
       0.09004965 0.05185646 0.01755536 -0.089492366
000190 8d a5 2b be 78 38 e9 3c 2d b8 1a 3d 69 2a fd 3d
       -0.16762371 0.02846931 0.0377733 0.12361605
0001a0 2f 6c ea 3d 67 21 7c bc d6 7f e1 bd 4f 3e 15 3e
       0.11446416 -0.015388823 -0.11010711 0.1457455
0001b0 d5 d3 8e 3d 43 44 29 3e 54 05 ae 3d 79 e5 ab 3c
       0.069739975 0.16529946 0.0849711 0.020983445
0001c0 aa ba d2 bc 50 0e 69 bd af 56 6d bd b0 5a b3 bc
       -0.025723774 -0.056898415 -0.057943996 -0.02189383
0001d0 b3 8f f8 bb c5 23 98 3e ec 42 0f 3e c8 88 5f bd
       -0.0075854897 0.2971479 0.13990372 -0.054573804
0001e0 0c 0c 82 3d ff 48 25 be 32 b6 3e be 34 b7 ff bd
       0.06349954 -0.16141127 -0.1862419 -0.12486115
0001f0 81 1a 59 3d 94 6f 00 3e 79 78 dc 3c 4a 39 92 bd
       0.05300379 0.12542564 0.026912915 -0.07139833
000200 01 3d af 3d 94 a1 5c bd 87 91 fa bb c2 13 11 3b
       0.085565574 -0.05386503 -0.0076467427 0.002213702
000210 cc e2 83 3d 22 27 94 bd 84 e1 e6 3d 71 5c 11 3d
       0.064397424 -0.072340265 0.112734824 0.03548855
000220 1c f8 61 3d 77 3b 70 bd ec ff 75 3c 67 81 4d 3e
       0.055168256 -0.05865046 0.01501463 0.20068894
000230 8d fc 49 3e c9 d0 b2 3d b2 ab 5c 3d 2a 97 f4 3d
       0.19725247 0.08731229 0.05387468 0.11942895
000240 ab f9 3d 3d 82 e2 f7 3c de 47 c2 3d f4 bb a0 3e
       0.04638068 0.030259375 0.09486364 0.31393397
000250 6c c2 24 bd 2e 6d 6c 3c a5 cc 1a 3e 7c 62 8a 3d
       -0.040224478 0.014430327 0.15117128 0.06757066
000260 ce ca 26 3e 2b b4 d5 3d 6e 30 32 3e 80 ca 3b bd
       0.16288301 0.10434755 0.17401287 -0.045847416
000270 c4 95 8f 3d a9 19 d2 3c 6c f0 62 3c f4 79 20 3e
       0.070109874 0.025647001 0.013851266 0.15671521
000280 ac 7d 5a 3e 27 5c 29 3e 17 be 64 3d 76 ea 88 3d
       0.21337003 0.1653906 0.055845346 0.06685345
000290 05 2b 0c bd ef 7e 1a 3e 25 b3 3d 3d 2a e5 c0 3d
       -0.034220714 0.15087484 0.046313424 0.094187096
0002a0 6d 36 cf bd ac 7f 54 3e 49 14 1e be d2 c0 03 3e
       -0.10117803 0.20751828 -0.15437426 0.12866524
0002b0 14 24 c8 bc 78 40 33 3e 73 f5 f5 3d 40 4b d9 3c
       -0.024431266 0.17505062 0.12009706 0.02652514
0002c0 49 b5 cf b9 e7 24 df 3b 72 1b a3 3d 7c ba 6f 3d
       -0.00039617185 0.006809819 0.07964219 0.058527455
0002d0 cf 80 9e 3d 32 fc ba 3d a3 ea c8 3d 92 f3 f2 3c
       0.07739412 0.09130134 0.098103784 0.029657159
0002e0 ba 4d bc 3b 66 ad 77 bb 23 89 37 3c 14 ea ba 3a
       0.0057465704 -0.0037792563 0.01120213 0.0014260435
0002f0 b7 7f cc bd 0b 05 27 3d 02 39 f9 3d 45 be 23 bc
       -0.09985297 0.040776294 0.121690765 -0.009994094
000300 fc 1e 1d 3d ed 6e bd bd 05 1c f7 bc d7 5b 4a bd
       0.038359627 -0.09249673 -0.030164728 -0.04940399
000310 f9 aa da 3b 86 c6 83 3d 31 38 d5 bd cd 41 0b be
       0.0066732136 0.0643435 -0.10411108 -0.1359932
000320 db b3 f8 3d cb 02 23 3d 7a 42 01 bd e8 14 4c 3d
       0.1214368 0.039797585 -0.031557538 0.049824625
000330 fe 5c 64 bc 5e 79 2f 3d 4e 05 60 bd 9d 42 aa bd
       -0.013938187 0.042840354 -0.05469256 -0.08313487
000340 5a bb 07 3e aa 83 9f bd d6 80 f7 3d 7e 2a 46 3e
       0.13255063 -0.07788785 0.120851204 0.19352147
000350 0a 6e 0b 3e 1a 05 65 3b ee d5 6a 3e aa 88 c6 3d
       0.13616195 0.0034945668 0.2293317 0.09694035
000360 35 6b d8 bc d6 50 82 3d 6c 20 01 3e 33 31 34 3e
       -0.026418308 0.063630745 0.12610024 0.17596893
000370 43 59 21 3e d7 5e 44 3e 42 47 f0 3d ea 4b 13 3d
       0.15756707 0.19176804 0.11732341 0.03596107
000380 03 39 3c 3e bf a1 92 3d f7 a7 97 3e a7 97 31 3e
       0.18381123 0.07159757 0.29620335 0.17343007
000390 74 21 30 3e 94 3a 2b bd de 3e 08 3e 3c f4 98 3e
       0.17200261 -0.04180391 0.13305232 0.29873836
0003a0 ca d6 f8 bc 75 c8 50 3d 3f 43 b7 3d 89 09 1a bc
       -0.030375857 0.05097242 0.08948373 -0.009401687
0003b0 c9 5c fb 3d 10 4f a4 3d 8b 81 f4 bc 35 4b 37 3e
       0.12273557 0.080228925 -0.029846927 0.17899783
0003c0 01 b7 58 3c 05 02 65 3d f8 51 00 3e 2b ea b9 bc
       0.013227225 0.05591013 0.12531269 -0.022694668
0003d0 9f f8 90 3d 9b 4d 19 3e d4 1e b4 3c 63 2c 2d 3d
       0.07078671 0.1497101 0.021987356 0.04227866
0003e0 2e 89 76 3d 77 87 5f bd 7f 45 cd bd c5 b2 cd bc
       0.06018942 -0.05457255 -0.10023021 -0.025109658
0003f0 95 53 1b 3c 68 ba bc 3c ff c5 95 3c b7 b9 ac bd
       0.009480377 0.023038104 0.018282888 -0.0843386

fc_layer.0.bias f4 [10]
000000 2b c5 37 3d 7b 03 02 be d9 ba 17 bd 87 7e 82 3c
       0.04486577 -0.1269664 -0.037043426 0.015929474
000010 2c ae ca 3d be 02 33 bc 26 1f 12 3d ff a6 9f bc
       0.09896502 -0.010925947 0.035674237 -0.01948881
000020 94 33 d4 b9 6c 1c 52 bd
       -0.0004047422 -0.051296636
