Knowledge Distillation/TAKD/saved/10-6.pth (torch, 344962 bytes, 38 tensors)

conv_layer.0.weight f4 [16, 3, 3, 3]
00000000: 2d53 be3e 0f6d 103e 99b7 993e 1209 f63d
00000010: 901b 2fbf a252 6d3e a9a1 433e 31a3 06bf
00000020: c459 85be a2c5 3b3e 47f9 cabe b62f 25be
00000030: 0f0a 523e 8b69 31bf 55d4 4d3d 51f4 903e
00000040: 24b6 cabe 916a 95be b4d1 acbd b8a3 99be
00000050: 378a 31be efee 1a3f be4d 51be cfc6 d33e
00000060: f424 2b3f 22e7 723e afa6 8c3e 8608 8b3d
00000070: 4e1c ecbe 29bf c0be 219b 75be c89e 26bf
00000080: 6190 343d 394f f23e 4e76 b13d df98 453e
00000090: c5c4 4f3d 26e8 62bd 11f3 bb3e cc9c d8be
000000a0: 6f27 b0be 9345 263f 2315 873e ce09 e63e
000000b0: e177 043f 71b3 58be e2f9 6ebe d1f0 9fbd
000000c0: 5d2e 8fbe 43a9 c4be ab19 483e 25e2 eebd
000000d0: d2a9 d83d 9e27 1b3e e409 313c b3d5 4e3d
000000e0: 4a14 103e f9a8 8bbd d845 8bbe f7c1 dbbc
000000f0: 4288 11bd 573f a9bd 2185 f13d 13cd 123e
00000100: 1faf 2f3e ce97 8abd 12da 963d 0521 8abe
00000110: 0c13 acbd 7e3e ce3c 719b 91bd a3bb 3f3e
00000120: ad63 4d3e abbf 593e 7fbd fd3c 224c f43d
00000130: e888 1fbe c6d1 7e3e 2721 423e 8502 cabd
00000140: 0927 883e ece7 64be aced f43d df79 d03d
00000150: 38f1 3dbe 92eb 95bd a351 8a3e 0c45 51bd
00000160: bd34 28be cc63 1e3b 66f2 813e d80e 2e3e
00000170: e9a8 2bbe c80a a23d f193 8e3e 45eb 8f3e
00000180: f762 703e 4a3f 433e b6b0 473e 79aa 9bbe
00000190: 8d41 2abe 2a1c 4dbe 92fb 0ebe 97d8 563d
000001a0: 225b 663e 82bf 3dbe af65 123e f492 413d
000001b0: 129f e4bd e231 b03e 832c 283e dc6c 063e
000001c0: 5aa8 013e 2a89 413e 2c75 27bd 9826 9c3e
000001d0: a737 4f3d 8a3b d8bd 2cd2 553e ca07 7e3d
000001e0: e409 953d 580b 94bd de52 653d e5be 76be
000001f0: 23da 5dbd b4a4 63be 37f7 11be c430 9e3e
00000200: 7959 263e 0580 abbe 7863 fd3d 8e86 2b3e
00000210: 1020 0bbe 0ed3 a2bd 2ee6 25be 126b 4bbe
00000220: 3498 c6bd f53b 89be 4c4d eebd 2b97 0fbd
00000230: 0f20 533e 888b 8c3e 26d4 58bc 939e 023f
00000240: cb7c bcbe cfdd 203d 3e71 443e ba6c 08bf
00000250: 76d5 a73c 6eab 663e 42a3 56be 036a 71be
00000260: 2be8 d83e 9483 37be 050c e53d 39d4 cdbd
00000270: 5d2d 1abe f3c1 4bbc b5f1 003d 5db3 5d3e
00000280: e518 023e 7a04 2b3e 39fe ecbd c41b 0b3e
00000290: 23a5 563d 3188 71bd 6884 3abd ae17 083e
000002a0: b6cc 0fbe 2c91 cf3c ac7b 8e3e 79f2 00bf
000002b0: e593 cb3d 90bf 90ba 6f52 bfbe 3ccf 0bbd
000002c0: a1c6 2a3e 1374 d0be 9258 05be 5bfb fa3d
000002d0: 44ae a1be 5b23 fb3c f58f bf3e 5114 803c
000002e0: 6a44 853e 1056 813e e592 0cbe 6f14 a33e
000002f0: 6df0 eb3e bc1e 153f 9761 df3c 1908 df3d
00000300: 5c87 92be c239 51be 91a0 813d c320 a1be
00000310: 323c a2be 2349 813e 0c60 1abe c77f 20be
00000320: bb41 173d 609d 02bf b518 b2be a3fb ce3d
00000330: c101 b9be 33a5 e53d de2a ec3d af01 443d
00000340: 0e9f ce3d e70a 1d3e 8173 99bc c660 5bbe
00000350: 0045 ac3d 68dc bcbe 6527 203e b202 cabd
00000360: 9fe0 a53e 259c b23e c608 83be 5f65 a5be
00000370: f164 51bf c1dc d6be d7f4 b33e d72e cdbe
00000380: d748 db3d fdf9 893e c094 513f 0e09 1d3f
00000390: b9dc 84be a3a9 26be 5d37 6b3e 2325 473e
000003a0: 4a6b a3be 717f 2e3e 819c f8be b231 923e
000003b0: 7040 2d3e 1c20 0fbf db35 bcbe 8798 b63e
000003c0: fd1a 183e 67cb 92bc 5176 573d c22c 183f
000003d0: ba83 343f bbf4 863e cf69 e2bc a345 2d3f
000003e0: e03e 863e 0a24 1abf 2240 4abd 9455 77be
000003f0: e824 03bf 8c00 08bf cb5e 74be 7242 ecbe
0.37172833 0.14104103 0.30022886 0.12013449 -0.6840143 0.23176053 0.19104637 -0.5259276
-0.26045048 0.1833711 -0.3964331 -0.16131482 0.2051165 -0.6930167 0.050251324 0.283114
-0.39592087 -0.29182866 -0.08438435 -0.3000772 -0.17337881 0.60520834 -0.20439813 0.41362616
0.6685326 0.23720983 0.2747092 0.06788735 -0.46115345 -0.37645844 -0.23984958 -0.6508603
0.044083003 0.47326067 0.08665143 0.19296597 0.050724763 -0.055397175 0.36708882 -0.42307127
-0.34405085 0.6494991 0.26383314 0.44929355 0.5174542 -0.21162201 -0.2333751 -0.07809604
-0.2796506 -0.38410386 0.19541042 -0.116642274 0.10579266 0.15151832 0.010805581 0.05049677
0.1407024 -0.06819338 -0.27201724 -0.026825888 -0.035530336 -0.08264034 0.117929704 0.14336042
0.17156647 -0.06767236 0.07365812 -0.26978317 -0.084020704 0.025176283 -0.07109726 0.18723921
0.20057555 0.21264522 0.030974148 0.11928584 -0.1557957 0.2488471 0.18957959 -0.09863762
0.2659228 -0.22354096 0.11959395 0.10179495 -0.18549049 -0.07320322 0.2701541 -0.05109124
-0.16426368 0.002416837 0.25380248 0.1699785 -0.16763653 0.079122126 0.27847245 0.28109184
0.23475252 0.19067112 0.19501004 -0.30403498 -0.16626568 -0.20030275 -0.13963154 0.05245265
0.22495702 -0.18530086 0.14296602 0.047259286 -0.11163153 0.34413058 0.1642323 0.13127464
0.12661877 0.1889998 -0.04088323 0.30498195 0.050590184 -0.10558231 0.20880955 0.062019147
0.07277277 -0.07228726 0.05598723 -0.24096258 -0.05416311 -0.22230798 -0.14254461 0.3089658
0.16245069 -0.3349611 0.12372488 0.16750547 -0.1358645 -0.07950412 -0.16201088 -0.19865063
-0.09696999 -0.26803556 -0.11635837 -0.035056274 0.20617698 0.27450204 -0.013234174 0.51023215
-0.3681396 0.039274033 0.19183823 -0.53290904 0.020487528 0.22526333 -0.20960715 -0.23575597
0.4236463 -0.17921287 0.11183933 -0.10050244 -0.15056367 -0.012436378 0.03148051 0.21650453
0.12704809 0.16700926 -0.115719266 0.1358481 0.05240358 -0.058967773 -0.04553643 0.13290283
-0.14042935 0.025337778 0.2782873 -0.50369984 0.09940318 -0.0011043418 -0.3736758 -0.03413318
0.16677333 -0.40713558 -0.13022068 0.122549735 -0.31578267 0.030656507 0.37414518 0.015634688
0.26028758 0.25260973 -0.13727911 0.31851527 0.46081868 0.5825002 0.027268214 0.108902164
-0.28618896 -0.20432189 0.06329454 -0.31470308 -0.3168655 0.2525111 -0.15075701 -0.15673743
0.03692792 -0.51021385 -0.34784475 0.1010659 -0.3613415 0.1121315 0.11531614 0.047853168
0.10088931 0.1533619 -0.018731834 -0.21423635 0.08411598 -0.36886907 0.15640028 -0.09863795
0.32397935 0.34884754 -0.2559263 -0.32303903 -0.8179465 -0.41965297 0.35147735 -0.40074798
0.107072525 0.26948538 0.818676 0.6134194 -0.25949648 -0.16275649 0.22970338 0.1944776
-0.31917793 0.17040803 -0.48556903 0.2855354 0.16919112 -0.5590837 -0.36759838 0.35663244
0.14854045 -0.017919255 0.05260307 0.59443295 0.705135 0.2635859 -0.027638344 0.6768438
0.26219845 -0.6021124 -0.049377568 -0.24153739 -0.5122819 -0.53125834 -0.23864286 -0.46144444

conv_layer.0.bias f4 [16]
00000000: 9456 be3d 7da6 163e aeb4 95bd 2e90 e5bc
00000010: ac9e 503d 1052 173e 251d a93c 358a de3d
00000020: e36f 21be fc5c 113d 978a 733d d9c3 55bd
00000030: 65d2 7a3c 8319 3e3e c101 04be 2db3 723d
0.09293857 0.14711948 -0.073098525 -0.028022852 0.05093257 0.14777398 0.02064378 0.10866205
-0.15765338 0.035489067 0.05945834 -0.052188728 0.015308951 0.1856442 -0.12891294 0.059252907

conv_layer.1.weight f4 [16]
00000000: ec99 713f 4033 783f 6a21 2e3f 9a91 3e3f
00000010: 05a2 343f b3ee 353f 0256 413f 06f3 823f
00000020: b99d 873f a67e 6c3f 74a6 b53f 7a2a 523f
00000030: ac9b 993f 8a10 413f e096 643f 7f2c 8c3f
0.9437549 0.969532 0.68019736 0.7444092 0.7055972 0.7106735 0.7552186 1.0230415
1.0595008 0.9238075 1.4191422 0.82096064 1.2000632 0.7541586 0.89292717 1.0951079

conv_layer.1.bias f4 [16]
00000000: 5953 fc3e d49b c43e ad34 babe 0927 02be
00000010: 9018 2cbe 2a9c 913e 8c03 903e 666f c9be
00000020: 9889 053f e44b 333e 5df9 693f 08a8 843d
00000030: 7988 1f3f 47f2 82bd a581 373e b590 383f
0.4928234 0.38400137 -0.36368313 -0.12710203 -0.16806245 0.28439456 0.28127706 -0.39342803
0.52163076 0.17509419 0.91396123 0.06477362 0.62317616 -0.06393867 0.17920549 0.72095805

conv_layer.1.running_mean f4 [16]
00000000: 32cb d13c bb29 01be c8bd 2d3f a63a 3b3f
00000010: c42c 533f 8169 0a3e 2a49 b83e 4202 9bbf
00000020: f444 59be 109e 063d 3fd2 fabb 6e91 7cbe
00000030: a756 86bd 0407 8fbd f423 66bd fc69 ac3d
0.025609586 -0.12613575 0.6786771 0.73136365 0.8249018 0.13516809 0.3599332 -1.2110064
-0.2121771 0.032865584 -0.007654458 -0.24664852 -0.065594964 -0.0698376 -0.05618663 0.084186524

conv_layer.1.running_var f4 [16]
00000000: 292a f03e 5ed3 253f 852b 803e b006 6e3e
00000010: 3cc8 9d3e 36e6 c83e f883 123f e4bf 2e3f
00000020: f643 e63e 7d7c bc3e 1de9 8e3e d366 d43d
00000030: 53f6 c83e 3795 3e3e 7fce c53e b9b9 393e
0.46907166 0.64775646 0.25033203 0.23244739 0.3081683 0.39238137 0.5723262 0.6826155
0.44973725 0.36813727 0.27912226 0.10371175 0.3925043 0.18611608 0.38634107 0.18137254

conv_layer.3.weight f4 [16, 16, 3, 3]
00000000: 5d02 353e 0925 9f3e 7258 1f3e a76d 953b
00000010: 0ad3 f83d ec2e e13d cf33 ce3d 3897 ea3d
00000020: 9ffa c03c 8f4c febc 238b 36bd 1fbf 013d
00000030: 8f60 10be 31d0 25be 5014 67bb 88c3 ddbd
00000040: 6901 17be 4853 25bd 944a c83c af4f 9cbd
00000050: 3b1c 32be 5eba ce3d f41b 443d a5b8 eabd
00000060: 288c 373e ce79 d43d 7228 4b3d 10dd e3bd
00000070: 7169 8ebd 77a0 13be 4da4 1cbe 92e1 dfbd
00000080: ac80 1dbd f066 a9bc 787c c4bb b448 72bd
00000090: e1e2 59bd 5348 2fbe d9ec f3bd e0d0 acbd
000000a0: 8cff f7bc ca7e f3bc b20b cfbd a5c9 00be
000000b0: c3a9 19be 0681 3ebe 8ab1 f4bd 3079 803d
000000c0: 8cf5 afbd 30b8 02be 5e6f 87bc 0499 89bd
000000d0: ead4 f6bd 2a68 193c 9622 a8bc 1ffa 02be
000000e0: 6885 7dbd 1846 10be 4d56 78be 67a0 4bbe
000000f0: 282d 21be 018e 08be 0c81 39bd a93e 37be
00000100: ae6d 69be baa8 3abd 035a 27be a657 85bd
00000110: b2e8 c33d 4271 a1bd f447 a7bc 9ed7 013e
00000120: 2d71 91ba d44b b43c b768 6bbd b3dd 643d
00000130: e41b 543c 20f7 11bd 2a7b debd a347 263c
00000140: 5f39 e7bd 6163 313d 9d84 af3b cca2 4e3c
00000150: 2c44 91be 9b31 91be f575 5abe dc7b 8abe
00000160: 3583 41be 1a57 bdbd 150c ff3d 6116 34b8
00000170: 7712 26be 4961 ca3d 9cd2 87bc de72 0dbe
00000180: 64f2 bebc 5b29 fabd 77ed 2ebd 133f 9e3d
00000190: 1bc8 2e3e 9fb1 fb3d 971c 4fbd 0787 41bc
000001a0: 818e 72bc f916 053c 0590 b73c 31f7 52bd
000001b0: 38d9 28bc 82f3 bebd bd6c e23b 7e00 d23c
000001c0: 58bf e9bd fc03 bdbc 97c4 813d 1a66 1fbe
000001d0: 4594 fabd 3b19 3b3d 2f4d 943c 64ca 833d
000001e0: 2e1e 23bc d94b dc3a 559a 0dbc 9660 e43a
000001f0: eaef 92bd cea3 a9bd 3318 243d 61f5 c73c
00000200: c080 0abc dcb9 373e 6b95 d3bd d03e d7bd
00000210: a2c9 29bd 63eb 13be af85 efbd c824 22be
00000220: 461b 573d 2c34 733b e868 8abd e1a2 33bc
00000230: b9e4 8a3d 28f5 35be b53b 413d 9033 1a3e
00000240: ffc8 db3e e6fd 43be 7fcf 0ebe 1252 41bd
00000250: 216a 853e 5dd3 bcbd c314 a9be 6c89 f4bc
00000260: 0610 aa3d 8af8 df3d aee4 1cbe 8542 66bd
00000270: f813 5a3d 277b be3e e345 06bd 5f9b b4bd
00000280: 95d8 e33c 8749 413e 286b 33bd 804b fabb
00000290: c7d5 633d b8e3 5ebd 75f6 cb3d b2a0 523e
000002a0: 8c36 10be a88e 0bbe 8b98 0d3e aa09 0d3d
000002b0: 0270 d13d 196a ff3c d195 0dbe fdb6 753c
000002c0: 3108 9039 1861 c6bc 85b0 8ebc 3fda 863a
000002d0: 8a13 8e3b 3bc0 2cbd da19 51bd 01eb fb3d
000002e0: ccfa e03d 7a93 44be 7812 463d 51cc 63bd
000002f0: e781 1ebe ea6d 17be a2d3 903d a9d3 10be
00000300: 3f9b 2abd 28cd 653d 61b4 0b3b 3107 063e
00000310: 604b 793c 22fd 413e 7d16 c0bd a3b6 b5bc
00000320: 3ffc aa3d b1ab c0bd 7ad3 c4bd 3dca afbd
00000330: 4e48 f43c 54be c7bb 099b b7bc 223c a13d
00000340: b051 8c3e f242 053e a56e 81bc ae3f 18be
00000350: 6a73 0c3e 9d43 febd e4de 42be 2b18 84bd
00000360: f690 783e d3d8 fe3c 74b1 acbe 0fa4 1fbe
00000370: e38a 023f 2523 3d3e bcd5 efbe 13b1 b5be
00000380: 6ef7 3e3e 561f 33be 7450 febc 9e04 963d
00000390: cecf 11be 98b8 95be 05c1 0f3d b2b0 0b3e
000003a0: 0be3 33be 1703 5ebe 6594 d73c 9c9b 183e
000003b0: 0caa 70bd 1801 553d c052 90be d2d2 933d
000003c0: 8d2a 1a3e 0bab 95ba d51e 58be 715c 8b3e
000003d0: 6ad7 0cbc 3b40 c1be 434a eabd f2d2 043f
000003e0: f65f 723d e5dc 84be 280d 2dbe a3b1 8a3e
000003f0: 4847 bfbd 381b 05bf 22da b3be 1c4b 103f
0.17676683 0.31082943 0.15561083 0.0045601907 0.121496275 0.10995278 0.100684755 0.11454624
0.023557005 -0.031042365 -0.044566285 0.031676408 -0.14099334 -0.161927 -0.003525991 -0.1082831
-0.14746632 -0.040362626 0.024449624 -0.07632386 -0.17393582 0.100941405 0.04787822 -0.114609994
0.17924559 0.10374795 0.04959912 -0.11126149 -0.06953705 -0.14416681 -0.15297051 -0.10931696
-0.03845279 -0.020678967 -0.005996283 -0.059151366 -0.053194884 -0.17117433 -0.119104095 -0.08438277
-0.030273221 -0.029723544 -0.101096526 -0.12576921 -0.15006165 -0.18603906 -0.119479254 0.06273115
-0.08591756 -0.12765574 -0.016532596 -0.067186385 -0.12052329 0.009363214 -0.020524304 -0.12790726
-0.061894804 -0.14089239 -0.24251671 -0.19885407 -0.15739882 -0.1333542 -0.045289084 -0.17894997
-0.22795746 -0.045571066 -0.1634293 -0.06510858 0.095658675 -0.0788293 -0.020420052 0.12679908
-0.0011096351 0.022008814 -0.05747291 0.05587549 0.012946103 -0.035636067 -0.108633354 0.010148915
-0.112902395 0.043307666 0.005356385 0.012612056 -0.28372324 -0.28358158 -0.2133406 -0.27047622
-0.18897708 -0.09245129 0.12453476 -4.2936186e-05 -0.16217981 0.09881837 -0.016579919 -0.1381335
-0.02330894 -0.12214919 -0.042706933 0.07726874 0.17068522 0.12289738 -0.050564375 -0.011811978
-0.014804483 0.008123153 0.022407541 -0.05150527 -0.010305695 -0.09323789 0.0069099353 0.025635
-0.11413449 -0.023073189 0.06336325 -0.15566292 -0.122353114 0.04567836 0.01810321 0.06435087
-0.009955926 0.0016807272 -0.008642753 0.0017423804 -0.07174666 -0.082831964 0.04006214 0.024408998
-0.008453548 0.17941993 -0.103312336 -0.105100274 -0.041452058 -0.14445262 -0.1169542 -0.15834343
0.052516244 0.0037109954 -0.067582905 -0.010964126 0.06781907 -0.17769301 0.04717608 0.15058732
0.42926785 -0.19139823 -0.13946341 -0.04719741 0.26057532 -0.09220002 -0.33023652 -0.029850684
0.083038375 0.10936077 -0.1532161 -0.05621578 0.0532417 0.37203333 -0.032781493 -0.08818697
0.027813235 0.18875705 -0.043803364 -0.007638395 0.055623796 -0.05441639 0.09959117 0.20569113
-0.14083308 -0.13628638 0.13827722 0.034433044 0.10226442 0.031178521 -0.13826682 0.014997241
0.00027471923 -0.02421622 -0.017418155 0.0010288431 0.0043358253 -0.042175513 -0.051050045 0.12300683
0.10985336 -0.19196883 0.048357457 -0.055614773 -0.15479241 -0.14788023 0.07071616 -0.14143242
-0.04165196 0.056103855 0.002131723 0.13088681 0.015215725 0.18944219 -0.09379289 -0.022181815
0.083488934 -0.094077475 -0.096106485 -0.08583496 0.029819634 -0.006095687 -0.022412794 0.078727975
0.27406073 0.13013819 -0.01579983 -0.14868042 0.13715902 -0.1241524 -0.19030339 -0.06449922
0.24274048 0.03110925 -0.33729136 -0.15589927 0.50993174 0.18470438 -0.46842754 -0.3548666
0.18649074 -0.17492422 -0.031044222 0.073250994 -0.14239427 -0.29242396 0.035096187 0.13641623
-0.17567079 -0.21680866 0.026315877 0.1490311 -0.05875592 0.052002996 -0.28188133 0.07217945
0.15055294 -0.0011418773 -0.21105511 0.27218965 -0.008596281 -0.37744316 -0.114399455 0.51884377
0.059173547 -0.2594978 -0.1689955 0.2708865 -0.09339768 -0.5199466 -0.3512736 0.5636461

conv_layer.3.bias f4 [16]
00000000: b635 25bd 62b2 32bd 56d8 343d 82fe a6bd
00000010: f8e8 e6bc b038 4fbd 3032 1bbc 0205 f4bc
00000020: c30d 193d c772 a2bd 32da 873d 996a a23d
00000030: e07e edbc ab07 9f3d 4c48 8e3d 2d45 73bc
-0.040334426 -0.04362715 0.044151627 -0.08154012 -0.02818726 -0.05059117 -0.009472415 -0.029787544
0.03736664 -0.07932048 0.06633414 0.07930488 -0.028991163 0.077651344 0.06947383 -0.014848036

conv_layer.4.weight f4 [16]
00000000: f9f4 8d3f e8df 973f 4792 923f 9674 8e3f
00000010: a328 703f 3885 973f 657f 8c3f a8c8 633f
00000020: 38dc 883f 24f9 883f 4096 7b3f 94e0 693f
00000030: befa 863f 0e99 843f 2c74 4a3f 6023 883f
1.1090385 1.1865206 1.145089 1.1129329 0.93812007 1.183753 1.0976378 0.8897805
1.0692205 1.0701032 0.9827614 0.91358304 1.054527 1.0359209 0.79083514 1.0635796

conv_layer.4.bias f4 [16]
00000000: e79e 3ebd d159 f1bd d6da 58be 3d49 74bd
00000010: 6b9b 643d 1490 8abe abac 05be d951 1fbe
00000020: 8cf9 1cbe e096 12be a4b0 9dbd 16f2 c33d
00000030: 1a90 0fbd b50a e1bd 34fa 34bc f4e3 d2bd
-0.04653826 -0.11784709 -0.2117723 -0.059640158 0.05581228 -0.27063048 -0.13054149 -0.15558566
-0.1532957 -0.14315367 -0.07699707 0.095676586 -0.035049535 -0.1098837 -0.011045981 -0.10297385

conv_layer.4.running_mean f4 [16]
00000000: 99e0 0ec0 21fd 13bf 1523 04c0 cf05 82be
00000010: 4de7 8ebf 9502 ccbf fbbb 03c0 7378 7abd
00000020: c66a 9c3e 3914 93bf 166e 1dc0 04ec d83f
00000030: 4b74 283e c20a 46bf fa9e 9f3f 527b 0cc0
-2.2324584 -0.5780812 -2.0646412 -0.25395057 -1.1164337 -1.5938288 -2.0583484 -0.061150026
0.30550212 -1.1490546 -2.459844 1.6947026 0.16450612 -0.77360165 1.2470391 -2.1950269

conv_layer.4.running_var f4 [16]
00000000: fd60 5040 d7ce 8540 644f 3140 debe 9c40
00000010: 39d3 f53f fba9 8640 198b 3240 b870 cd3f
00000020: 88e7 8040 768d 9e40 2c9b 1540 9204 1a40
00000030: a096 7740 ac51 2340 d440 f53f 3efc 0c40
3.2559197 4.181499 2.7704706 4.898299 1.9205085 4.2082496 2.7897398 1.6050024
4.028263 4.954768 2.337596 2.406529 3.8685684 2.5518599 1.9160409 2.2028956

conv_layer.7.weight f4 [32, 16, 3, 3]
00000000: 509f 243d 43c1 db3d 3194 1dbb e963 583d
00000010: 2607 2f3d b17d 683d e814 a4bb 8be5 81bc
00000020: bbff 0bbd 6bcf 27be 512b 79be 89e2 8cbe
00000030: e1a7 47be 5f48 d4bd 12b4 083e 961a 93bd
00000040: c23b 74bd 6ea1 8cbc b890 dc3c b3e7 37be
00000050: 8e3f 67bd 47ff 5dbe c072 edbd f649 cd3d
00000060: e7b2 c8bd ce2b 893e f1f2 853d e9b5 9639
00000070: fd3c 833d 42ae f13d 9525 913e c111 153e
00000080: 7fbd 9bbd b842 843d 81a7 2f3e 16ca 47bd
00000090: 9d3c 86bc 8795 573e 036c e33d af5c bf3d
000000a0: 7950 66be cd06 97bd d7f9 d4bc 2f61 e0bd
000000b0: 40b4 523e f699 99be 66a2 00be ee5b 613d
000000c0: 74c0 92bc c5af 073e 0794 48bc 35a0 94bd
000000d0: 85e2 2f3c 63ac aa3d 666b 0e3e 91a6 96bc
000000e0: fdec 2ebd e6a5 193e 4508 543e 51bb 233e
000000f0: 15da 9c3d 9ea1 383d 62fa bcbb 9210 df3d
00000100: 1a15 8a3d 1fc1 bb3d 12d7 5abd ba1c 163d
00000110: 1fa8 36be d389 26be d79b 1cbe 87ff 89be
00000120: a117 81bd a948 e23c 3501 89bd 8484 cd3d
00000130: f7fa 39be f2e7 93bd 074a 913d 9df5 383d
00000140: d0d8 b53d a79c 563d a59f 8cbe 5df8 bdbd
00000150: dc56 10be 9c9e 82be 0aa7 ed3d 3105 483d
00000160: 696a 0a3d a879 e03d 7361 703e 95a4 c63d
00000170: ad0a c13d 99e2 f13d 40bf 8d3d 3ef0 81bd
00000180: 222b 8e3c b611 093d fb75 3cbe 49b2 92be
00000190: 2d19 5bbe 0cb0 c1bd d772 e7bd 86f1 0f3e
000001a0: e5b5 7c3e 785b 093d 77b3 663e 3bf6 5d3d
000001b0: a5f8 e43d 163c 1e3e 0623 6ebc 0078 123e
000001c0: 6eef 6dbe 179a fc3d 522d 18be 472f d8bd
000001d0: 9686 05bd 142b 213d af39 ea3c 5ef0 31bd
000001e0: eeb8 8ebb 6d4e a03d af24 df3d e6a0 90bd
000001f0: 32cb b13d 6b55 80bd 6eaf 3abe 91a6 88bc
00000200: 4152 a13d ee76 2c3e e4ea ae3e 0c37 87bc
00000210: c329 34bc 7c9f e2bc a66d 56bd 530d 15be
00000220: 3b3b 7fbd f603 203e f461 033e f24f 3b3e
00000230: 4eed 843d 6e05 33be 59f1 a53d 7d40 9a3c
00000240: c2cb 7a3d ae60 843c fb39 32bd 6d06 fabd
00000250: 1657 8f3e 05ac bfbb 769a 1e39 2591 923e
00000260: ada4 743d 1b48 d1bd 91a4 b43d fb21 d0bb
00000270: 309a 0abd 3b15 f53d f18c a6bd 2f54 1ebd
00000280: 031d 0c3d 545d 923e 9b9d c13c c401 7ebd
00000290: cf7a 4f3e 8fc3 493d e2ad abbc 24d3 ce3d
000002a0: ca13 523e 0e82 483d 7e04 6cbd 7ec5 f33c
000002b0: 2b16 29be 17da e6bd 2508 23be 1302 91be
000002c0: a72e 8fbe a1b1 fe3c d695 d0bd 1212 e5bd
000002d0: dc42 35be 0d86 113a 7603 4cbe c47b 37bd
000002e0: f55e 953e e25d d3bc 562f 25bd 82f0 8c3d
000002f0: d7c6 aa3d 8998 973d 3a7d b0be 72e4 55be
00000300: 7881 9abd c53c 8dbe 2193 a8be 14b1 42bd
00000310: 3d71 0bbe 577f fdbd adad a5bd 46de adbd
00000320: 7c36 3cbe ae09 cfbc a19e dfbd e37b 8cbc
00000330: 7e43 b7bd b465 1a3e 4bad 773e a306 8f3d
00000340: a55d 083e 5c2a 93bd c1c8 dd3d b61a 193e
00000350: d7ec 16bb 308d 013d 9870 663e 1507 cc3d
00000360: 8fe9 043e 2e80 d3bd a423 04bd ab77 023d
00000370: 788c 82bc f8d3 093e 8548 b539 1ae8 c43c
00000380: 3d6f b1bb 1914 3bbd bf30 9b3c fad4 c63c
00000390: 9b29 b53d 23db 073d ee40 9e3d cd9e bcbd
000003a0: 1b5d 58bc f61c 4a3e e97f 1d3e faa7 5ebd
000003b0: efcd 7ebd 4f45 8139 7675 5ebe 96e7 d63d
000003c0: 80f1 d53c 7a43 11bc be09 ee3d 5682 a43e
000003d0: 60c1 893e ce26 383d 74b3 543e 3773 0bbe
000003e0: e22d aabe b8da dd3d d9c9 8d3d 2370 b6be
000003f0: fb62 d83d 9c6c 3e3d 6e62 e5bd 3405 293e
0.040190995 0.10730221 -0.0024044628 0.052829657 0.042731427 0.056760494 -0.005007375 -0.015856525
-0.03417943 -0.16387717 -0.2433293 -0.27516583 -0.19497634 -0.10365366 0.13349941 -0.07182805
-0.059627302 -0.01716682 0.026924476 -0.1795948 -0.056457095 -0.21679412 -0.115941525 0.100238726
-0.09799748 0.26791233 0.06540478 0.00028745763 0.06408117 0.11800815 0.28348985 0.14557554
-0.07604503 0.06458038 0.17153741 -0.04877671 -0.016386325 0.21053134 0.11104586 0.0934385
-0.22491635 -0.07374344 -0.02599804 -0.10956036 0.20576572 -0.30000275 -0.1256195 0.05501931
-0.017914034 0.13250645 -0.012242324 -0.072571196 0.010735159 0.083336614 0.13908157 -0.018389972
-0.04270648 0.15004691 0.2070628 0.15989424 0.07658783 0.045076005 -0.0057671526 0.108918324
0.06742306 0.09167694 -0.053427763 0.03664849 -0.1783757 -0.16263513 -0.15293823 -0.26952764
-0.06303335 0.027622538 -0.06689683 0.10035041 -0.18162142 -0.072219744 0.07094198 0.04515611
0.08879244 0.05239549 -0.2746555 -0.09275887 -0.14095634 -0.25511634 0.11604126 0.048833076
0.033792887 0.10960704 0.23474674 0.0969936 0.09425864 0.11810798 0.06921244 -0.06344651
0.017354552 0.033464156 -0.18404381 -0.28651646 -0.21396323 -0.094574064 -0.11301201 0.14056978
0.24678762 0.033534497 0.22529398 0.0541899 0.11180238 0.15452608 -0.014534717 0.14303589
-0.23235866 0.12334078 -0.14861038 -0.105558924 -0.032599054 0.039347723 0.028591959 -0.043442123
-0.0043555414 0.078274585 0.10895669 -0.07061939 0.086813346 -0.06266292 -0.18230984 -0.016680988
0.07877017 0.16842243 0.34163582 -0.01650574 -0.010996285 -0.027663939 -0.052350663 -0.14555864
-0.062312346 0.15626511 0.12830335 0.18292215 0.06490575 -0.1748254 0.08102674 0.018829579
0.061229475 0.016159382 -0.043512326 -0.12208257 0.2799613 -0.0058493637 0.00015125595 0.2862636
0.05972736 -0.10218831 0.08820451 -0.006351707 -0.03383845 0.1196694 -0.08132351 -0.038654502
0.034207355 0.2858683 0.023634722 -0.062013403 0.20261692 0.049258765 -0.020956937 0.10098866
0.20515361 0.048952155 -0.05762147 0.029757258 -0.16512363 -0.11272066 -0.15921076 -0.28321895
-0.2796528 0.03109056 -0.10184829 -0.11185087 -0.17701286 0.0005551286 -0.19923195 -0.044795766
0.2917401 -0.025801603 -0.040328346 0.06881811 0.08338707 0.07402141 -0.3447054 -0.20887926
-0.075442255 -0.27585426 -0.3292475 -0.047532156 -0.13617416 -0.12377804 -0.08089767 -0.08489661
-0.18380159 -0.02527317 -0.10918928 -0.017148918 -0.0894842 0.15077859 0.241872 0.06983688
0.13316973 -0.07185814 0.108293064 0.14951596 -0.002302935 0.031628788 0.22503889 0.09962288
0.1297972 -0.10327183 -0.032260552 0.031852406 -0.015936121 0.13459766 0.00034577042 0.024036456
-0.005414872 -0.045673463 0.018944142 0.024271477 0.08845826 0.03316797 0.07727228 -0.09209976
-0.013205792 0.1973761 0.15380825 -0.054359414 -0.062208112 0.00024656436 -0.21724495 0.1049339
0.026116133 -0.008866185 0.11622952 0.32130688 0.26905346 0.044958882 0.20771581 -0.1361817
-0.3323813 0.10832733 0.06923265 -0.3563243 0.10565754 0.046490297 -0.112004146 0.16505891

conv_layer.7.bias f4 [32]
00000000: a8da 073d 98c4 8a3d 4016 9e3c c916 13bb
00000010: 86d4 eebc 0e08 1bbd 6b60 b9bb 9002 723d
00000020: fcbb 803d a607 7ebc e6b0 59bd c050 c3bc
00000030: a612 ca3c 46cc 2fbd a098 d3bb ec8c a03b
00000040: b619 923d 5f3c 943d 0776 87bc 708c abbc
00000050: 32e2 963d 105c 7d3d e0bb 7abd bc0f 963d
00000060: 16e0 a03d 4e4f 8fbd 1073 4d3d b80a 43bd
00000070: 8648 b1bc 771b 87bd 5b20 3c3d 7e2e 15bc
0.03316751 0.067757785 0.019297719 -0.0022444 -0.029154073 -0.03784948 -0.005657246 0.059084475
0.06285855 -0.015504753 -0.05314722 -0.023842216 0.024667095 -0.04291942 -0.0064574033 0.0048996117
0.0713381 0.07238077 -0.016535772 -0.02094099 0.07367362 0.061855376 -0.061214328 0.0732722
0.07855241 -0.06997548 0.05015856 -0.047617644 -0.021641027 -0.065970354 0.045929294 -0.009105323

conv_layer.8.weight f4 [32]
00000000: 9782 6c3f f35f 823f 9810 803f 85dd 893f
00000010: 51db 813f 0a05 913f ce91 8b3f 5da8 483f
00000020: d01a 833f c1e3 8d3f 786a 783f 3d0a 893f
00000030: 5000 9c3f f120 773f 293e 633f b81a 803f
00000040: 5dff 753f eb32 783f 298c 893f f5e4 7d3f
00000050: 40ce 903f 6df2 8b3f 6868 6d3f 1f8c 743f
00000060: b664 873f ee27 813f 0cc0 843f 4f11 833f
00000070: d4d4 813f 3640 5f3f 715a 783f 1521 903f
0.92386764 1.0185531 1.0005064 1.0770727 1.0145055 1.1329663 1.0903871 0.783819
1.0242558 1.108513 0.9703746 1.070625 1.2187595 0.9653464 0.88766724 1.0008154
0.9609278 0.96952695 1.0745898 0.99177486 1.1312943 1.0933357 0.92737436 0.9552631
1.057761 1.009031 1.0371108 1.0239657 1.0143075 0.87207353 0.97013 1.1260096

conv_layer.8.bias f4 [32]
00000000: 568f 073d 2aa3 993c edc9 523c 8290 993d
00000010: 2d90 65bc 1a5f 25bd b66c 0dbd 2bee e6bc
00000020: 7d9a 22bd fdab c03b 8980 3d3d 3427 12be
00000030: 26f4 e6bd de8e 2abd 8fcc a93b f0d7 18bd
00000040: 890d abbd 0a4f 23be 3179 d7bd e1db 7dbd
00000050: 2328 16be 1004 42be 5fda bfbd 452e e5bd
00000060: ad80 af3d 0bad 41be 21af b4bd 805b e83b
00000070: a77d 5abe 1f3f 96bd 77c9 96bd ae34 87bd
0.03309568 0.01875456 0.012865526 0.07498266 -0.014011425 -0.0403739 -0.034527503 -0.02818974
-0.039698113 0.0058798776 0.04626516 -0.14272767 -0.11277036 -0.041640155 0.005181856 -0.03731531
-0.08352191 -0.1594812 -0.10521162 -0.06197727 -0.14663748 -0.18946862 -0.09367823 -0.11190466
0.08569465 -0.18913667 -0.08822466 0.007090986 -0.21336995 -0.07336258 -0.07362645 -0.06601845

conv_layer.8.running_mean f4 [32]
00000000: a4ce 8d3e 4b13 24bf 115c aebf 06f2 d9bf
00000010: 94ca 3dbf 76a4 a7bf f11d c7bf 9355 c63f
00000020: 2792 85bf 39aa e1bf d16f b7bf b70e 93bf
00000030: c9ed 03c0 c839 a3be 736b 803e 5b31 88bf
00000040: 9adb 59bd 72a6 48bf a22a fbbf 2baa 87bf
00000050: 23ad cebf fca3 babf 85f5 86bf 7302 46bf
00000060: 307e a4bf b5f8 b9be 0177 00c0 75a8 d8bf
00000070: 2377 0ebe 7495 963e f044 59bf 65a8 55bf
0.27696717 -0.6409194 -1.3621846 -1.7026985 -0.74137235 -1.3097064 -1.5556012 1.5494865
-1.0435227 -1.7630073 -1.4330999 -1.1488866 -2.0613883 -0.3188002 0.25081977 -1.0640062
-0.053187944 -0.78378975 -1.9622386 -1.0598806 -1.6146587 -1.4581294 -1.0543677 -0.7734749
-1.2851009 -0.3632256 -2.0072634 -1.6926409 -0.13912635 0.294109 -0.84870815 -0.83460075

conv_layer.8.running_var f4 [32]
00000000: b3c9 1b40 4755 3c40 5516 0c40 eb3d 8040
00000010: 8fd4 3340 0a52 4a40 2da5 2a40 fcab 0040
00000020: 802f 3840 e54d 3940 7e4a 1340 70ba 1a40
00000030: 7085 5e40 347e 3040 2fcd 0540 03e2 2a40
00000040: aee2 1240 7e26 0d40 ea22 0d40 cb7a 2240
00000050: 4bd3 4c40 0407 1740 098b 2e40 6cd8 f33f
00000060: f1d3 6d40 2282 3440 4a39 1e40 7d31 3f40
00000070: 5ab4 0d40 ae77 4940 3b6e 1040 575f 5f40
2.4341857 2.942705 2.188863 4.0075583 2.8098485 3.1612573 2.6663315 2.010497
2.8778992 2.8953793 2.3014216 2.4176292 3.4768944 2.7577028 2.0906484 2.6700447
2.2950854 2.2054744 2.205256 2.5387447 3.2003963 2.3598032 2.727236 1.9050422
3.7160609 2.8204427 2.4722466 2.9873955 2.2141328 3.1479297 2.256728 3.490194

conv_layer.10.weight f4 [32, 32, 3, 3]
00000000: 0fe1 c5bd b3e9 f1bd 6316 eb3d 8422 803d
00000010: a6dc 0abe 2e82 7e3d 38f9 e3bc 5590 cebd
00000020: daf2 443d 768f a43d 113b 023c ce26 95bd
00000030: a72d cbbc 58b2 e83d ae01 7cbe 2f12 5bbd
00000040: 1f71 f33d 0fcf 533d c5da bbbb de07 d43d
00000050: 003f 6b3e 7689 8abe 9ad2 9c3d c1c6 543d
00000060: 7a3f 58be 93cf f23b 39e7 433e 2130 2dbe
00000070: dc72 053d 205d a33d 0034 68bd 2998 db3d
00000080: e57e 073c 2df6 ee3c cac2 50bd ae99 eb3c
00000090: c188 98bd 2dcd 1abe 4dca f9bc 4a73 10be
000000a0: 843a 45be 537f 23bd a726 99bd 149f 83bb
000000b0: d3df c0bd 4a26 0abd c248 acbc 1a8b 193e
000000c0: dafe a93d b02c 6cbd 69f3 f63d 14dc 28be
000000d0: 28ba 61bd dc0f 83bd c11e 5c3e 1687 20bd
000000e0: 5400 aabd 79bc 123d 8bcb 983d dc86 88bd
000000f0: 6d66 a13d 15ae 5cbd 68ba c0bd d09e d93c
00000100: b285 443c b65c 8dbd a354 7fbc 85ab 3bbd
00000110: 3880 57bd 80c3 a43d c3ea b13d 00fa 3b3c
00000120: 5f52 81bd 3b06 40be b120 b0bd 23ce 78bd
00000130: 7ca6 89be 1816 fabd 7e16 5f3c 187c d3bc
00000140: df67 1abe f68f 173e d29f cebd 81af b03c
00000150: 7fea b03d b6a9 82be 5fcd 46bd bc95 ce3c
00000160: 2a91 16be 5a63 abbc 9d19 32bd 36fb 0ebe
00000170: 473f 06be cadb 6f3d 3a7b 6d3d a22b 51be
00000180: 2474 00be 2253 f23c d4c6 cebc 1b41 beb9
00000190: 9fb5 9bbd 19d3 b93c 3030 9cbd 1a54 fdbd
000001a0: f885 4ebc fc61 b13c bfcc 82bc b861 133c
000001b0: a485 47bd 8a2c 053d cccd 3bbb 5b12 1d3d
000001c0: 7b5e a3bb fba3 50bd 0697 dd3d 69a9 5b3c
000001d0: 7875 d4bd c18d 39bd 054d f8bd d4d6 8dbc
000001e0: 6bce 1ebd e7df 4dbd b0af 433c b35a 17bd
000001f0: dd45 9f3c 33f0 afbd f65c 4d3d 90c6 babd
00000200: 378a 70bc d92b 663e a64a 07bd 14a4 b43d
00000210: a537 0e3e 6c46 babc 17ef d7bc c0fa b2bc
00000220: 20aa 41bc c68c 0b3d 84d5 aa3c fabe 4abe
00000230: 8d1b dbbd 5290 0f3e 4d0d 78bb 1377 82bd
00000240: 5a7b a03d e718 12be 3b73 473d f634 0cbe
00000250: ed8a 19be e2b6 06bc 9347 b23d 3574 cc3b
00000260: c708 15bd 9721 b4bd 227b ce3d 5d06 a8bd
00000270: 663b 873d c572 3f3e 0295 ca3c 2196 e8bd
00000280: 5e00 413e 1940 ea3c 6abf 043c 66bf debd
00000290: 63e9 ac3d 3e3b 91bd b728 92bd 4632 ab3c
000002a0: d7ad adbd 4823 333d 1618 79bd deec 31be
000002b0: b384 903d 9a08 6abb fed8 21be 0518 4abc
000002c0: 8162 a43d a7b3 08be 1368 b7bd 427e 383d
000002d0: e000 1dbe 8abf 22be 0b5e 323e 8f61 e7bc
000002e0: e636 2dbe e51f c73d f847 b4bd ce75 70bd
000002f0: 6f31 963d 30c7 b03c 2345 dd3c dd12 533b
00000300: 5314 923c ab3b 2b3e b0b3 2abd b327 393d
00000310: 4d79 05be a570 24bd 9989 1f3d 4ea0 0a3e
00000320: f25d fabb ffe5 a03d df42 023e aad3 71bc
00000330: 746a 91bd 66db 383d d616 b9bd 9889 193d
00000340: 046a 8dbc 6e47 513d c521 7f3d 5f1f 43bc
00000350: e07b dcbd 339d ddbd 2e1d ad3d ae80 d5bc
00000360: 1a92 18be 2896 3b3c e253 233e d9aa 6cbd
00000370: ac25 58bd dc15 b03d 7be8 8e3d 3955 cfbd
00000380: dcf0 1cbb 174c 4fbe f3c3 893d 565a 57bd
00000390: dfc1 eabd 25b1 ba3c e045 08bd 7bd4 093d
000003a0: c07e 73bc 05ee a5bd 18d8 cb3d b0a2 d03d
000003b0: 99ac 3ebd a8b2 60bb 1bc5 3e3e 97b2 34bd
000003c0: 0a73 26be 9e12 f63d bab3 16be c165 fb3d
000003d0: 9a11 abbd 4edd 11bd 4094 533e 4088 493e
000003e0: e34c 1a3c f15b c3bd 7520 8a3d 7006 c33b
000003f0: ce2d a2be ba8c 153a 4283 133e 7ce3 13bc
-0.09662067 -0.11812153 0.11478879 0.06256583 -0.13560733 0.062135868 -0.027828798 -0.10086123
0.048083164 0.080351755 0.007948653 -0.07282792 -0.024802042 0.11362141 -0.24610016 -0.053484138
0.118868105 0.05171114 -0.0057328665 0.10353063 0.22973251 -0.27058 0.076573566 0.05194736
-0.21117964 0.0074099987 0.19131173 -0.16912891 0.03258024 0.079767466 -0.056690216 0.107223816
0.00827 0.02917012 -0.050967015 0.028759804 -0.07447959 -0.15117331 -0.030491972 -0.1410648
-0.19260603 -0.039916348 -0.074780755 -0.0040167663 -0.09417691 -0.03372792 -0.021030787 0.1499447
0.08300562 -0.057659805 0.120581456 -0.16490203 -0.055109173 -0.06399509 0.21496107 -0.039191328
-0.08300844 0.035824273 0.07460698 -0.066663474 0.07880864 -0.053876955 -0.09410554 0.026564986
0.011994766 -0.06902449 -0.015584144 -0.04581787 -0.052612513 0.08045101 0.08687355 0.011473179
-0.06314539 -0.18752377 -0.085999854 -0.060743462 -0.2688483 -0.12211245 0.013616202 -0.025816008
-0.15078686 0.1480101 -0.10089077 0.021568062 0.086384766 -0.25520104 -0.0485357 0.025217883
-0.14703813 -0.020921398 -0.043481458 -0.13963017 -0.13110076 0.058559217 0.057978846 -0.20426801
-0.12544304 0.029580656 -0.025241293 -0.0003628813 -0.07603001 0.022683667 -0.076263785 -0.12369557
-0.012605183 0.021653168 -0.015966771 0.008995466 -0.048711434 0.03251318 -0.00286566 0.038347583
-0.004985628 -0.050937634 0.10819821 0.01340709 -0.10373968 -0.045301203 -0.12124065 -0.017314352
-0.038771074 -0.050262358 0.011943743 -0.036951732 0.019442493 -0.08590736 0.050137483 -0.09119904
-0.0146813905 0.22477664 -0.033030175 0.08820358 0.13888414 -0.022738658 -0.026359124 -0.021848083
-0.011820346 0.0340698 0.020853765 -0.19799414 -0.10698614 0.14019898 -0.0037849725 -0.06370368
0.078360274 -0.14267312 0.048693877 -0.13692078 -0.14994402 -0.008222314 0.08705058 0.006239439
-0.036385324 -0.08795469 0.100820795 -0.08204339 0.06603126 0.18696125 0.024729256 -0.1135676
0.18847796 0.028595017 0.008102277 -0.1087635 0.084429525 -0.07091378 -0.07136672 0.020897996
-0.08480423 0.04373482 -0.060813986 -0.17375514 0.0705656 -0.0035710693 -0.15805432 -0.012334828
0.08026601 -0.13349782 -0.089553975 0.045042284 -0.15332365 -0.15893379 0.17418687 -0.028244762
-0.16915473 0.0972288 -0.088027894 -0.058706097 0.073336475 0.021579355 0.027010506 0.0032207288
0.017831957 0.1672198 -0.04167527 0.045203876 -0.13034554 -0.04014649 0.038949583 0.13537714
-0.0076405937 0.07856368 0.12720822 -0.014759937 -0.071003824 0.04513111 -0.09037559 0.037484735
-0.017262466 0.05109351 0.062288065 -0.011909335 -0.10765815 -0.10820999 0.08452831 -0.026062336
-0.14899483 0.011449374 0.15949968 -0.05778012 -0.0527703 0.08597919 0.06977936 -0.10123677
-0.0023947274 -0.2024387 0.067268275 -0.052576385 -0.11462759 0.022789547 -0.033269763 0.033649903
-0.0148617625 -0.08102039 0.09953326 0.1018728 -0.04655132 -0.0034286175 0.18629877 -0.04411563
-0.16254821 0.1201527 -0.14716998 0.122752674 -0.083529666 -0.035611443 0.20662022 0.19680882
0.009417745 -0.09539021 0.06744472 0.005951695 -0.3167557 0.0005704869 0.1440554 -0.0090264045

conv_layer.10.bias f4 [32]
00000000: a01f 303d e4c3 27bc 8215 47bd 7b67 663d
00000010: a380 6dbd 5693 1f3d ac9c 6bbd 7a16 10bd
00000020: 918a f4bc 1ac4 823c 30be e1bc 71af d63b
00000030: b60c 413d 5520 c83c 9182 1fbc 2171 163d
00000040: 3d00 d73c 1e27 263d 02d2 91bc 464a ebbc
00000050: 5e9c 05bd 189d 2dbc 28fd 3bbd 9a20 4b3d
00000060: 2c58 6abb 36fa 1bbb f756 4dbc 51aa 24bd
00000070: 57d7 22bc 9c37 65bd 6742 40bc ad24 323d
0.04299891 -0.010239575 -0.048604496 0.05625103 -0.057984006 0.03895887 -0.05752246 -0.035177685
-0.02985123 0.01596265 -0.027556509 0.006551676 0.047131263 0.02442948 -0.009735719 0.036728982
0.02624523 0.04056465 -0.017800335 -0.02872194 -0.032619826 -0.010596536 -0.045895725 0.04959164
-0.003575812 -0.002380026 -0.012532941 -0.04020149 -0.009939036 -0.055961236 -0.011734582 0.043492008

conv_layer.11.weight f4 [32]
00000000: a8e0 713f a270 763f fba8 7d3f 567e 7b3f
00000010: 20f2 923f c426 6b3f 376c 6f3f 254f 683f
00000020: 1d34 783f c28a 7f3f 591c 803f cf60 713f
00000030: ccdc 833f f104 813f 0610 883f 0c16 7f3f
00000040: 4ce0 753f 4546 7f3f 6dbf 693f 28c6 843f
00000050: d587 793f 7147 7e3f 715c 8b3f 286a 7f3f
00000060: 2a48 753f 8302 783f ee11 7a3f 6d1c 803f
00000070: 2b4a 863f d7d8 873f fe5f 6f3f d707 873f
0.94483423 0.96265614 0.9908597 0.9823965 1.1480141 0.91856027 0.935245 0.90745765
0.9695452 0.998211 1.0008651 0.94288343 1.0301757 1.0079633 1.062989 0.99643016
0.96045375 0.997166 0.9130772 1.0372972 0.9747289 0.9932776 1.0887586 0.99771357
0.9581324 0.9687883 0.9768361 1.0008675 1.0491384 1.0613049 0.9350585 1.0549268

conv_layer.11.bias f4 [32]
00000000: ad07 8fbe b52e 2cbe b903 76be 728a aabe
00000010: 90bb 11be efa5 77be 27b9 a6be bf29 a3be
00000020: b9d5 82be 2db3 4abe 309c 8abe bd22 92be
00000030: 1f7b 82be 9cc8 79be 1554 b6be a224 8dbe
00000040: cb6e 39be 1679 5ebe 216c 06be acb6 aabd
00000050: 060e b5be b714 10be 0e07 77be 185c 6dbe
00000060: 7369 91be 88ce a1be 1822 70be d185 76be
00000070: e448 78be fc9b cabe 1e86 a6be c913 69be
-0.27935544 -0.16814692 -0.24024858 -0.3330875 -0.14231706 -0.24184392 -0.32563135 -0.31867787
-0.25553682 -0.19794913 -0.27072287 -0.28542128 -0.2548456 -0.24392933 -0.35611024 -0.2756701
-0.1810867 -0.21725878 -0.13127185 -0.08335623 -0.35362262 -0.14070402 -0.24123785 -0.23179662
-0.28400764 -0.31602883 -0.23450506 -0.24074484 -0.24246556 -0.39572132 -0.32524198 -0.22761454

conv_layer.11.running_mean f4 [32]
00000000: 1d08 a0bf 033b 453e b89b 953f 64a0 3dbf
00000010: df19 39c0 5984 c5be 5cf2 4abf 5975 80be
00000020: 00d6 63be 0b4d f5bf 0c4d 0fc0 6619 973e
00000030: 0602 cfbf d105 dbbe c1fe 98bf e42c 943f
00000040: 900d 79bf bb70 febf 0825 b9bf 369a 53bb
00000050: e205 00bf da74 e3bf c89e 1ec0 0a79 99bf
00000060: dc21 d7bf 6eca 8ebe fe64 8bbe 7423 1fc0
00000070: 5eed edbf 6b19 8fbf bc0d 81bd b536 bf3e
-1.2502476 0.19260792 1.1688147 -0.7407286 -2.892204 -0.38577536 -0.7927606 -0.2508953
-0.22249603 -1.9164137 -2.2390776 0.29511565 -1.6172493 -0.42777875 -1.1952745 1.15762
-0.9728632 -1.9878153 -1.4464426 -0.0032287962 -0.50008976 -1.7770035 -2.4784412 -1.1990063
-1.6807208 -0.27888817 -0.27225488 -2.486539 -1.8588064 -1.1179632 -0.06301448 0.37346426

conv_layer.11.running_var f4 [32]
00000000: 66e2 d13f c7bf be3f a9f5 d23f 03e9 bf3f
00000010: 1d79 dd3f 97ff aa3f 3122 ac3f b2ec a63f
00000020: 9a1a b33f 76a7 e63f e0fd eb3f 7f8f bf3f
00000030: 1f16 d73f 056f dc3f 5fd5 0640 920f cb3f
00000040: 4ea7 e73f cde5 b63f 4059 ac3f 4383 bb3f
00000050: a5d0 bf3f 117a b13f 2258 ec3f 7f09 bd3f
00000060: c647 df3f e539 ae3f d2e2 af3f 7a6b b13f
00000070: 1ad0 c53f cb7d d63f d900 ab3f 1c00 f93f
1.6397216 1.4902276 1.648122 1.4992985 1.7302586 1.335925 1.3447934 1.3040984
1.3992493 1.8019855 1.8436852 1.4965667 1.6803626 1.722138 2.1067731 1.5864127
1.8097932 1.428888 1.3464737 1.4649433 1.4985548 1.3865377 1.8464396 1.4768523
1.7443779 1.3611418 1.3741095 1.3860924 1.5454133 1.6757139 1.3359634 1.9453158

conv_layer.14.weight f4 [64, 32, 3, 3]
00000000: a744 91bb c6d2 cf3c 960f 1abd 569c 863d
00000010: 4758 a8bc 7dd7 5e3d bcb4 08be f927 123e
00000020: b895 083e 264e 01bd c446 a13d a74f 003e
00000030: 1227 c5bd 7edd ecbb f783 0d3e c24c 50bd
00000040: 7c2a 1b3d 485c 173b 3a15 9d3c b06c e1bb
00000050: e80a 6dbd d778 c23a 42a7 3cbd 7c58 973c
00000060: e481 d5ba e9c4 903b 38c7 2ebd ff1e 643e
00000070: 6ca7 903d 4530 47bc 7f65 7c3e 782e 273e
00000080: d46c 2fbc ba07 b73d fce6 4c3d 05b8 1ebd
00000090: 903e 2a3b 5e40 2c3c dcae 0c3d b277 f33d
000000a0: 1cff 97bd 05fe 28bc c3d1 953d 2ba5 e0bd
000000b0: 51bf 27be 2c0a 65be 595e c1bd a0e3 d53b
000000c0: efdf 1dbe 2f21 babd f899 99bc 5726 31bd
000000d0: ec64 23be 8c8a 63bd f0b8 15be 331f 3bbd
000000e0: b793 6c3c aad4 8ebd 98e7 ee3c 1a32 1e3d
000000f0: 4196 73bd 2995 af3a 7dc6 0d3e 827e 67bd
00000100: c17b c93d c705 653d e7e0 e73d 5523 e43d
00000110: 7bae d93d 79ff 373e 678a 793d f261 b63c
00000120: 8f9d 9c3d bc27 1a3e c294 3c3c 7782 203c
00000130: 2357 583d 31b8 723c 4fe8 143e 9ee3 043e
00000140: 6871 f13d 1cca 023c 3872 b5bd ac78 2b3c
00000150: 755d 533e c80a be3d 3c6a 033d 50e5 503b
00000160: 4e4c cf3d 2cfa 2dbc 135e e9ba 5cb7 42bd
00000170: 5196 00be 9eee 16be 6d88 533c 8224 12bd
00000180: c28d 7abd f4e5 b2bc 7e76 863d 18c3 dd3d
00000190: 0b18 99bd e207 e2bd 159b 873c 9de0 8ebc
000001a0: 201e b4bc 5088 84bd 672a 543d 479b a1bd
000001b0: 49d7 903d 9354 133e 92c5 253d 90cb 343e
000001c0: 97ab 363e 4269 073e 45ef 93bd 99be 7e3c
000001d0: 96b9 8cbc bd2d c13d 88fd 99bd c690 11be
000001e0: 0b22 efbd 694a 5cbd 7725 4cbd a951 27be
000001f0: ae9d 4ebd 330c 043d e22f 763d 711c e93d
00000200: 97c9 fe3c 3067 e5bc 5bcc 1bbd b352 01bd
00000210: 4b4a 2bbe 098a 2ebd 4cb5 0cbe 3693 88bd
00000220: 36f8 2fbe 13f2 be3d 8e72 dabd e79c 20be
00000230: ea9f b0bd 1648 073d 650d c1bd 9755 42bd
00000240: cd81 fa3c 9521 8c3b 7b48 c83d 24b6 f83d
00000250: cb36 593e b025 13bd fef2 6abd 5ee6 763d
00000260: c075 ea3d 0f32 363b 8bf6 e23d 9300 bcba
00000270: a711 8f3d b04d f13d fbfc 023d 006b c7bd
00000280: cfbb 27be 8227 37bd b89b da3d 05b3 953d
00000290: 40e8 61bd 1abd 19bc a2f0 0a3e 05bc 8a3d
000002a0: e672 fdbd 161f 9abd 86cf ebbd 6944 e1bb
000002b0: 9f00 e63c acdf bb3d 3f25 9cbd d375 673d
000002c0: e2d1 acbc 31b1 84ba ea49 cf3c db32 e3bd
000002d0: 12ca c5bd 1e94 a7bd 818d efbd 6bad 02be
000002e0: a29f 7bbe 9975 eabd ea48 edbd 9e32 bfbd
000002f0: 649d d0bd 1716 c0bc 68e1 3bbc 2236 383d
00000300: a6fb a5bc 1973 7f3d 2162 073e 326c b93d
00000310: 7d42 ce3c a07d fc3d 8a1a 573d a8c8 f53d
00000320: 8af5 ba3c 3553 c8bc aad8 54bd 8fe1 513c
00000330: 2961 46ba 7eaf 65be 3822 0abe ec40 32bd
00000340: bbd1 e1bd 1599 ddbc c73e a5be 1079 f8bd
00000350: aaa6 af3d 56b5 32be e4e1 af3d b11d c6bc
00000360: 3a6d 41bd 7d69 abbd b01a a4bd 6acf 763d
00000370: 9098 a7bc 30c2 213d 3b03 e53c 8dc1 ebbc
00000380: ab1d 1a3e 1053 103e 926b 31ba aa38 fabd
00000390: 2b78 d43d becd 70bd 25d2 33be 9adf c7bc
000003a0: 1465 13bd 5307 22be bf12 bc3d bfb5 2abc
000003b0: 89ed 283e 85ab 98bd 46f4 233d 7993 013e
000003c0: bcca 6a3b 7c5a 1e3e 8a93 aabc 4766 68bd
000003d0: 33bd 163e 5474 363d 65b2 74bd 1051 233e
000003e0: 5441 98bc fa5f 233b 0e0f 7d3d 1ae6 fcbd
000003f0: 3f7e 1abe e99a cfbd 91a4 79bd 8482 07be
-0.004433233 0.02536906 -0.03761252 0.065727875 -0.020549906 0.054404724 -0.13350195 0.14273061
0.13338363 -0.03156867 0.078748256 0.12530385 -0.09626593 -0.0072285524 0.13819872 -0.050854452
0.037882313 0.0023095775 0.01917516 -0.0068794116 -0.05787173 0.0014837038 -0.046057947 0.01847481
-0.0016289321 0.004418005 -0.04267046 0.22277449 0.07063183 -0.012157504 0.24648093 0.1632632
-0.010707099 0.089370206 0.05002497 -0.038749713 0.0025977232 0.010513393 0.034346446 0.118880644
-0.07421705 -0.010314469 0.073153995 -0.10969003 -0.16381575 -0.22367162 -0.094418235 0.006527379
-0.15417455 -0.090883605 -0.018750176 -0.043249454 -0.15956467 -0.05555205 -0.1462133 -0.04568405
0.014439515 -0.06974156 0.029163167 0.038622 -0.059469465 0.0013395894 0.13845249 -0.05651713
0.09838057 0.055913713 0.113221936 0.111395516 0.10628983 0.17968549 0.060923006 0.0222635
0.076472394 0.1505422 0.011510076 0.00979673 0.052817475 0.0148144225 0.14541744 0.12977454
0.11789209 0.007982757 -0.08859676 0.010465782 0.2064112 0.092794 0.032083735 0.0031874962
0.10121976 -0.010618728 -0.0017804526 -0.047538146 -0.12557341 -0.14739463 0.012910944 -0.035679348
-0.061170347 -0.021838166 0.06565569 0.10828227 -0.07475289 -0.1103666 0.016553441 -0.017441088
-0.021987021 -0.06471312 0.05179825 -0.07890945 0.070723124 0.14387731 0.04047162 0.17655778
0.17838894 0.13223746 -0.072233714 0.015548372 -0.017178338 0.09432552 -0.075190604 -0.14215383
-0.11676415 -0.0537819 -0.049840417 -0.16339745 -0.050443344 0.032238197 0.06010426 0.11382378
0.031101985 -0.028003305 -0.038036685 -0.03157301 -0.1672756 -0.04261211 -0.13741034 -0.06668703
-0.17184529 0.09323516 -0.10666381 -0.15684853 -0.08624251 0.03302773 -0.09426383 -0.047444906
0.030579472 0.004276464 0.097794496 0.121441156 0.21212308 -0.035924613 -0.05736064 0.06027829
0.1144824 0.0027800833 0.110821806 -0.0014343433 0.06985789 0.11782396 0.031979542 -0.097372055
-0.16380237 -0.044715412 0.10674232 0.07309536 -0.05515313 -0.009383464 0.13568357 0.06774143
-0.12375431 -0.075254604 -0.11514191 -0.00687461 0.028076468 0.091735214 -0.07624292 0.05650885
-0.021096174 -0.0010123608 0.0253038 -0.11093684 -0.096576825 -0.08182548 -0.116969116 -0.12761466
-0.24572614 -0.11448211 -0.11586173 -0.09335826 -0.1018627 -0.023448033 -0.011467315 0.0449735
-0.020261597 0.062365625 0.13221027 0.0905384 0.025178188 0.123286486 0.052515544 0.12001163
0.02282216 -0.024453739 -0.05196444 0.012810125 -0.00075675786 -0.22430226 -0.13489616 -0.043518946
-0.11026331 -0.027050534 -0.32274458 -0.12132466 0.085767105 -0.17451987 0.08588007 -0.02418408
-0.047223307 -0.0836973 -0.08012903 0.0602564 -0.02045849 0.039491832 0.027955642 -0.028778816
0.1505038 0.14094186 -0.00067680434 -0.12217839 0.10374483 -0.05878996 -0.17560633 -0.024398614
-0.035985067 -0.15823106 0.09183263 -0.010419308 0.16496862 -0.0745459 0.04002788 0.12653913
0.0035826406 0.15464205 -0.020822305 -0.056738164 0.14720611 0.044544533 -0.059740443 0.15948892
-0.018585838 0.0024929033 0.061781935 -0.12348576 -0.15087222 -0.10136969 -0.06094796 -0.13233382

conv_layer.14.bias f4 [64]
00000000: fecb 05bb 9a3b eb3c 8b29 7abc 483a bdbc
00000010: 1c98 933a 13fb bc3b f111 5bbd e79d f9bc
00000020: 74ff 47bd 7d15 6bbd 623b 92bc d4fd ff39
00000030: fa57 b5bc eab3 c9bc 5576 f0bc 1db3 a4bc
00000040: f912 183d 7ba0 2cbd f115 15bd ec0e 73bc
00000050: e7b6 52bd ee8a a53c a821 553d 6c92 26bd
00000060: 9447 0539 0fa8 2bbd c1e1 633d 2ff3 1bbd
00000070: 0cd2 9d3c c0bb 3e3a a614 d03b c6a3 d93c
00000080: 5568 59bd 0ab0 27bd ef05 b83b f198 adbc
00000090: 3d2b 4bbd 982f 3e3d f6b0 24bd a463 263d
000000a0: c80e 1fbd b6f7 ed3c 75c1 873c 6e23 6a3d
000000b0: 476e 193c 1def 36bd b282 8b3c e86f b839
000000c0: 649b 5c3d cc48 433d 5774 803c ad89 443d
000000d0: 411c 5fbd 4f27 003c 9208 6bbd 623e 5cbb
000000e0: 7c65 d0bc c6e6 22bc 0131 3c3d 7d61 52bd
000000f0: 189e 3dbd f30d 653c 5b59 083d e360 68bd
-0.0020415778 0.028714944 -0.015268694 -0.02309908 0.0011260542 0.005767235 -0.053483907 -0.030470802
-0.048827603 -0.05739354 -0.017850582 0.00048826507 -0.022136677 -0.024621923 -0.0293533 -0.02010494
0.03712747 -0.042145234 -0.036397878 -0.014835101 -0.05144396 0.020207848 0.05203405 -0.040666983
0.00012710533 -0.04190832 0.055635218 -0.038073715 0.019265197 0.0007275902 0.0063501177 0.026567351
-0.053078014 -0.04093937 0.0056159417 -0.021191092 -0.049601782 0.046432108 -0.040207826 0.04062237
-0.038832456 0.029048782 0.01657174 0.057162695 0.009364671 -0.04466163 0.017030094 0.00035178591
0.05385913 0.047676846 0.015680475 0.04798286 -0.054470304 0.007821872 -0.05738122 -0.003360652
-0.025439017 -0.009942716 0.04594517 -0.051362503 -0.046293348 0.0139803765 0.03328834 -0.056733023

conv_layer.15.weight f4 [64]
00000000: 9a08 773f 5e11 803f 190b 5f3f 34a9 813f
00000010: 6ca1 6d3f 1dd6 8a3f 2264 863f 296d 5f3f
00000020: cb1b 7c3f 675e 7c3f f386 613f 184c 6e3f
00000030: a613 8a3f 9308 6e3f 9cad 8b3f 482d 843f
00000040: cbaf 823f b051 873f e771 6e3f 599a 6b3f
00000050: 9595 703f 58f0 813f 90c5 6e3f efaf 6f3f
00000060: 1caf 743f 453a 833f f4e4 7c3f 427b 7d3f
00000070: 5a47 753f 32ae 723f 55f5 6f3f 6f95 763f
00000080: c744 6f3f 7cd1 6f3f 85b9 813f ad20 8a3f
00000090: aaab 563f 03d8 7b3f b444 813f 7c84 763f
000000a0: 002c 893f b2b5 813f 457a 703f 8e57 783f
000000b0: f9b1 663f 0cc5 6d3f 7414 823f 97e6 813f
000000c0: f744 763f efcf 783f 4444 7b3f 348a 813f
000000d0: 30c3 4f3f d86f 683f 745c 793f 7355 8a3f
000000e0: 5cb7 743f a05e 8f3f 0e0a 833f 779c 753f
000000f0: 9587 763f 8acc 683f d3fa 723f 981b 753f
0.964975 1.00053 0.8712631 1.0129762 0.92824435 1.0846592 1.0499308 0.8727594
0.9847991 0.98581547 0.8809654 0.9308486 1.0787246 0.92981833 1.0912356 1.0326319
1.0209898 1.0571804 0.9314255 0.9203239 0.93978244 1.0151472 0.93270206 0.9362783
0.95579696 1.0252157 0.98786855 0.990162 0.95812 0.9479705 0.9373372 0.9632177
0.9346432 0.9367902 1.0134741 1.0791222 0.8385569 0.9837648 1.0099092 0.96295905
1.0716553 1.0133574 0.9393657 0.970086 0.90115315 0.92878795 1.0162492 1.0148495
0.9619898 0.9719228 0.9815104 1.0120301 0.8115721 0.9079566 0.974067 1.0807327
0.95592284 1.1200752 1.0237443 0.9594187 0.9630063 0.909371 0.9491398 0.9574523

conv_layer.15.bias f4 [64]
00000000: 38b4 81be 5baa 96be 238f 78be 73b1 83be
00000010: 24b2 a3be a093 cfbe 0cd3 a3be fe49 99be
00000020: 1596 adbe e010 b7be 3518 89be 677b c2be
00000030: 9a62 aabe 592b 95be 4355 b2be 567e a0be
00000040: 3c36 b2be 87b7 5fbe ea1f 6abe b1e9 b9be
00000050: 294d 96be 0d28 7ebe 6e0e 76be 9a66 8ebe
00000060: b018 45be d077 36be 5d48 98be ce1c 83be
00000070: 0996 94be fa28 97be a82c 49be af95 76be
00000080: da34 c5be 806e 5abe 2f55 8cbe 7866 90be
00000090: d4fa 98be 1c39 65be b150 5bbe d1f2 6fbe
000000a0: a6cc b9be 052d 9abe f7e6 8ebe 31b6 72be
000000b0: 71e0 85be c113 66be fdc2 aabe 5881 85be
000000c0: 7aa9 90be 1326 2bbe 406c afbe 225f 6cbe
000000d0: e92b 24be d691 aabe 499d 0fbe 907d 9dbe
000000e0: dba0 8ebe 7061 89be e15c dabe 7932 7abe
000000f0: d96a 9ebe aa1b adbe e9e0 7bbe 4142 8cbe
-0.25332808 -0.29426846 -0.24273352 -0.2572132 -0.31971848 -0.40542316 -0.31996953 -0.29939264
-0.33903566 -0.35755062 -0.2677628 -0.37984774 -0.33278352 -0.29134634 -0.34830675 -0.31346387
-0.34807003 -0.21847354 -0.22863737 -0.36311105 -0.29355744 -0.24819966 -0.24028942 -0.27812654
-0.19247699 -0.17819142 -0.2974271 -0.25607914 -0.29020718 -0.2952345 -0.19645941 -0.24080537
-0.38516885 -0.21331215 -0.2740874 -0.28203177 -0.29878867 -0.22385067 -0.214175 -0.23432471
-0.36288947 -0.30112472 -0.27910587 -0.23702313 -0.26147798 -0.22468473 -0.3335189 -0.26075244
-0.282543 -0.16713743 -0.34262276 -0.23083165 -0.16032375 -0.3331439 -0.14024843 -0.3075986
-0.27857098 -0.2683215 -0.42648986 -0.24433316 -0.30940893 -0.33810169 -0.24597515 -0.27394298

conv_layer.15.running_mean f4 [64]
00000000: 6fee 8bbe a592 8cbe c9ff 383f 86a0 3dbf
00000010: a7fb 3fbd 6308 56bf 3aec 92bf f5b6 1c3f
00000020: d930 b0bc 4b82 45bf f69c d73f 0ba3 6e3f
00000030: 4055 49bf 8edb 00bf 267d 4fbf 76d2 48bf
00000040: 0492 57bf 67e4 10c0 d5c2 063e ecb2 3a3e
00000050: 8a07 a33f efec 27bf 7308 e7be d1b5 3a3d
00000060: cab1 8abe bbf1 29c0 a762 51bf bad8 50bf
00000070: 09ad 003f 2b00 293e fde7 67bc 0214 99bf
00000080: 7eec 963f 5d26 a9bf e671 07bd e33f fdbf
00000090: 8a84 dd3f ae89 77bf 2fa8 063e e3bc 90bf
000000a0: 7755 26c0 2bd3 6f3a aa97 c6be d9a8 34bf
000000b0: 9924 d5bd 010e 78bf 7382 31bf 6ce4 4bbf
000000c0: d605 b7bf 0f73 09bf 45b3 5fbf 20f7 52be
000000d0: 5a2b 93be d466 4b3f e425 89bf b79a 66bf
000000e0: 4eea 22be d2fc f6bf d61c 0fbc 584e 71be
000000f0: 23b7 97bf 9b54 743f b0aa 8a3f e47d 09bf
-0.27330348 -0.2745563 0.722653 -0.74073064 -0.046870854 -0.8360655 -1.1478341 0.6121667
-0.021507667 -0.77151936 1.6844776 0.93217534 -0.78645706 -0.50335014 -0.81050336 -0.7844614
-0.8420718 -2.2639406 0.1316026 0.18232316 1.2736676 -0.65595907 -0.45123634 0.04558355
-0.27088767 -2.655379 -0.81791157 -0.815807 0.5026403 0.1650397 -0.014154431 -1.1959231
1.1790922 -1.3214833 -0.033067606 -1.9785122 1.7306073 -0.9669446 0.13150094 -1.1307644
-2.5989664 0.0009148593 -0.38787585 -0.7057014 -0.10407371 -0.9689637 -0.69339675 -0.7964542
-1.4298656 -0.5369119 -0.8738292 -0.20602083 -0.28744012 0.7945378 -1.0714688 -0.90079826
-0.15909693 -1.9295905 -0.008734902 -0.23565042 -1.1852764 0.954416 1.083334 -0.5370772

conv_layer.15.running_var f4 [64]
00000000: 783a 1c40 5ff2 d53f cdbb c33f 6efc 0640
00000010: e90d fb3f 3f52 0740 49aa 3640 ead9 dd3f
00000020: 82d7 d53f 61dc b93f c06a d33f 3a6c 0840
00000030: 7ca3 1640 f935 cb3f 895f 0540 e6a7 da3f
00000040: 125d d03f 33d8 1a40 06d5 ea3f be7e e13f
00000050: 6c25 b23f 2e15 e93f e5f2 bf3f f5be db3f
00000060: 315a c13f 0c60 f13f aec4 0340 ffbc f53f
00000070: 4432 0640 914d df3f 6369 c93f 04c8 ba3f
00000080: 2e94 df3f 2913 e93f 9fb7 f03f c9d8 e93f
00000090: bf2e e53f 858b 0040 fd31 0c40 4a11 af3f
000000a0: e37f 5d40 26c7 0c40 ca4a db3f dbf2 cb3f
000000b0: 0b7d cd3f 2cf9 0440 f891 f53f f80c cc3f
000000c0: b9d1 cc3f e205 c63f 477a be3f 1712 1940
000000d0: 8797 ec3f daa3 bc3f 38a8 ef3f 7559 1c40
000000e0: 161a f63f 7f77 1940 2ae3 df3f de53 e33f
000000f0: 23de c43f 98fd b43f 9e6b cf3f c071 e73f
2.4410686 1.6714591 1.5291687 2.109157 1.961362 2.114395 2.8541434 1.7332127
1.6706393 1.4520379 1.6516953 2.1316056 2.3537283 1.5875846 2.083956 1.7082489
1.6278403 2.4194458 1.834626 1.7616804 1.391767 1.8209589 1.4996 1.716765
1.5105649 1.8857436 2.0588794 1.9198302 2.096818 1.7445546 1.5735286 1.459229
1.7467096 1.8208972 1.8806037 1.8269283 1.7904891 2.0085156 2.190551 1.3677151
3.4609306 2.199655 1.7132199 1.5933489 1.6053785 2.0777082 1.9185171 1.5941458
1.6001502 1.5470545 1.4881066 2.391729 1.8483742 1.4737504 1.8723211 2.44296
1.9226711 2.3979185 1.74912 1.7759969 1.5380291 1.4139891 1.6204717 1.8081589
