Knowledge Distillation/TAKD/saved/10-8-6-2.pth (torch, 58298 bytes, 14 tensors)

conv_layer.0.weight f4 [16, 3, 3, 3]
0.14462498 -0.5501319 0.08586605 0.34677947 0.87922853 0.36599687 -0.5259748 -0.40528038
-0.49340457 0.0759291 -0.9346269 -0.10352026 0.52291334 1.2774563 0.48780948 -0.40954182
-0.4339592 -0.56834805 0.14891751 -1.1691891 -0.5957371 0.7270804 1.3023155 0.4384338
-0.40618145 -0.367952 0.02493824 -0.074696735 -0.6675377 0.81018806 -0.6854978 1.1978377
-0.045277815 1.2743559 -0.050440155 -0.97391456 0.14445652 -0.5698877 0.2890192 -0.8035177
1.0139655 -0.09028011 0.24821901 -0.2817988 -0.5640535 0.12807415 -1.0672482 0.4073545
-0.97667897 0.92588603 0.467252 0.23310897 0.26384342 -0.1287914 -0.12195346 -0.35957557
-0.078052655 -0.514294 -0.3845326 -0.5567315 -0.6193689 -0.18716617 -0.68719435 -0.050642144
0.24079819 -0.22996952 0.024270013 0.6615847 -0.1702462 -0.32498938 0.046477642 -0.2603124
0.07658329 0.6977851 0.19029424 0.2801805 0.94831717 0.6106649 -0.1905636 0.45910913
0.14840376 0.04778946 0.04057131 -0.3129882 0.02558536 0.26855868 0.12191133 0.22405893
0.06065994 0.5491134 0.06996078 0.21593884 0.06274055 -0.48759103 0.15967372 0.39099303
-0.47595105 -0.058596052 0.48871633 -0.016787382 -0.037082605 0.23199987 -0.5010299 0.021916147
0.6582144 -0.7480063 -0.18206954 0.54172784 0.14865334 -0.629284 0.37375396 0.78352106
-1.40128 0.74544686 0.57854176 -1.0128711 0.3177579 0.3705411 -1.0977082 0.36221448
0.9656252 -1.702597 0.884903 0.8685402 -1.6432835 1.0101435 0.38837412 -0.63277036
0.44328618 0.8698013 -1.6905245 0.8059313 0.63634366 -1.343401 0.6238045 0.038368285
0.019855497 0.50167894 0.3176461 -0.15153848 -0.31676528 -0.017752344 -0.8022139 -0.20170511
-0.22835907 0.11373881 -0.26722422 -0.10253816 -0.045414455 -0.33036354 0.3371077 -0.34899235
0.11420663 -0.2054327 0.121137396 -0.7476956 0.30402607 0.77780646 0.35100287 0.6437336
0.4480508 0.6337868 0.5332108 0.52595997 0.9618491 -0.49415907 -1.101678 -0.14949162
-0.51331836 0.104123995 0.6527213 0.093687855 0.5226279 0.49755996 -0.16439204 -0.8176925
-0.5170735 -0.23984402 -0.2641921 -0.24805816 0.33776593 0.5258946 0.13141765 0.48919514
-0.3764643 -0.49741393 0.27702802 -0.0059983926 -0.5741721 -0.6720571 -0.8253189 0.1738801
-0.094080545 -0.3968314 -0.17566343 -0.3154714 -0.5309242 -0.02899709 0.7915633 0.9721222
0.8581548 1.0301487 0.9551653 0.38981545 0.23840666 0.2571626 0.17153843 -0.39797238
-0.69599795 -0.20382014 0.19263224 -0.8692324 -0.70197535 -0.040473256 -0.45914957 0.25056884
1.3397756 0.47391325 -0.5210945 0.5846068 -0.7384514 -0.99045295 0.32513136 -0.6634951
-0.5716659 -0.3546065 0.27784842 0.08116097 -0.0106381485 -0.18119416 -0.018868547 -0.16961128
0.1631303 0.21146917 -1.1091181 -0.056467623 0.056655556 -0.70485103 0.06983767 0.45152664
-0.5115178 0.97321635 1.0173724 0.087121524 0.2876223 -0.14933297 0.55199766 1.2828528
0.037915688 0.072678626 0.5023214 -0.052807454 -0.21110535 -0.3021761 -0.08390502 -0.7239686
00000000: 9218 143e 72d5 0cbf 8ada af3d 148d b13e
00000010: 1f15 613f f163 bb3e 49a6 06bf e980 cfbe
00000020: 869f fcbe b780 9b3d b543 6fbf 6e02 d4bd
00000030: a6dd 053f b083 a33f 2ac2 f93e 77af d1be
00000040: e62f debe 427f 11bf d57d 183e fda7 95bf
00000050: 3a82 18bf f121 3a3f 46b2 a63f 657a e03e
00000060: 04f7 cfbe 3464 bcbe 484b cc3c 9afa 98bd
00000070: c0e3 2abf 7c68 4f3f c97c 2fbf bf52 993f
00000080: 3b75 39bd 181e a33f 569a 4ebd 7752 79bf
00000090: 69ec 133e 29e4 11bf 53fa 933e 56b3 4dbf
000000a0: 9fc9 813f c7e4 b8bd 202d 7e3e ef47 90be
000000b0: cf65 10bf df25 033e 979b 88bf c590 d03e
000000c0: a207 7abf de06 6d3f a73b ef3e 1eb4 6e3e
000000d0: 7c16 873e e5e1 03be bcc2 f9bd 4a1a b8be
000000e0: 12da 9fbd c6a8 03bf 75e1 c4be f585 0ebf
000000f0: f68e 1ebf 7da8 3fbe f8eb 2fbf 236e 4fbd
00000100: cd93 763e 217d 6bbe e8d1 c63c 9d5d 293f
00000110: 0555 2ebe 0265 a6be 575f 3e3d ab47 85be
00000120: b3d7 9c3d 0ba2 323f 7edc 423e d273 8f3e
00000130: eac4 723f 8954 1c3f 1b23 43be 5a10 eb3e
00000140: 28f7 173e e1be 433d 1a2e 263d fd3f a0be
00000150: 6498 d13c 8680 893e a6ac f93d b46f 653e
00000160: 8f76 783d b292 0c3f 9947 8f3d 121f 5d3e
00000170: 1e7e 803d 88a5 f9be 8281 233e 3d30 c83e
00000180: dbaf f3be 6a02 70bd 0739 fa3e b185 89bc
00000190: eee3 17bd 6091 6d3e 7f43 00bf 7e89 b33c
000001a0: bd80 283f 577d 3fbf 7070 3abe adae 0a3f
000001b0: 9538 183e c218 21bf ae5c bf3e d694 483f
000001c0: 255d b3bf 9bd5 3e3f 501b 143f c3a5 81bf
000001d0: 2ab1 a23e 90b7 bd3e b481 8cbf 2d74 b93e
000001e0: 3733 773f b3ee d9bf 0189 623f a758 5e3f
000001f0: 1d57 d2bf 624c 813f f9d8 c63e 3dfd 21bf
00000200: 68f6 e23e 4cab 5e3f 1b63 d8bf 8451 4e3f
00000210: 6be7 223f 90f4 abbf a7b1 1f3f 1028 1d3d
00000220: ffa7 a23c 086e 003f 82a2 a23e e72c 1bbe
00000230: 0f2f a2be 5d6d 91bc e45d 4dbf c98b 4ebe
00000240: f6d6 69be e5ef e83d 9dd1 88be 87ff d1bd
00000250: 8204 3abd 6925 a9be 6199 ac3e 20af b2be
00000260: 2ae5 e93d f35c 52be e216 f83d fb68 3fbf
00000270: 4ea9 9b3e 531e 473f a6b6 b33e bacb 243f
00000280: ea66 e53e da3f 223f 8180 083f 50a5 063f
00000290: be3b 763f 6b02 fdbe c903 8dbf 5514 19be
000002a0: d568 03bf f63e d53d be18 273f 6bdf bf3d
000002b0: f1ca 053f 2ec0 fe3e 6356 28be 4c54 51bf
000002c0: ee5e 04bf ac99 75be 3044 87be f502 7ebe
000002d0: a8ef ac3e 07a1 063f 5992 063e c977 fa3e
000002e0: eebf c0be 0aad febe 9ed6 8d3e 2a8e c4bb
000002f0: f1fc 12bf ef0b 2cbf 1948 53bf a00d 323e
00000300: 4dad c0bd 7c2d cbbe 1de1 33be 7885 a1be
00000310: a6ea 07bf 4e8b edbc e4a3 4a3f 00dd 783f
00000320: 08b0 5b3f eadb 833f b785 743f e495 c73e
00000330: e020 743e d1aa 833e c5a7 2f3e 09c3 cbbe
00000340: ec2c 32bf 3ab6 50be 6341 453e 0486 5ebf
00000350: a8b4 33bf 49c7 25bd a715 ebbe 8f4a 803e
00000360: c47d ab3f c2a4 f23e 7366 05bf cba8 153f
00000370: 270b 3dbf 538e 7dbf 9e77 a63e d1da 29bf
00000380: b258 12bf fc8e b5be 2642 8e3e b937 a63d
00000390: a14b 2ebc f68a 39be 3692 9abc 94ae 2dbe
000003a0: a10b 273e 608b 583e 95f7 8dbf 984a 67bd
000003b0: a80f 683d 1e71 34bf 0d07 8f3d 802e e73e
000003c0: d5f2 02bf b524 793f 4239 823f c56c b23d
000003d0: 3b43 933e beea 18be b84f 0d3f 8534 a43f
000003e0: 7b4d 1b3d 88d8 943d 2398 003f a14c 58bd
000003f0: 002c 58be d3b6 9abe 65d6 abbd 0256 39bf

conv_layer.0.bias f4 [16]
-0.12072824 -0.18267307 0.13998652 0.17049901 0.17503516 -0.0711932 -0.06700683 0.046497796
0.03502967 -0.107690826 -0.031079594 0.011387912 0.026092073 -0.08295092 -0.060959455 -0.1724471
00000000: 5e40 f7bd a60e 3bbe a058 0f3e 4b97 2e3e
00000010: 6b3c 333e becd 91bd e03a 89bd 7974 3e3d
00000020: 457b 0f3d 028d dcbd a29a febc 5d94 3a3c
00000030: 0bbf d53c 2ce2 a9bd 9fb0 79bd f995 30be

conv_layer.1.weight f4 [16]
0.98886704 0.9878322 0.9056289 1.2833508 1.8993824 1.0434859 1.4422646 1.0619754
0.8829785 1.1628413 1.4739707 1.4386162 1.4394183 1.4928694 0.9821134 1.5721835
00000000: 6426 7d3f 92e2 7c3f 4cd7 673f d744 a43f
00000010: f61e f33f f290 853f 209c b83f cfee 873f
00000020: e10a 623f fcd7 943f 12ab bc3f 9324 b83f
00000030: dc3e b83f 5816 bf3f c96b 7b3f 4f3d c93f

conv_layer.1.bias f4 [16]
0.034265537 0.06031105 0.12015766 -0.4923717 -0.4350284 -0.06274204 0.0009951466 -0.023261273
0.073173106 -0.5208871 -0.40100142 -0.2567264 -0.2898194 -0.48553452 -0.024364617 -0.7428023
00000000: 055a 0c3d b808 773d 3815 f63d 2518 fcbe
00000010: 0bbc debe e67e 80bd 946f 823a 6d8e bebc
00000020: c8db 953d db58 05bf 0f50 cdbe a571 83be
00000030: 3563 94be fb97 f8be 4e98 c7bc 4b28 3ebf

conv_layer.1.running_mean f4 [16]
-0.011764468 0.38903588 -0.45419517 1.3857489 -0.1500724 0.6647762 -0.51351714 -0.19336048
-0.49673072 -0.57050055 -0.006158208 -0.33666563 -0.4083539 -0.6710857 -0.2993753 -1.023304
00000000: c1bf 40bc b62f c73e 458c e8be 3860 b13f
00000010: 94ac 19be c62e 2a3f dc75 03bf 4a00 46be
00000020: 7d53 febe 530c 12bf cbca c9bb 705f acbe
00000030: c313 d1be 46cc 2bbf b847 99be a0fb 82bf

conv_layer.1.running_var f4 [16]
1.2838105 0.38799277 1.4037306 1.0440071 3.310449 0.641721 1.4215059 0.6057779
0.27991167 0.54627174 1.7696139 2.2565439 1.749044 1.3124987 0.78043216 1.3957179
00000000: e753 a43f fda6 c63e 72ad b33f 06a2 853f
00000010: 65de 5340 d447 243f e8f3 b53f 4314 1b3f
00000020: 9550 8f3e 77d8 0b3f b582 e23f 376b 1040
00000030: ace0 df3f f5ff a73f 67ca 473f e2a6 b23f

conv_layer.4.weight f4 [16, 16, 3, 3]
0.057887785 0.11167498 0.06756948 -0.041513797 -0.14684866 0.53014493 0.3133342 0.43152058
0.05896991 0.1429157 0.36325496 0.05303072 0.0669255 0.15929292 -0.13821667 -0.22159068
0.3311678 -0.22555262 -0.01822555 -0.08935294 -0.42553362 0.13237366 0.3152169 0.22714095
-0.2122308 0.18885943 0.07418614 -0.44812778 -0.16511375 0.22249062 -0.44957304 -0.6104285
-0.1354339 0.14948024 0.19615825 0.18798338 0.02227675 -0.34678832 -0.121670306 -0.37909082
-0.28325468 -0.31123602 -0.35398373 -0.15416153 -0.063441575 0.058322936 0.2296759 -0.14888625
0.071693234 -0.089049555 0.08238283 0.08612141 0.053152185 0.011275378 0.3255614 0.0019791732
-0.16799074 -0.0108858235 -0.002617872 0.22024335 0.4078254 -0.3294425 0.221565 0.21679346
-0.31144446 0.1460717 -0.18419003 0.25581518 0.022970678 0.08395648 -0.4733038 -0.2122679
-0.0733378 0.08300119 0.034469422 -0.040185317 0.15523916 -0.10856068 -0.17501801 0.0038057705
-0.15529707 -0.17851838 -0.268593 -0.21459052 0.026820457 -0.470832 -0.33318517 0.22512491
0.11532205 0.37464178 -0.34909117 -0.30741513 -0.0046327533 -0.07151115 -0.19513485 0.30051395
0.30257383 0.31252635 0.27752525 -0.03573644 -0.06697006 -0.43950075 0.02532351 -0.124271646
-0.2514714 -0.58124167 -0.09611913 -0.73735684 -0.19726844 0.28650984 0.18634261 0.11623756
-0.41094658 0.14854328 -0.07446647 -0.2001239 -0.25651705 -0.3678208 0.4452687 -0.34574363
0.28185984 -0.4457164 -0.03165401 -0.123704016 -0.20152828 -0.50021887 0.26352185 0.666898
0.47690403 0.79138285 0.43440667 0.113479204 0.41692537 0.20079963 0.471195 -0.13601331
-0.5471613 0.025570959 -0.33526313 -0.0819039 -0.027469445 -0.0005529481 -0.053821307 -0.0013961089
0.5241727 0.26934427 -0.42117858 0.017505804 0.28533027 0.11052182 -0.58640844 -0.064900994
0.26274619 -0.06265287 -0.065682724 -0.28768253 0.26356852 0.06770334 -0.50441784 -0.025737302
0.15066186 0.040331833 0.27293897 -0.033535186 -0.58933616 0.4567356 0.04524251 -0.5183202
0.6496812 -0.08160664 -0.34488842 -0.013017438 -0.11892325 -0.20276105 -0.018436857 -0.040188707
-0.030276442 -0.26854998 0.022003436 0.3664058 0.10427457 -0.11459589 -0.44439435 -0.07645982
0.18180674 -0.11408818 0.00838082 -0.12844138 -0.21012613 0.3371313 -0.31640556 -0.554785
0.41245922 -0.05364415 -0.7424153 0.37903848 -0.18036202 -0.48961818 0.0888056 -0.0026646173
-0.021337518 -0.18168266 -0.12664825 0.45401818 -0.32040927 -0.073851846 0.17316863 -0.34805834
0.25978324 0.045391586 -0.44812638 0.062993065 0.15481542 -0.31054726 0.11010643 0.07810205
0.51399136 -0.24086529 -0.28564054 0.012636203 -0.21408513 -0.23309964 -0.060778357 -0.04774981
0.21084365 -0.3340187 -0.6290204 0.7441919 -0.3549076 -0.22380804 0.07589472 -0.4139587
0.11055368 0.4812945 -0.0764307 0.3529891 -0.15034829 -0.13118894 -0.10230262 0.058848843
-0.39661747 -0.3076768 0.27218536 0.18999112 -0.0028328297 -0.18103586 0.015080227 -0.2590786
-0.21014373 0.24617988 -0.0034839574 0.4494411 0.22204928 0.25540304 0.5832612 -0.22399901
00000000: be1b 6d3d dab5 e43d de61 8a3d 5f0a 2abd
00000010: 7f5f 16be 94b7 073f 576d a03e 44f0 dc3e
00000020: 6f8a 713d 7e58 123e 8efc b93e be36 593d
00000030: 3d10 893d af1d 233e ac88 0dbe abe8 62be
00000040: d38e a93e 44f7 66be c04d 95bc adfe b6bd
00000050: 8bdf d9be f68c 073e 1c64 a13e a397 683e
00000060: 0853 59be 5e64 413e e7ee 973d 0171 e5be
00000070: 9413 29be 95d4 633e 702e e6be 0b45 1cbf
00000080: 2faf 0abe 5911 193e b5dd 483e b77e 403e
00000090: bb7d b63c 3d8e b1be 482e f9bd 3118 c2be
000000a0: c206 91be 545a 9fbe 5b3d b5be 85dc 1dbe
000000b0: a8ed 81bd 08e4 6e3d 2930 6b3e a375 18be
000000c0: e7d3 923d 9d5f b6bd 54b8 a83d 6c60 b03d
000000d0: 1bb6 593d 5dbc 383c fcaf a63e 04b5 013b
000000e0: c405 2cbe 745a 32bc 9b90 2bbb 7987 613e
000000f0: 7ece d03e b0ac a8be efe1 623e 1bff 5d3e
00000100: a675 9fbe d293 153e 509c 3cbe 35fa 823e
00000110: 012d bc3c 60f1 ab3d e054 f2be c25c 59be
00000120: 2132 96bd 87fc a93d cf2f 0d3d 5c99 24bd
00000130: 04f7 1e3e 1055 debd ec37 33be 3c6a 793b
00000140: 3206 1fbe 86cd 36be 0685 89be 9ebd 5bbe
00000150: 93b6 db3c e410 f1be 3f97 aabe 2587 663e
00000160: f82d ec3d 0cd1 bf3e 14bc b2be 8465 9dbe
00000170: 5ace 97bb 7074 92bd 6ed1 47be f7dc 993e
00000180: f5ea 9a3e 7403 a03e ca17 8e3e 6060 12bd
00000190: 9927 89bd 3e06 e1be 4073 cf3c 2282 febd
000001a0: dcc0 80be 41cc 14bf 1bda c4bd 6bc3 3cbf
000001b0: bd00 4abe 6bb1 923e 99d0 3e3e f50d ee3d
000001c0: 9767 d2be bb1b 183e e081 98bd 48ed 4cbe
000001d0: 3456 83be 0253 bcbe 42fa e33e 4f05 b1be
000001e0: ef4f 903e f134 e4be a3a7 01bd 8858 fdbd
000001f0: 6e5d 4ebe 580e 00bf 56ec 863e d4b9 2a3f
00000200: c42c f43e 1198 4a3f 8d6a de3e c967 e83d
00000210: 3e77 d53e 6b9e 4d3e 7940 f13e 1347 0bbe
00000220: c312 0cbf 307a d13c 9ca7 abbe 3bbd a7bd
00000230: 9a07 e1bc b8f3 10ba bb73 5cbd a4fd b6ba
00000240: 2f30 063f 7ee7 893e b8a4 d7be 5568 8f3c
00000250: cf16 923e 4459 e23d dd1e 16bf d0ea 84bd
00000260: ab86 863e 2650 80bd aa84 86bd 204b 93be
00000270: 74f2 863e 0ca8 8a3d 8721 01bf 09d7 d2bc
00000280: 1a47 1a3e fe32 253d a8be 8b3e 315c 09bd
00000290: bcde 16bf 40d9 e93e 3650 393d a2b0 04bf
000002a0: 8251 263f 6221 a7bd 3795 b0be 1847 55bc
000002b0: 088e f3bd 98a0 4fbe e408 97bc ea9c 24bd
000002c0: 4d06 f8bc 627f 89be 8d40 b43c 8b99 bb3e
000002d0: e88d d53d 40b1 eabd a887 e3be f796 9cbd
000002e0: 8c2b 3a3e 10a7 e9bd b54f 093c 2386 03be
000002f0: 4e2b 57be 799c ac3e e9ff a1be 6406 0ebf
00000300: db2d d33e f8b9 5bbd ee0e 3ebf 5511 c23e
00000310: d2b0 38be 3caf fabe b6df b53d dca0 2ebb
00000320: 05cc aebc 050b 3abe 14b0 01be 1275 e83e
00000330: af0c a4be a33f 97bd 1e53 313e b434 b2be
00000340: 4f02 853e 87ec 393d d270 e5be 8202 813d
00000350: ef87 1e3e 0d00 9fbe 7b7f e13d f8f3 9f3d
00000360: f094 033f 64a5 76be 7a3f 92be 1408 4f3c
00000370: 2239 5bbe acb1 6ebe baf2 78bd 4e95 43bd
00000380: 66e7 573e 8004 abbe 7b07 21bf 5c83 3e3f
00000390: 73b6 b5be ef2d 65be b16e 9b3d 65f2 d3be
000003a0: f869 e23d 3c6c f63e b387 9cbd fdba b43e
000003b0: e7f4 19be 6556 06be 0984 d1bd 7c0b 713d
000003c0: 7211 cbbe d087 9dbe e15b 8b3e 088d 423e
000003d0: ffa6 39bb 7761 39be 0e13 773c f3a5 84be
000003e0: eb2f 57be 9416 7c3e 1b53 64bb 251d e63e
000003f0: e360 633e 30c4 823e 9b50 153f ff5f 65be

conv_layer.4.bias f4 [16]
0.031599622 0.074605875 -0.016202718 -0.009390171 -0.054607403 -0.027460536 0.07360445 -0.028198095
0.045998573 0.031172842 -0.04229963 -0.01682817 0.0007219737 -0.026786178 0.067191154 -0.044736944
00000000: 9b6e 013d f7ca 983d 90bb 84bc 3bd9 19bc
00000010: 03ac 5fbd ebf4 e0bc eebd 963d b1ff e6bc
00000020: 0069 3c3d 305e ff3c 6042 2dbd 3bdb 89bc
00000030: d642 3d3a b06e dbbc 849b 893d 163e 37bd

conv_layer.5.weight f4 [16]
1.1138506 1.3574996 1.1344995 1.4077839 1.2655287 1.0828414 1.4502919 1.3265215
1.1207285 1.6682761 1.9387989 1.1576558 1.1343718 1.4867958 2.1757174 1.8232714
00000000: a892 8e3f 8cc2 ad3f 4837 913f 4332 b43f
00000010: d8fc a13f 8c9a 8a3f 2aa3 b93f 75cb a93f
00000020: 0874 8f3f 128a d53f 902a f83f 112e 943f
00000030: 1833 913f 534f be3f f43e 0b40 f560 e93f

conv_layer.5.bias f4 [16]
-0.408678 -1.0114439 -0.5648734 -0.8710496 -1.1548074 -0.55331606 -1.2042104 -0.72253424
-0.30175623 -1.247779 -1.2087129 -0.52977735 -0.5821673 -0.5837333 -1.4311633 -1.1047246
00000000: 3e3e d1be fe76 81bf 8b9b 10bf 1bfd 5ebf
00000010: bbd0 93bf 1fa6 0dbf 9123 9abf 01f8 38bf
00000020: cb7f 9abe 39b7 9fbf 1bb7 9abf 7d9f 07bf
00000030: eb08 15bf 8c6f 15bf 5c30 b7bf 9e67 8dbf

conv_layer.5.running_mean f4 [16]
-0.38462657 -1.73909 -1.2422929 -2.6379557 -1.3451306 -0.37314913 -0.13502656 -2.3223646
-1.2324239 -1.3509283 -2.3244238 -2.6563237 -1.7696942 -3.1580133 -5.974127 -2.468443
00000000: c6ed c4be 809a debf 7403 9fbf 44d4 28c0
00000010: 3d2d acbf 670d bfbe 6744 0abe 9fa1 14c0
00000020: 11c0 9dbf 38eb acbf 5cc3 14c0 3501 2ac0
00000030: 5785 e2bf e41c 4ac0 0c2c bfc0 f8fa 1dc0

conv_layer.5.running_var f4 [16]
6.007986 5.8657494 4.94491 9.333847 6.045885 6.161335 6.8771906 6.9008045
8.475312 8.158791 14.450167 6.749224 7.708614 8.871519 18.255894 11.792876
00000000: 6c41 c040 38b4 bb40 b43c 9e40 7057 1541
00000010: e477 c140 a829 c540 f211 dc40 64d3 dc40
00000020: e19a 0741 688a 0241 e233 6741 a5f9 d740
00000030: f7ac f640 bef1 0d41 120c 9241 9faf 3c41

fc_layer.0.weight f4 [10, 1024]
0.17237653 0.057210695 0.12016454 -0.13661999 0.08605501 0.15415263 -0.072808415 -0.0923656
-0.20628865 0.32454303 -0.040857572 -0.011452094 -0.27115187 -0.03485356 -0.112514116 0.00711297
0.10556454 0.34126362 0.16142537 0.10533336 0.15182775 -0.054209758 -0.032816984 0.075361304
0.054148983 0.21014984 0.23913571 0.105872445 0.029076567 0.20681578 0.052697077 0.16903342
0.34341457 0.294323 -0.019497035 0.12883052 0.20706941 0.17893025 0.24917692 0.013932411
0.028208258 -0.031037897 -0.017241979 0.093509726 0.04338056 0.19173457 0.3729418 0.04225833
-0.14581619 -0.02114393 -0.2541232 -0.020586988 -0.15340443 0.24753582 0.08952305 -0.14814132
-0.122008406 -0.2494646 -0.1723919 -0.13682239 -0.044967256 -0.02855046 0.033650286 -0.038390797
0.06357058 -0.5094683 -0.19481593 -0.3209773 -0.46301016 -0.3157246 -0.10535258 -0.16142753
0.071926124 0.27173287 0.14449795 0.19394585 0.15451668 0.12334088 0.05186824 0.073590524
0.05615477 0.095017135 0.2738556 0.16311473 -0.062490817 0.079550765 0.2489655 -0.0341245
0.27284917 -0.043217245 -0.029249541 -0.027072165 0.09928169 -0.0033616964 0.05396987 -0.08259863
0.1280005 -0.027143301 0.04027299 -0.085191615 -0.13125497 -0.13019639 0.14258595 0.07449175
-0.21155779 -0.21130115 -0.048528805 0.07896684 0.0320331 -0.06927127 0.010724792 0.14538847
-0.40875947 0.059579607 0.10538339 -0.16781855 0.09060798 -0.09920581 0.07319148 0.028318735
-0.42264697 -0.14755604 -0.12282185 -0.16565938 0.018087402 0.04053066 -0.276616 -0.04106765
-0.07088892 0.20141959 -0.021973643 0.31827495 -0.06333361 -0.14139473 0.012317274 0.09090135
-0.015751697 0.2622891 0.12668365 0.017968707 -0.0014532085 0.060567833 0.013113613 -0.063451886
0.020865368 0.38018432 0.06938994 0.1014298 0.22101687 -0.031130752 -0.0127516715 0.045428075
-0.106573105 0.4533173 0.2992798 0.08369568 -0.14253178 -0.034524865 -0.24534972 -0.17793632
0.10043616 0.06471708 0.006336889 -0.21480824 0.013920935 -0.055961676 -0.07793253 -0.03591878
0.033789843 0.042193916 0.0100906845 -0.14901334 -0.38723314 -0.073094115 -0.033530015 -0.07324143
-0.30120808 -0.11876142 -0.19211477 -0.33110443 -0.064893655 0.02788924 0.06680901 -0.021031331
0.17597567 -0.017659439 0.11441505 0.2845061 0.20888114 -0.102330655 0.18081328 -0.09940751
-0.20577604 -0.07575951 0.036839467 -0.0996374 0.048667062 -0.06549502 0.05362152 -0.013584901
-0.08569113 0.19269837 -0.0042755017 0.11526851 0.052127007 0.10602261 0.121937074 -0.035139754
0.0003440801 0.046279218 0.009055694 -0.015850011 0.08453827 0.48620242 0.19413856 -0.012161296
0.06379045 0.13339216 0.08559073 0.00356424 0.1377337 0.14610006 -0.07162176 -0.0803887
-0.05661895 -0.036685504 0.009946114 0.033855073 -0.045899745 0.06898757 -0.018599913 -0.08446608
-0.030004794 -0.088328555 0.09316104 -0.15860681 0.19221391 -0.004243556 -0.21289009 -0.1675366
0.099391885 0.07695958 -0.15126574 0.13524981 0.18158497 0.114388525 0.20214708 -0.027292974
-0.13506205 -0.09746784 -0.21553923 0.06107732 -0.41234392 0.23841558 0.10287449 -0.05999943
00000000: 7983 303e c355 6a3d d418 f63d 1ce6 0bbe
00000010: 9c3d b03d 30da 1d3e 941c 95bd 2d2a bdbd
00000020: 553d 53be 812a a63e 455a 27bd 90a1 3bbc
00000030: 6bd4 8abe 9bc2 0ebd cd6d e6bd eb13 e93b
00000040: 3932 d83d 1bba ae3e b14c 253e 04b9 d73d
00000050: bc78 1b3e 0d0b 5ebd 1a6b 06bd 0757 9a3d
00000060: 53cb 5d3d 8531 573e fedf 743e a7d3 d83d
00000070: fb31 ee3c 84c7 533e e4d8 573d 1917 2d3e
00000080: 09d4 af3e 81b1 963e 3fb8 9fbc 26ec 033e
00000090: 010a 543e 7e39 373e 3c28 7f3e c444 643c
000000a0: 0115 e73c 3043 febc 0d3f 8dbc 0782 bf3d
000000b0: d0af 313d 1156 443e 3af2 be3e 1217 2d3d
000000c0: d750 15be 0936 adbc 701c 82be 0ba6 a8bc
000000d0: 0d16 1dbe 087a 7d3e dc57 b73d 5cb2 17be
000000e0: 8bdf f9bd a673 7fbe 8187 30be 2b1b 0cbe
000000f0: 962f 38bd a7e2 e9bc e2d4 093d ab3f 1dbd
00000100: 4b31 823d 846c 02bf d47d 47be 2357 a4be
00000110: ab0f edbe a8a6 a1be 18c3 d7bd 424d 25be
00000120: 014e 933d 9220 8b3e 45f7 133e be99 463e
00000130: 9f39 1e3e 259a fc3d cb73 543d a1b6 963d
00000140: 8b02 663d 5898 c23d cd36 8c3e 8c07 273e
00000150: 5ff6 7fbd 83eb a23d d0f0 7e3e 22c6 0bbd
00000160: e3b2 8b3e 9104 31bd bc9c efbc 72c6 ddbc
00000170: 3354 cb3d e84f 5cbb 830f 5d3d 7829 a9bd
00000180: 9012 033e a15b debc 4af5 243d f178 aebd
00000190: b467 06be 3452 05be 0d02 123e 218f 983d
000001a0: 9ba2 58be 545f 58be 24c6 46bd 5eb9 a13d
000001b0: 2435 033d 18de 8dbd 0ab7 2f3c b7e0 143e
000001c0: ec48 d1be bf09 743d 3fd3 d73d a0d8 2bbe
000001d0: ad90 b93d 6a2c cbbd 6ae5 953d b1fc e73c
000001e0: 2f65 d8be ee18 17be 068a fbbd 9da2 29be
000001f0: 082c 943c 7a03 263d 9da0 8dbe 8d36 28bd
00000200: 362e 91bd f040 4e3e 1202 b4bc eff4 a23e
00000210: 0db5 81bd c8c9 10be 64ce 493c 7d2a ba3d
00000220: b409 81bc c24a 863e 5cb9 013e 1c33 933c
00000230: 9679 beba fa15 783d 7bda 563c 10f3 81bd
00000240: d9ed aa3c 85a7 c23e 501c 8e3d 6dba cf3d
00000250: 3f52 623e eb05 ffbc 63ec 50bc ca12 3a3d
00000260: 0043 dabd 3519 e83e 343b 993e a468 ab3d
00000270: daf3 11be f269 0dbd f53c 7bbe f034 36be
00000280: 79b1 cd3d 638a 843d aea5 cf3b b1f6 5bbe
00000290: a214 643c 1238 65bd 179b 9fbd 921f 13bd
000002a0: 3867 0a3d 87d3 2c3d 6653 253c f496 18be
000002b0: 6c43 c6be 5eb2 95bd c556 09bd 9aff 95bd
000002c0: f237 9abe 3039 f3bd bcb9 44be 8586 a9be
000002d0: f7e6 84bd fa77 e43c 2ad3 883d e649 acbc
000002e0: f732 343e 87aa 90bc 7052 ea3d c9aa 913e
000002f0: f0e4 553e bc92 d1bd 1e27 393e 2a96 cbbd
00000300: f4b6 52be cd27 9bbd fbe4 163d b10e ccbd
00000310: 1d57 473d 4122 86bd 3da2 5b3d 3493 5ebc
00000320: d57e afbd b952 453e 8219 8cbb e611 ec3d
00000330: 2183 553d 6222 d93d 25ba f93d b4ee 0fbd
00000340: a665 b439 478f 3d3d 555e 143c e2d7 81bc
00000350: 6722 ad3d 86ef f83e 42cc 463e 2c40 47bc
00000360: 91a4 823d f497 083e 314a af3d 0696 693b
00000370: 100a 0d3e 419b 153e 6eae 92bd d5a2 a4bd
00000380: 46e9 67bd 8a43 16bd 07f5 223c 9eab 0a3d
00000390: 5f01 3cbd 5b49 8d3d d85e 98bc 8dfc acbd
000003a0: 9dcc f5bc 9ae5 b4bd 37cb be3d d369 22be
000003b0: b9d3 443e 870d 8bbb dcff 59be b78e 2bbe
000003c0: f98d cb3d fc9c 9d3d 68e5 1abe ed7e 0a3e
000003d0: 69f1 393e 8844 ea3d a5ff 4e3e 8495 dfbc
000003e0: b54d 0abe 389d c7bd 51b6 5cbe 362c 7a3d
000003f0: be1e d3be 3723 743e dcaf d23d f6c1 75bd

fc_layer.0.bias f4 [10]
-0.35135525 -0.41842076 -0.1517945 0.24202959 0.8172347 -0.38284016 0.13680238 -0.34245852
0.3328261 0.099085644
00000000: d6e4 b3be 3f3b d6be 0470 1bbe 9bd6 773e
00000010: 4b36 513f a003 c4be ec15 0c3e b956 afbe
00000020: 2f68 aa3e 6aed ca3d
