Knowledge Distillation/TAKD/saved/10-8-6-4-2.pth (torch, 58338 bytes, 14 tensors)

conv_layer.0.weight f4 [16, 3, 3, 3]
000000 96 a7 8f be 0c 45 c6 3d 96 73 ab be e1 ea 8e be
       -0.28057545 0.096811384 -0.33486623 -0.27913573
000010 91 c3 8a 3d ae 46 90 be ae c4 31 3d 74 c9 11 3e
       0.067755826 -0.28178924 0.04340046 0.14237005
000020 50 73 25 be 08 75 90 3e c0 d8 de 3e 90 82 d5 3e
       -0.1615727 0.28214288 0.43524742 0.41701174
000030 02 cf b0 3e 47 0a 2a 3f 79 83 06 3e b6 40 16 be
       0.34532934 0.6642193 0.1313609 -0.14673123
000040 32 ab 65 3e 81 c9 9a bc 29 dc 29 be c4 e6 be be
       0.22428587 -0.018894913 -0.1658789 -0.37285435
000050 ec 9a b0 be 3a 34 f8 3d c6 b0 3d 3f b5 74 06 3f
       -0.34493196 0.121193364 0.7409786 0.5252183
000060 6a 3a d4 3d a8 83 51 3e f1 cd 83 be cd fb 52 3f
       0.10362704 0.20460379 -0.25743058 0.8241547
000070 23 18 89 be ec e2 2c bf e2 5c bd 3e b6 e5 70 bf
       -0.26776227 -0.67533755 0.36984926 -0.9410051
000080 5e d5 24 3f cc 55 72 be 2e 48 60 be 37 43 57 3e
       0.6438807 -0.23665541 -0.21902534 0.21021734
000090 8c 7d 47 3d 62 27 ce be 60 03 27 3f 43 cc cc be
       0.048703715 -0.40264422 0.65239525 -0.3999959
0000a0 04 69 72 bf ab 78 a5 3f 36 fa 2d bf 9e 6f c4 bc
       -0.9469149 1.292745 -0.67959917 -0.023979004
0000b0 af 69 7e 3f 58 92 4b be e9 85 49 bf 19 79 28 3f
       0.9938001 -0.19880044 -0.78719956 0.6580978
0000c0 86 cd 16 bf 61 58 7d bf 1a b1 af 3f b3 7f 56 bf
       -0.58907354 -0.9896298 1.3725922 -0.83788604
0000d0 fb c7 30 be a9 9f 69 3f 25 1c 85 3f 40 59 f0 3e
       -0.17263786 0.9125925 1.0399214 0.46943092
0000e0 a2 31 6f be 34 7b 25 3e f7 a5 0a bf 4a 3e 5e bf
       -0.23358777 0.1616028 -0.5415949 -0.86813796
0000f0 9e 4f d3 3e e5 9f 3c bf 9a 67 99 be d2 5a 04 3f
       0.4127168 -0.7368148 -0.29961854 0.5170108
000100 0a 28 26 be f5 40 9b be 3b 62 ad 3e 0a 87 c4 be
       -0.16226211 -0.30322996 0.33864006 -0.38384277
000110 c4 60 38 be 63 c5 64 be e1 f9 2e bf ef cc 16 be
       -0.18005663 -0.22340922 -0.68350035 -0.14726613
000120 fb 74 9c be cf ad 35 3d 3d d9 1f 3d 49 e0 5f be
       -0.30558 0.04435521 0.039025534 -0.21862902
000130 6e 23 b0 3e 92 81 ab 3e b7 84 f6 3d 88 b3 d0 3e
       0.3440203 0.33497292 0.12037032 0.4076197
000140 8f 5e 20 3f d8 23 82 3e 0b 14 e3 3d c6 0d 3f be
       0.62644285 0.25417972 0.11087807 -0.18657598
000150 cf 66 cc bf 3e 76 cc bf 5f 29 4e bf f2 83 1b 3f
       -1.5968875 -1.5973585 -0.8053188 0.6074821
000160 de dc 4e 3e 45 77 80 3f 89 9a 2c 3f 32 32 8c 3f
       0.20201442 1.0036398 0.674233 1.0952818
000170 88 90 4c 3f 45 76 bf be bf da c0 be c7 77 a3 bd
       0.7990804 -0.3739492 -0.3766689 -0.0798183
000180 bf 81 45 3f a2 e7 e5 3e 92 13 13 3f 9c 7e 97 3e
       0.771511 0.44903284 0.57451737 0.29588783
000190 c1 7d 7f 3e f8 19 65 3d d0 fd 43 bf 02 1c 5b bf
       0.24950315 0.05593297 -0.7655916 -0.8558961
0001a0 55 58 91 bf 65 22 57 bb 07 45 93 3d ef cb 8e 3e
       -1.1355082 -0.0032826897 0.071909 0.27889964
0001b0 29 b2 3c bf bb 49 19 be 75 5c b1 be 09 f6 5a be
       -0.7370935 -0.14969532 -0.34640852 -0.21382917
0001c0 9a 79 3b 3f 37 5f 2e 3f 96 fc bd be 52 59 48 3f
       0.73232424 0.68114036 -0.3710677 0.7826129
0001d0 7a 78 59 3f b1 49 0d 3f 68 c1 11 3f 7f 11 b6 3e
       0.8494946 0.5519057 0.5693574 0.35560223
0001e0 1d 07 ae 3e 7e be 02 bd 32 89 21 bd 0c bb 63 be
       0.33989802 -0.03191995 -0.03943748 -0.22239321
0001f0 01 70 d2 be 57 d9 ff 3d 3e da 5c 3e 0b 31 bb bd
       -0.41101077 0.12492626 0.21567628 -0.091402136
000200 9d c8 87 bd 83 53 20 be 7a 58 84 bf 25 0b 2c bf
       -0.06630061 -0.15656857 -1.0339501 -0.67204505
000210 ec c0 75 bd e7 ad 5d bf 62 9d af be a0 50 31 bf
       -0.059998438 -0.8659348 -0.3429976 -0.6926365
000220 2e dc d0 be 5e 80 a4 3e 2b 1a e2 be 99 73 40 bf
       -0.40792984 0.32129186 -0.4416059 -0.7517639
000230 e3 69 74 bc e2 28 3e bf c3 d6 07 bf 88 3f 65 be
       -0.0149178235 -0.7428113 -0.53062075 -0.22387516
000240 8b 94 bb 3d 62 a7 1c 3f 18 0a d1 bd f0 4a 7f 3e
       0.09159192 0.61192906 -0.10207003 0.2493093
000250 0e 71 c4 3d 92 bf 9d bd b4 78 15 be e6 3f a9 3e
       0.09591876 -0.07702555 -0.14596826 0.33056563
000260 fc 6f a5 bc 2a 31 d5 3e 31 58 48 3e 5c a1 38 bf
       -0.020195 0.41639072 0.19564892 -0.72121215
000270 d7 b9 71 3f bd 75 18 3f f6 05 cb bd 76 34 b8 3e
       0.94424194 0.59554654 -0.09913246 0.35977525
000280 c0 eb 34 3f 0d 01 97 3e 35 66 ba 3e c9 6a 03 3f
       0.70672226 0.2949299 0.36406103 0.51334816
000290 ac 18 3d 3f 86 31 6c bf 6f 4e d4 be 99 14 fc bc
       0.7386577 -0.92263067 -0.4146609 -0.03077154
0002a0 0c b1 5d be 30 a8 4e be b9 56 b3 be 19 0d bd bd
       -0.2164957 -0.20181346 -0.35027102 -0.09231014
0002b0 3b 70 75 be 9b e1 d0 be f6 2a c5 be a7 8d 8e be
       -0.23968594 -0.40797123 -0.3850934 -0.27842447
0002c0 47 1f ea be 28 a4 30 3f a7 e8 1d 3f 82 8f 70 be
       -0.45726988 0.6900048 0.61683124 -0.23492244
0002d0 7f e2 c8 be a2 c6 31 bf 86 8e ef be 55 ea fc be
       -0.39235303 -0.69443715 -0.46788424 -0.4939753
0002e0 fa 4f 54 bd e9 d5 9c 3e d1 41 77 3f 3d 44 63 3f
       -0.051834084 0.3063195 0.965848 0.88776
0002f0 6a b1 82 3e 93 a4 8b be 2f 36 3e bf 97 53 5d 3f
       0.2552598 -0.27273998 -0.7430143 0.8645567
000300 dc d6 8f 3e 5b ad 8f bf 4a 99 99 3f 93 6a c3 3e
       0.28093612 -1.1224779 1.1999905 0.38167247
000310 cb 79 93 bf d0 1e 0a 3f af 80 44 3f e2 b3 32 bf
       -1.1521543 0.53953266 0.76758856 -0.6980573
000320 6a 8e c9 3d 21 83 95 3f f1 cc ba bf 19 59 43 3e
       0.098416165 1.1680642 -1.4593793 0.19076957
000330 b9 11 84 3f 8f 87 bf bf 0b 21 d8 3e 81 c1 a8 3e
       1.0317909 -1.4963244 0.4221271 0.32960132
000340 d8 d3 fc be 0e c1 8b be a6 cb 30 3f 7e 77 67 bf
       -0.49380374 -0.27295727 0.6906074 -0.90416706
000350 3c f9 2b bb 98 7b 9b 3f 5e 0f 6e bf 57 13 a7 3e
       -0.0026241085 1.2147093 -0.929922 0.32631943
000360 92 3d 39 bf e5 ed 85 bf f3 15 34 bf f1 46 4e 3e
       -0.72359574 -1.0463225 -0.7034599 0.2014425
000370 e2 ed 9a 3e ef f3 6c bd 5c 8d 64 3f b7 1a a4 3e
       0.30259615 -0.05784982 0.892782 0.32051632
000380 29 47 6a 3f 7b b6 39 3d 15 80 d2 be ac e7 2d be
       0.9151483 0.045340043 -0.41113344 -0.16982907
000390 d2 43 e9 3d 60 92 22 3e a0 a8 3b be 28 d1 ab 3d
       0.11389889 0.1587615 -0.18326044 0.08389503
0003a0 53 2f 47 be 04 29 c4 bc 33 58 cb 3e 7a cb b8 3d
       -0.19451647 -0.023945339 0.39715728 0.09023185
0003b0 a9 3c cb 3c 27 04 a3 be 20 cf 68 3e aa 4a 8e 3e
       0.024809198 -0.31839105 0.22735262 0.2779134
0003c0 7e e4 7d 3d 6f e3 d7 be 2b b5 fe 3e 19 52 6a bf
       0.061985485 -0.42165706 0.49747595 -0.9153152
0003d0 4f 11 b1 3f cd a6 1a bf f3 72 45 3f 0b 29 de bf
       1.3833407 -0.6041077 0.77128524 -1.7356275
0003e0 4a 8d b4 3f 88 a5 45 3f c7 5a a6 be 9c e6 18 bf
       1.4105618 0.77205706 -0.32491133 -0.5972688
0003f0 1b 4f 8e bf db f4 7b 3f 68 d9 45 be 0b 86 1f 3f
       -1.1117891 0.98420495 -0.19321215 0.6231391

conv_layer.0.bias f4 [16]
000000 c1 73 0d bd 55 ae 31 be e0 5f 24 3e eb d1 42 be
       -0.03453422 -0.17351659 0.16052198 -0.1902539
000010 01 a8 89 3d 7e e6 14 3d cb 2e 81 3d 81 d3 4b 3d
       0.06721497 0.036352627 0.06307753 0.049762253
000020 13 57 35 bd 12 3d ae 3d c2 26 a0 bc 06 33 39 bd
       -0.044272494 0.08507742 -0.019549731 -0.045214675
000030 0c 29 2b 3e 4d 12 f1 3c 51 d7 aa bd 4b c7 1f 3e
       0.16714877 0.029427672 -0.083418496 0.15603368

conv_layer.1.weight f4 [16]
000000 f0 7b 8d 3f 8b d2 c3 3f 17 43 8c 3f 59 dc b8 3f
       1.1053448 1.5298628 1.0957974 1.4442245
000010 2a fe 83 3f 01 4c 69 3f c9 59 ce 3f dd 19 e1 3f
       1.031194 0.911316 1.612115 1.7586018
000020 42 e1 a7 3f 9a 4d 8a 3f 74 6a b6 3f 40 e8 89 3f
       1.3115618 1.0804932 1.4251237 1.0774002
000030 31 2d a2 3f 16 d1 b9 3f 24 50 c1 3f ac c5 ac 3f
       1.2670041 1.4516933 1.5102582 1.3497825

conv_layer.1.bias f4 [16]
000000 9e ba 96 3e 29 a7 e0 bd 13 13 20 be a8 83 13 be
       0.29439253 -0.10969383 -0.15632276 -0.14405692
000010 c9 99 5b bc 9b f7 16 3f 3f 30 4d bf 17 1b ad be
       -0.013403364 0.58971566 -0.8015174 -0.3380973
000020 2f f3 f2 be 5a fb 59 be b3 2f 20 bf 71 48 9c 3e
       -0.4745116 -0.2128729 -0.62572783 0.30524018
000030 cf a4 f2 3b 25 48 d3 be 06 5e 1e bf c1 7b 93 be
       0.0074049006 -0.4126598 -0.6186222 -0.28805354

conv_layer.1.running_mean f4 [16]
000000 ab a7 dc 3f 00 b2 25 bf bf b0 c9 be 3c 0b 18 bf
       1.7238668 -0.6472473 -0.3939266 -0.5939214
000010 d2 2f 8d be d0 e8 31 3d 6d 20 6e bf a1 0f 7e be
       -0.27575547 0.043434918 -0.9301823 -0.2481065
000020 bd 44 52 3e 87 8c be bd 19 be 86 bf a0 48 d4 3e
       0.20534034 -0.09304147 -1.0526763 0.41461658
000030 e0 76 12 3f 74 51 b1 be 52 b6 08 bf ba 8d a4 3e
       0.5721264 -0.34632456 -0.534032 0.3213938

conv_layer.1.running_var f4 [16]
000000 16 87 7d 3f 12 d1 26 40 3b 3b 26 3f 69 a1 ee 3f
       0.9903425 2.6065106 0.6493413 1.8643008
000010 6f 95 48 3f f9 1c 8a 3f a3 ad 48 3f 36 5b 14 40
       0.7835302 1.0790092 0.7838995 2.318067
000020 39 ce 6a 3f e9 75 39 3f 6a 21 2a 3f 42 cb 95 3f
       0.9172092 0.7244554 0.66457236 1.1702654
000030 90 3f b5 3f f8 e5 bf 3f 54 a8 ab 3f ba a4 e7 3f
       1.4160023 1.4992056 1.3410745 1.8097146

conv_layer.4.weight f4 [16, 16, 3, 3]
000000 5f 47 10 3e dc 38 58 3e b3 3b 0d bc 53 ab ca be
       0.14089726 0.2111544 -0.00862019 -0.39583835
000010 ac 05 92 bd 00 20 07 bb 53 32 92 be 70 c5 08 be
       -0.07129988 -0.0020618439 -0.2855402 -0.13356566
000020 14 ef 91 3e 45 2f c8 be 21 a0 b5 be 45 eb 1e 3e
       0.28502715 -0.39098564 -0.3547373 0.15519436
000030 d4 61 50 3f 75 c4 fa bc 72 06 8c be cb e3 93 3e
       0.81399274 -0.030611256 -0.27348667 0.2888473
000040 cb f2 35 3e c1 43 08 be 62 da 07 be 2f 74 90 be
       0.177684 -0.13307096 -0.132669 -0.2821364
000050 db 1b a4 3e 54 62 1b 3e 98 a4 00 bd 5a 3c 34 3e
       0.32052502 0.15174228 -0.03140697 0.17601147
000060 d3 9f ac bd d2 b7 6f be 40 4f 88 bd 83 04 88 be
       -0.084289216 -0.23409966 -0.06655741 -0.26565942
000070 c9 53 ea be df 0c 8d 3e 42 a3 e8 be 3e 1b 38 bf
       -0.45767048 0.27548882 -0.45437056 -0.7191657
000080 6f f8 ba 3e 2a 1e c2 be 7d a2 33 bd 51 3e 24 bd
       0.36517665 -0.37913638 -0.043856133 -0.040098492
000090 b5 0e c4 be 6f f6 6e bd f8 07 eb 3d f2 e2 a7 3c
       -0.3829247 -0.058340486 0.11476129 0.020493958
0000a0 dd 2d 1e bd 04 d2 20 bd 64 85 46 3e 3e 96 85 be
       -0.038617957 -0.039262787 0.19386822 -0.26091188
0000b0 7a 98 02 3c 9b 01 8f be ca d1 b1 be 51 b4 b7 3e
       0.007970924 -0.27930912 -0.3473037 0.35879758
0000c0 7b c3 9f be f8 9b 99 be 90 51 49 be 80 51 00 3e
       -0.31203827 -0.30001807 -0.1966002 0.1253109
0000d0 43 82 ba 3e 5d d1 24 bc 5f cb 0e bd dd 03 be 3d
       0.36427507 -0.010059682 -0.03486192 0.092780806
0000e0 e7 97 f7 be b0 75 91 be 5f cd ce 3e 64 ba 37 bf
       -0.4835808 -0.284101 0.4039106 -0.71768785
0000f0 38 7f 7b be 9e 8b b0 3e 3d c2 09 be 89 c3 6e bd
       -0.24560249 0.3448152 -0.13453002 -0.058291946
000100 31 be 2d 3e 18 9c 80 be 5b 4a a0 3e 5c 15 02 3d
       0.16967084 -0.2511909 0.3130673 0.03175865
000110 e9 59 0e be 86 3e 72 3e cb 49 50 3e 5c dd 94 3e
       -0.13901486 0.23656663 0.2034065 0.29075134
000120 97 92 87 3e 53 c4 14 be 78 a9 38 be b3 bf a5 3d
       0.26479027 -0.14528017 -0.18033397 0.08093204
000130 03 07 25 be 83 5a 8f bc c5 b0 7d 3e 9f 1a bc be
       -0.16115956 -0.017499214 0.24774463 -0.3673906
000140 be 6d 8a be fa 6b 2d be 20 16 55 3f 24 ce c0 bc
       -0.27036852 -0.16935721 0.83236885 -0.023535796
000150 fd 05 34 be ef 50 c7 3e c8 5a 0d 3e 74 7b 41 be
       -0.1758041 0.38928935 0.13804162 -0.1889475
000160 58 11 cc 3c 7a 35 53 bd 41 14 d1 3e 6b ce a0 be
       0.024910614 -0.05156467 0.40835765 -0.31407484
000170 25 74 29 3e bc 9d 62 3d 72 2e bf be 27 4b 6f be
       0.16548212 0.05532621 -0.37340122 -0.23368512
000180 64 79 5f 3e 83 20 9e be 41 72 24 3d 21 f6 86 3e
       0.2182365 -0.3088418 0.040148024 0.26359656
000190 5b 43 13 be 76 fa d5 3d 06 06 28 3e 2f 49 05 bf
       -0.14381163 0.10448162 0.16408548 -0.52064794
0001a0 ac 66 26 be ad 5e 02 bd 2c 35 47 3e 81 3e a6 be
       -0.16250104 -0.03182857 0.19453877 -0.32469562
0001b0 be 11 cb be 0b e9 b2 be d8 66 05 3e 30 8a b2 be
       -0.39661974 -0.34943423 0.13027513 -0.34871054
0001c0 4e 73 5d 3d 05 5f 81 3d 8c 04 ee bd 0f ee 39 be
       0.05406504 0.06316952 -0.11621961 -0.18157218
0001d0 29 bf 84 be 0e 5c b9 be 61 76 d4 3e bb 29 78 be
       -0.25927094 -0.36203045 0.41496566 -0.24234669
0001e0 9b 5e b9 be 33 c2 52 3d f8 4d a5 3e 36 cc c4 be
       -0.3620499 0.051454734 0.32286048 -0.3843705
0001f0 f3 ca 7a be f2 be 2b 3f 9f 65 2a 3e e8 98 33 3e
       -0.24491481 0.67088234 0.16640328 0.17538798
000200 e0 51 d9 3d a2 ce 81 bd 9a 50 8c be f5 98 39 3e
       0.106113195 -0.0633824 -0.27405244 0.18124755
000210 b7 f0 1b 3e ce 8f 75 be 57 5a 93 3c e3 e6 d8 3d
       0.15228544 -0.23980638 0.017987413 0.10590913
000220 3a 6e 9c be 0f e4 84 bd e8 ed a7 be 8d 53 07 3f
       -0.30552846 -0.06488811 -0.32798696 0.52861863
000230 3e c8 a6 be 2f 0f 7d 3e 0c 02 a6 3e 9d 15 ec bc
       -0.32574648 0.24712823 0.32423437 -0.0288189
000240 89 50 e7 3b 38 37 3c 3e 36 fa fc bd 57 10 a7 3d
       0.007059161 0.1838044 -0.123524114 0.081574135
000250 3f 98 c0 bd 11 e0 82 be b8 a3 97 3e 16 b4 8b be
       -0.09404039 -0.25561574 0.29617095 -0.27285832
000260 ec 03 2d 3e 95 0e 12 3f 15 d6 fc 3e 40 09 85 be
       0.16896027 0.570535 0.49382082 -0.2598362
000270 e9 18 dc be d3 dc 43 bf 8d e0 8e 3d 98 00 44 be
       -0.42987755 -0.76508826 0.069764234 -0.19140851
000280 7b 56 84 3d 26 98 05 3e a9 a0 73 3e 0d f4 07 3d
       0.06461807 0.13046321 0.23791756 0.03319173
000290 fa 79 f1 bd 29 8b e4 3d 80 bb b8 3d 62 4e 51 bd
       -0.11790843 0.11159355 0.09020138 -0.051100142
0002a0 e2 a4 49 3e ad 2d 05 3e bc 27 64 3e 29 ea db bd
       0.19691804 0.13005705 0.22280782 -0.10738022
0002b0 96 65 61 be a4 39 95 3c d3 a9 07 bf bc 8d 76 3d
       -0.22011408 0.018215962 -0.52993506 0.060193762
0002c0 bf cd e2 bd 5b 11 1a be 82 bf f1 3d 5b 64 31 3e
       -0.11074399 -0.15045683 0.11804105 0.17323439
0002d0 62 fd 0e 3d 64 ab 30 be 75 5e c5 bc ff 4c 22 bf
       0.034909613 -0.1725288 -0.024092892 -0.63398737
0002e0 b7 f4 1c 3e 61 7f d3 3e d6 7d 11 3e bf d4 fa 3d
       0.15327726 0.4130812 0.14208159 0.12247609
0002f0 67 be f3 3d 8e 92 43 3e ca 72 e6 bd 44 2f 70 be
       0.11901551 0.19098875 -0.11252363 -0.2345553
000300 43 7f 34 3e 6d 78 89 39 73 67 bb 3d 9a 3a 68 3e
       0.17626671 0.000262204 0.09150591 0.22678605
000310 20 d5 3b be 5f bd 7c bd da 49 ba 3d af 91 b9 bd
       -0.1834302 -0.061704036 0.09096117 -0.0906099
000320 2b c1 1c 3e 49 2f 5e bd 66 76 a0 be 24 5f 91 3b
       0.15308063 -0.054244313 -0.3134033 0.0044363905
000330 67 7a 38 bd f0 6d 25 be 41 95 83 be b5 9e 6c 3d
       -0.045038607 -0.16155219 -0.2569981 0.057768542
000340 67 a9 cd be b8 56 1d bf 94 6e 59 bf 90 df 48 bf
       -0.40168306 -0.6146045 -0.84934354 -0.7846613
000350 82 49 1d bf fa a2 94 3e 1d 1f f3 bd 46 6a b8 3e
       -0.6144029 0.2903059 -0.11871169 0.3601858
000360 fe d5 d2 3d 80 69 d8 3d 87 e9 37 bd 2a 53 8e 3e
       0.10294722 0.105669975 -0.044900443 0.27797824
000370 4c 6b 9f 3d 61 d4 59 be e9 3e 82 3d 60 8c 85 3e
       0.07784137 -0.21272422 0.063596554 0.2608366
000380 86 f1 83 3e 63 87 fa bd b2 8b 27 be a0 2d e0 be
       0.25770205 -0.12232854 -0.16361883 -0.4378481
000390 d2 10 0e be fd f3 1d be b0 6e e2 be a9 6b 2e be
       -0.13873604 -0.15425105 -0.44225073 -0.17033257
0003a0 e2 35 9c be 69 b8 2f 3c 55 ee 5e 3f 9c 10 29 be
       -0.3050986 0.010725119 0.87082416 -0.16510242
0003b0 0d ac c9 3b 71 ce 40 bd 7a aa 87 be 80 75 2a 3e
       0.0061545433 -0.047071878 -0.2649725 0.16646385
0003c0 31 72 07 3e 81 25 7e bd 59 65 d3 3e 86 84 13 3f
       0.13227154 -0.062047485 0.4128826 0.5762409
0003d0 fa f0 10 3f a9 86 73 3d db 16 7c 3f fd 23 3c be
       0.566177 0.059454594 0.98472375 -0.18373103
0003e0 bd da 65 3e a1 e7 9c bd 44 3d 16 3e d7 a1 a5 3e
       0.22446723 -0.07661367 0.14671808 0.32350037
0003f0 1a 51 04 3e f1 cb 02 bf 77 38 a9 bd 99 fd 04 bf
       0.12921563 -0.5109244 -0.08262723 -0.5194946

conv_layer.4.bias f4 [16]
000000 be ef 45 3c bf 64 82 3d bb ab 49 3d c6 86 c6 bc
       0.012081085 0.06366872 0.04923604 -0.024234187
000010 30 97 29 bd cb 79 a6 3c 7a d8 a6 bd 3e 5c 6a 3d
       -0.04140395 0.020321747 -0.081467584 0.057216875
000020 58 be 44 3d 03 98 12 3d e3 e3 aa bb 2c f7 c9 bc
       0.04803309 0.0357895 -0.0052151545 -0.024653994
000030 e2 b4 91 3d 1d e0 bc bb 1e df 5f 3d 8b 19 a3 3d
       0.07114579 -0.005764021 0.05465614 0.07963856

conv_layer.5.weight f4 [16]
000000 09 bf 86 3f d2 de a9 3f 86 6e ba 3f 29 a3 b8 3f
       1.0527049 1.3271124 1.4564979 1.4424793
000010 d8 cb 9d 3f 75 b4 a7 3f bb 80 b3 3f dc 9d 90 3f
       1.2327833 1.3101946 1.402366 1.1298175
000020 1e 67 81 3f f5 26 5a 3f b6 e6 fd 3f 81 56 81 3f
       1.0109594 0.85215694 1.9836032 1.0104524
000030 5d f0 92 3f b9 17 ba 3f 88 b9 9c 3f 6f ca bc 3f
       1.1479603 1.453849 1.224412 1.4749278

conv_layer.5.bias f4 [16]
000000 83 d1 00 bf 1c 87 1d bf 05 a5 18 bf 8d bc 8d bf
       -0.5031969 -0.61534286 -0.596268 -1.1073166
000010 ca cc 60 bf 8a 65 7f bf 6a 38 63 bf e9 1d 11 bf
       -0.87812483 -0.9976431 -0.88757956 -0.56686264
000020 ad f0 fe be 5d 36 a2 be 18 db d4 bf 2b ac a1 be
       -0.49792996 -0.316821 -1.6629362 -0.31576666
000030 d1 bf c1 be 2e a0 59 bf db f6 31 bf b6 44 8a bf
       -0.37841657 -0.8501004 -0.69517297 -1.0802219

conv_layer.5.running_mean f4 [16]
000000 c3 9b 4f c0 ea 79 2e c0 a6 cd 4f c0 7e c3 78 bf
       -3.243882 -2.726191 -3.2469268 -0.971733
000010 e0 da 10 c0 58 83 fe be f5 f2 49 c0 ca e6 d3 bf
       -2.263359 -0.49709582 -3.155454 -1.6554806
000020 c3 1c 91 bf 2f d6 7d 3f a1 62 90 c0 a5 55 b4 bf
       -1.1336902 0.99154943 -4.5120397 -1.4088637
000030 79 f6 05 c0 d5 06 6a c0 c9 a6 25 c0 1f 4d 4e c0
       -2.0931685 -3.656667 -2.5883048 -3.223457

conv_layer.5.running_var f4 [16]
000000 c0 1c cc 40 68 4c 3a 41 a7 19 23 41 8f 91 c5 40
       6.3785095 11.643654 10.193763 6.1740184
000010 ef 9e 07 41 08 a7 c9 40 7e 39 04 41 e2 a4 e9 40
       8.476302 6.3016396 8.264036 7.3013773
000020 83 ef bf 40 95 1f bc 40 2b 28 71 41 eb 7b d6 40
       5.9979873 5.878855 15.072307 6.7026267
000030 b0 de fb 40 49 82 0e 41 71 69 d4 40 8c 44 1f 41
       7.8709335 8.906808 6.6378713 9.954235

fc_layer.0.weight f4 [10, 1024]
000000 06 bd c6 be e3 c8 1f be d6 fc 54 be 9b 00 50 3e
       -0.38816088 -0.15603976 -0.20799574 0.20312731
000010 38 70 66 3d d6 8d 9b bd 7e d5 8d be b6 21 79 be
       0.056259364 -0.075954124 -0.27701944 -0.24329266
000020 b6 b2 9a 3d e7 e9 3e 3e 93 f7 89 3e 8c fb ba 3e
       0.07553618 0.18643914 0.26946697 0.3652004
000030 02 ed 1c 3e 55 54 0f 3e 27 de 20 be e5 76 09 3e
       0.15324786 0.13997014 -0.15709744 0.13424261
000040 d5 74 6d 3e d1 4c 54 bc 6a 45 0f 3a a9 2d 8b bd
       0.23189099 -0.012957768 0.00054653606 -0.06795818
000050 69 ca ea 3d b3 99 4c be 02 51 3c be fe ba e5 be
       0.11464388 -0.19980507 -0.18390277 -0.44869226
000060 53 e9 21 be 52 a6 00 be 30 c1 05 be 59 ea ef bb
       -0.15811662 -0.12563446 -0.13061976 -0.0073216376
000070 ad 32 16 be a2 11 5b be 6a 4b 3e be a3 1f a6 be
       -0.14667769 -0.21393445 -0.18583456 -0.32446012
000080 e9 25 2e be db 37 97 be e4 67 6c be f0 77 85 be
       -0.17006649 -0.29534802 -0.23086506 -0.26068068
000090 b9 36 aa be 97 82 0d be 61 2c 8d 3c ad dc c9 bd
       -0.33244875 -0.13819347 0.017233076 -0.09856544
0000a0 2a b1 ae bd f8 ad 41 be 51 ba fe bd ff 01 43 be
       -0.08529885 -0.1891402 -0.12437881 -0.1904373
0000b0 08 e9 04 be 32 39 18 bd 1b c6 3c bd d9 a6 08 be
       -0.1297952 -0.03716392 -0.046087366 -0.13344897
0000c0 b4 80 0f 3e 52 03 f2 bd 91 3e 19 bd a7 b9 08 be
       0.1401394 -0.118170395 -0.037413184 -0.13352071
0000d0 a3 49 24 be b5 e5 f2 bd 6b 78 39 be 92 13 e5 be
       -0.16043715 -0.118602194 -0.18112342 -0.44741493
0000e0 e2 c0 a4 3d cf 50 37 be cf bf 7c be 37 87 a5 be
       0.08044602 -0.1790192 -0.24682544 -0.32329723
0000f0 a4 11 5a 3c 25 c1 03 be 89 63 b0 bc c8 25 f9 3c
       0.01330987 -0.12866648 -0.021531837 0.030413523
000100 9f 69 83 3e 35 fb 18 be ea e3 69 3b 32 0e 97 bd
       0.2566652 -0.14939578 0.0035688826 -0.073757544
000110 8a 0d 56 3e 49 a9 0b 3e 86 26 85 3e dd 91 9c bd
       0.20903602 0.13638796 0.26005954 -0.07645009
000120 31 41 c3 3d 24 ca 9a 3d b1 20 f7 bd e7 1f c5 3d
       0.09533919 0.075580865 -0.12066782 0.096252255
000130 81 10 c3 3c d1 32 92 3e 23 76 21 3d 8d b4 3c 3e
       0.02381158 0.28554395 0.039419305 0.1842825
000140 32 99 bf bd b8 43 87 3d 57 52 bf be da a9 27 3e
       -0.093553916 0.06604713 -0.37367508 0.16373387
000150 1a 36 d9 3d 9e da 95 3e 01 60 9c 3e e9 2a de 3d
       0.10606022 0.29268354 0.30541995 0.10848028
000160 15 2d 22 3e c4 22 64 3d e0 7c a8 bb 7f 15 15 3e
       0.1583751 0.055697218 -0.0051418394 0.14558981
000170 f9 a9 bf 3d ba ab ba 3d fb 29 05 3e af 9c 0d bd
       0.093585916 0.091147855 0.13004296 -0.034573253
000180 3c 92 a5 3c 5b 76 07 be 11 c9 b2 3d dd 32 c2 3c
       0.020211332 -0.13228743 0.087297566 0.023705894
000190 37 3d 84 3d 13 6b f4 3d 1a 00 73 3e 45 b8 73 bd
       0.06456988 0.11934485 0.23730507 -0.059501905
0001a0 54 22 b7 3c 02 04 88 3d de 59 75 3d 1c 8b fa 3d
       0.022355236 0.066413894 0.059900157 0.12233564
0001b0 f5 1d 4c 3e 60 d9 dc bd ba d5 49 3d 19 64 1b 3e
       0.19933303 -0.107836485 0.04927609 0.15174903
0001c0 d5 32 66 3e 54 b8 1a 3e ad f4 0a 3d 7c e1 c0 3d
       0.22480328 0.15109378 0.033924747 0.09418008
0001d0 4e c4 7d 3e 9d 56 a6 3d f4 46 33 bd 2b 28 23 3d
       0.24781916 0.08121989 -0.043768838 0.03983323
0001e0 e0 68 69 3e 6f 8e b7 bd 17 5e a2 3e 32 67 a1 3b
       0.22793913 -0.08962714 0.3171241 0.004925632
0001f0 b9 86 b7 3e ed 18 87 3e ed eb a1 bd 1e f2 97 bc
       0.35844973 0.26386204 -0.079063274 -0.018548068
000200 42 d1 85 be cf 00 fe 3d 1b 0d 0a 3e d9 ee 2f 3c
       -0.26136214 0.12402498 0.13481562 0.010738098
000210 37 ff b3 bc 7a 3b 25 3d 33 25 0a bc 15 29 1c be
       -0.021972282 0.040339924 -0.008431721 -0.15250047
000220 7a af 0b be be 79 5b bb dc 87 a9 3d 9b f7 0e 3e
       -0.13641158 -0.0033489312 0.08277866 0.13961641
000230 39 69 12 be d7 ac c1 3d 2c bf 0a 3e 2a 32 f0 bc
       -0.14297952 0.09456795 0.13549489 -0.029320795
000240 1c 1b d1 3c 69 dd 6a 3e a3 a6 c1 bc e8 20 2d 3e
       0.025525622 0.22936024 -0.023639029 0.16907084
000250 b1 dd 00 bb fe 0b 3d 3e b4 42 cd bb f8 a5 e2 3d
       -0.0019663388 0.18461606 -0.006264055 0.11066812
000260 0c 52 fe bd 4e 28 c7 3d 14 8e 60 3e f3 e6 ea 3d
       -0.12417993 0.097244844 0.21929199 0.11469831
000270 3a 7f 49 3e 61 fa f1 3e 15 42 3d 3e 92 d7 a2 be
       0.1967744 0.47261336 0.1848224 -0.31805092
000280 24 93 7e be 01 5d 46 3e fa 95 4e 3e f6 f2 52 3d
       -0.24860817 0.19371416 0.20174399 0.051501237
000290 2e ab b6 bd d7 c2 37 3e 75 9f 0c 3e 53 ec 1e bd
       -0.08919369 0.17945419 0.13732703 -0.038799595
0002a0 4f 1b ef 3c af 34 95 3d 39 c4 85 ba 83 6d f7 3d
       0.029187826 0.07285439 -0.0010205574 0.120814346
0002b0 79 00 bc bd ec 65 25 3e 3e f7 9c 3e e4 08 4f be
       -0.09179778 0.16152161 0.3065738 -0.20218235
0002c0 f3 09 27 3e 33 79 1b bd 0f e5 52 3d 78 02 14 bc
       0.16312389 -0.03795738 0.05148798 -0.009033792
0002d0 21 f6 5a bd 11 33 02 3e c7 b6 70 bc d4 d4 31 3d
       -0.053457383 0.12714793 -0.014692015 0.04341586
0002e0 ea ad 0c 3e ed 08 ef bd d4 6b 65 bc d0 6a 2c bd
       0.13738218 -0.11671624 -0.014002759 -0.04209405
0002f0 f3 9c 5b bd 98 30 86 be e5 03 76 bd 2e 67 06 3f
       -0.053616475 -0.2620895 -0.060062308 0.5250119
000300 0f 55 cf bc 53 bc 86 3e ee e2 83 3e 78 c8 8e 3e
       -0.025309114 0.26315555 0.2575907 0.2788732
000310 37 d7 fc 3c a5 38 ef bd 7f 8b a7 3d 32 ad b7 3d
       0.030864341 -0.11680726 0.08180904 0.08968581
000320 78 44 fe bd bc 88 ee 3c dc 3d 83 3e d9 75 3c 3e
       -0.12415403 0.029117934 0.25633132 0.1840433
000330 7e 7a 16 bd 28 06 d4 3e 3d 17 e9 bd 5e ef f0 bd
       -0.03673791 0.41410947 -0.113813855 -0.11764406
000340 da 6a 47 3d 11 e4 02 bb 3f 47 c6 3c 1c ee e7 3d
       0.048685886 -0.0019972364 0.024203895 0.11324713
000350 9d a9 e7 3d 7e 94 f1 3d f7 fb 6a 3e 3d de db bd
       0.11311648 0.11795901 0.2294768 -0.10735748
000360 2b c4 71 be 4c fd 83 3c 05 1f f4 bd 36 5c 82 3e
       -0.23609988 0.016111992 -0.11919979 0.25460976
000370 5e 88 50 3e 31 a1 01 3e 7e 81 5c 3e 04 d4 23 3e
       0.2036452 0.12659146 0.21533772 0.15998846
000380 ef 36 ef be da c8 6d 3d 65 c2 03 3e 7b b1 91 3d
       -0.46721599 0.058052875 0.12867124 0.0711393
000390 ff 7e c4 3b fd a2 60 bd 0c e5 3c ba e1 93 33 3e
       0.0059965844 -0.054842938 -0.00072057615 0.1753688
0003a0 39 4d 0a be 75 54 13 3d 01 4b d3 3d 52 13 f7 3d
       -0.1350602 0.035969216 0.1031704 0.12064232
0003b0 44 dd bb 3d d0 a6 d1 3d b5 1a c6 bd a4 27 9c bc
       0.091730624 0.10236895 -0.09673063 -0.01906187
0003c0 de e3 16 bd 41 7d fc 3d 9e e1 70 3d 38 0f 3c be
       -0.036838405 0.12328578 0.058808915 -0.1836518
0003d0 87 6d b5 be d3 a4 ed bd e7 5e 29 be 8f 2f c8 bd
       -0.35435125 -0.11603703 -0.16540109 -0.09774696
0003e0 a3 53 d0 3d ff 0b b4 3d 72 b0 ac bc d7 ea 90 bd
       0.101722024 0.087913506 -0.02108023 -0.07076042
0003f0 80 ab 56 be 73 6f 4c bd e2 8b 3d be eb 63 1b 3e
       -0.2096386 -0.049910974 -0.18510392 0.15174834

fc_layer.0.bias f4 [10]
000000 cd b3 b8 be 3f 29 07 bf 7c bf 91 be 1a 04 22 be
       -0.36074677 -0.5279731 -0.28466403 -0.15821877
000010 33 02 9d 3f 9d a8 9f be 08 13 08 3f 67 a3 0d bf
       1.2266296 -0.3118333 0.5315404 -0.5532746
000020 ed 8d 50 3e c2 0f 67 3e
       0.2036664 0.22564605
