Knowledge Distillation/TAKD/saved/10-8-6.pth (torch, 345058 bytes, 38 tensors)

conv_layer.0.weight f4 [16, 3, 3, 3]
000000 9f 7d 3e 3e 01 9a 07 3d 18 af de bd cd a0 94 3e
       0.18602608 0.033105854 -0.1087324 0.2902893
000010 80 9a 9e be 93 f2 1c be 43 0f 00 3f 03 4d cb 3d
       -0.3097725 -0.1532691 0.5002329 0.09926798
000020 d3 31 93 3e c7 8c c8 bd e8 d7 b6 bd a0 83 b1 be
       0.2874895 -0.09792476 -0.089278996 -0.34670734
000030 0c af 03 be 1a 43 43 bf ec fc d7 be a8 02 a5 3e
       -0.12859744 -0.76274264 -0.42185152 0.3222859
000040 d5 3f 74 be db ee 85 be 6c 3e 51 3e f9 6d 18 3e
       -0.23852475 -0.26158795 0.20433968 0.14885701
000050 43 4d 45 3e 41 c0 71 3e 3c 30 98 be 93 58 34 be
       0.19267754 0.23608495 -0.297243 -0.17611913
000060 d9 dd 1d 3f cd 2b 84 3d 6e 8a 6b 3e 9c 5b 9c 3e
       0.6166664 0.06453667 0.23002025 0.30538642
000070 a6 41 66 3f 3e e8 43 3e 99 a3 4d bd e9 51 80 be
       0.8994392 0.19131562 -0.050204847 -0.25062492
000080 ba 34 86 be 27 2a 84 be 68 67 20 bf c4 e6 b7 3e
       -0.26212102 -0.2581341 -0.62657785 0.35918248
000090 de e0 09 3e 19 ff c7 3e 0b 52 bc bc 0d 3a e9 bd
       0.13464686 0.39061812 -0.02298834 -0.113880254
0000a0 af c1 20 bf 4a 20 b4 be f7 bf 88 bd 6f 8d 3b be
       -0.6279554 -0.35180885 -0.066772394 -0.18315671
0000b0 51 0b 15 3f 86 4f 3d 3d 6f 7f e9 3e 72 e0 e3 be
       0.5822039 0.046218418 0.45605037 -0.44507176
0000c0 0f 33 25 3e 20 fb e6 be 0f 3f 92 be 31 79 a3 3e
       0.16132759 -0.45113468 -0.28563735 0.319284
0000d0 df 64 d6 bd 24 ff 8d 3e 8f c4 98 3e b3 4f 83 be
       -0.104684584 0.2773372 0.29837462 -0.25646743
0000e0 ec 67 5f 3e 17 09 4e be 5b 16 f3 be 86 ba 0e bd
       0.21816987 -0.20120655 -0.47477993 -0.03484585
0000f0 c7 12 5c 3e b5 de 00 bf d8 f4 c6 3d 30 98 15 be
       0.21491538 -0.50339824 0.09714669 -0.14608836
000100 0c a8 14 be d3 6b ad 3d 9d d3 9d be 2e 51 90 bd
       -0.1451723 0.084678315 -0.3082551 -0.07046734
000110 ef 89 6b 3e 93 eb a2 be c5 d7 08 bf e8 dc 87 bd
       0.23001836 -0.31820354 -0.5345424 -0.066339314
000120 5a 07 e8 3d b1 23 0c 3d 0c 68 25 3f 1b 46 4d 3e
       0.11329527 0.034213725 0.6461189 0.20046274
000130 7b 1f ad 3e 4c 69 3d 3f fd ac 63 be 17 d3 86 be
       0.3381308 0.73988795 -0.22233959 -0.26332924
000140 9a f0 60 3e fd 22 d1 3d 73 14 91 3e c2 9f 14 bd
       0.21966782 0.102117516 0.28335914 -0.03628517
000150 c3 58 12 3e 2f 2f 39 3e b7 e4 9d 3d fd 68 8b 3d
       0.14291672 0.18084405 0.077096395 0.06807134
000160 7b 0e 7c be 8a 17 42 be a6 51 63 be d6 b6 8a 3c
       -0.24614899 -0.18954292 -0.22199115 0.016932886
000170 46 97 09 3e 7a 51 c7 3d 53 80 5a be 3e 78 75 be
       0.13436612 0.09732337 -0.21338014 -0.2397165
000180 ba e0 9b bc 6c ad d9 3d 99 16 a5 be 44 d7 bc bc
       -0.019028056 0.10628781 -0.32243803 -0.023051865
000190 15 09 b8 3e fd f5 78 3e ae 47 2e 3d b1 2f fb 3d
       0.3594443 0.24312587 0.042548828 0.12264956
0001a0 bb 72 d9 3d fe 1a 43 3e dc 99 9c 3e 33 98 11 3d
       0.10617586 0.19053265 0.30586135 0.03554554
0001b0 4c 8a 1a be a2 07 2b bf b8 90 f5 be b9 4e 6a 3e
       -0.15091819 -0.6680852 -0.47961974 0.22881593
0001c0 47 12 34 3c d1 00 8c be 8a 8b 89 3d ed b9 73 3f
       0.010990686 -0.27344373 0.06716068 0.95205575
0001d0 9b 77 42 3f 33 2b 4a 3e 85 5d 29 bd 6d 48 16 3e
       0.75963753 0.19743042 -0.041348953 0.14676066
0001e0 11 cf 72 be 88 6e 85 be b8 56 f3 b9 42 73 25 bf
       -0.23711802 -0.2606089 -0.00046413182 -0.64628994
0001f0 04 b6 3d 3e b0 75 7f 3e af 0c 37 3f 57 92 b0 3d
       0.18526465 0.24947238 0.7150373 0.08621662
000200 a7 bb 6a 3e b6 ec a6 3d 99 33 ff 3b c1 9f a2 bd
       0.22923146 0.08150618 0.0077881333 -0.07940627
000210 00 55 48 bf c3 ca 76 be a2 43 51 be 43 70 35 bc
       -0.782547 -0.24100785 -0.20435956 -0.011074129
000220 cb 9c de bd 61 62 28 be ea 48 fe 3d 87 d3 43 3d
       -0.1086975 -0.16443779 0.12416251 0.04780915
000230 c0 d0 66 3d 3c 1f ca bc aa c3 00 be 28 f6 e3 bd
       0.056351423 -0.024673097 -0.1257464 -0.11130935
000240 87 4c f1 3e c4 fa c8 3c 84 51 87 3e 91 61 10 3e
       0.47128698 0.024533637 0.2642938 0.14099719
000250 c4 e0 97 bd 2b c8 4d 3e c3 15 27 3e 1c d5 c2 be
       -0.074159175 0.2009589 0.16316895 -0.38053215
000260 cb 1f 4b be 55 5d 25 3e 54 de e9 bc 6a 37 31 be
       -0.19836347 0.16148885 -0.028548397 -0.17306295
000270 b6 1f 2f 3e fc 38 6a be 19 7d 54 be 29 23 0f be
       0.1710194 -0.228733 -0.20750846 -0.13978256
000280 ab 5a 01 bf 98 86 4e be 95 2e c3 3e cf 86 b0 3e
       -0.50528973 -0.20168531 0.38121477 0.3447785
000290 31 db 19 3c d1 60 cc 3e 5a 36 c0 bd 05 25 99 be
       0.009390638 0.39917615 -0.09385367 -0.29911056
0002a0 22 d6 28 3e 76 06 bf bd 40 32 e4 be 2c 33 13 be
       0.16487935 -0.09327404 -0.44569588 -0.1437499
0002b0 d1 53 1a 3c 2c 49 15 be 7c 1b 2c be 2a 96 c2 be
       0.009419397 -0.14578694 -0.1680736 -0.3800519
0002c0 8e c4 73 bd 66 31 02 be 56 78 a0 bd 21 2e 1e be
       -0.05951362 -0.12714157 -0.07835452 -0.15447284
0002d0 28 ec aa bd a9 87 2a be 93 0c 33 3e aa db 1e be
       -0.083458245 -0.16653313 0.17485265 -0.15513483
0002e0 98 4a 51 be 0e 61 33 3e e7 b0 75 bd ab ec 02 3e
       -0.20438612 0.17517492 -0.05998316 0.12785594
0002f0 88 af 8e 3d c4 4d e7 3d 0a a1 03 3e a4 53 db bd
       0.06967074 0.112941295 0.128544 -0.107093126
000300 35 29 19 be 11 49 42 bf ea c7 d4 3e b2 e7 f2 3e
       -0.14957125 -0.7589274 0.41558772 0.47442394
000310 60 79 5d be 44 ef 76 3e 75 e2 7c 3e d6 84 a8 3d
       -0.21628332 0.2411471 0.24695762 0.082284614
000320 d8 90 c3 bd 72 3a 2e be 3c c2 47 bf 4b c2 e7 3e
       -0.09549111 -0.17014483 -0.78030753 0.4526542
000330 62 8a c4 3e 0c 92 b7 be 14 dc df 3c 3e 7f 4f 3e
       0.38386828 -0.35853612 0.027326621 0.20263383
000340 41 68 d4 3e 85 d7 da bd e6 47 37 3e 9d 98 fe be
       0.4148579 -0.10685638 0.17898521 -0.4972581
000350 70 66 93 3e 8d 8b 8e 3e 23 56 b2 be 0f 70 b1 be
       0.2878909 0.27840844 -0.34831342 -0.34655806
000360 2a 93 75 be 0f fc 0d 3d 08 03 b1 bc 4d dd a2 3d
       -0.2398192 0.03466421 -0.02160789 0.07952366
000370 03 8d 39 3d 9f 83 50 3d b5 dc 2e bd 4c f5 39 3d
       0.045300495 0.050906774 -0.04269095 0.04539995
000380 5b 68 36 be 7f fa 0b 3e 33 b2 98 3e 4c 1c 7d 3e
       -0.17813246 0.13669775 0.29823455 0.24717826
000390 7f 42 4d 3e 58 2b c9 3e 8a 62 3f 3e 73 f5 5c 3e
       0.20044897 0.3929088 0.18689933 0.21578006
0003a0 28 3a 8b 3e 43 e2 34 be 5e c1 b9 bd 5d 90 8e 3e
       0.27192807 -0.17664437 -0.09070085 0.27844515
0003b0 e4 c3 83 3d 33 8e 89 be ac 2b 1a 3e fa 21 c6 bd
       0.064338475 -0.26866302 0.15055722 -0.09674449
0003c0 43 b0 f1 be 76 ae 61 be a3 7f 9f bd 9d bb 05 bc
       -0.4720479 -0.22039208 -0.07788017 -0.008162406
0003d0 3c bd f4 3d 77 e7 9a 3e c9 80 4a be 92 b3 a0 be
       0.11950156 0.3025472 -0.1977569 -0.31387
0003e0 c8 92 a7 3e 43 a2 93 be 04 66 80 3c 24 84 cc 3e
       0.32729173 -0.28834733 0.015673645 0.39944565
0003f0 fc 9c a9 be 85 8e bd be 27 9f 96 3e 91 da 1b bf
       -0.33127582 -0.37022796 0.294183 -0.6088038

conv_layer.0.bias f4 [16]
000000 9f 6d 0c bd 53 67 08 3a 3f 92 75 bd de 26 00 bc
       -0.03428423 0.0005203385 -0.059953924 -0.007821767
000010 7b fd 14 be 6b 39 b6 bd 9a 00 76 3c 71 78 b4 bc
       -0.1454982 -0.0889767 0.015014792 -0.022030087
000020 c7 6c 32 3e 47 4d b2 bd b4 33 42 3d 67 13 34 3e
       0.17424308 -0.08706146 0.04741259 0.17585526
000030 86 c6 bf bd 84 4a 4c 3d 83 59 af 3d 3f dd cc bd
       -0.09364037 0.04987575 0.08561995 -0.10003137

conv_layer.1.weight f4 [16]
000000 6e e6 7e 3f 22 fc a5 3f 9b 5b 65 3f 14 b9 0c 3f
       0.9957036 1.296757 0.89592904 0.54969907
000010 9f 42 6b 3f 49 66 51 3f f1 52 63 3f 30 2d b5 3f
       0.9189853 0.817967 0.88798434 1.4154415
000020 1a 6c 49 3f 2c e3 8a 3f bd 2b 67 3f 4c 0d 6e 3f
       0.78680575 1.0850577 0.90301114 0.9298904
000030 aa 73 38 3f 5f c4 72 3f ff 9b 83 3f 96 ac 5f 3f
       0.7205149 0.9483089 1.0281981 0.8737272

conv_layer.1.bias f4 [16]
000000 08 f4 97 3e 01 61 39 3f cf 9c 8b 3d 33 f1 f8 3c
       0.2967837 0.7241364 0.06817018 0.03038845
000010 05 36 17 3f d0 48 65 bd cb f5 a8 be 7b b1 32 3f
       0.590668 -0.055977643 -0.33000025 0.69802064
000020 a8 14 87 be 09 9e 85 3e fc 4a 2c 3f dc cd 6e bd
       -0.26382947 0.26097134 0.6730192 -0.05830179
000030 20 65 bc 3e aa 86 76 3e b6 81 13 3e 06 bd 81 bc
       0.36795902 0.24074808 0.1440495 -0.015837204

conv_layer.1.running_mean f4 [16]
000000 72 59 27 be 60 10 5e bd 60 5c a2 be a8 34 71 3f
       -0.16342714 -0.054214835 -0.31711102 0.9422097
000010 ae 28 86 be f0 e9 53 bf 5c e0 67 bf 30 26 e9 bd
       -0.2620291 -0.82778835 -0.9057672 -0.11384237
000020 1b 32 83 3f 0d 47 c0 be 3c 2a af 3d 60 b4 50 3e
       1.0249666 -0.37554207 0.085529774 0.20381308
000030 f3 76 6c 3d 8e 7f 75 bd 3f 68 97 be 13 5b 9f be
       0.057730626 -0.0599361 -0.2957172 -0.31124172

conv_layer.1.running_var f4 [16]
000000 df d5 09 3f 58 b2 b7 3e f9 b0 21 3f bd de b3 3e
       0.53841966 0.35878253 0.63160664 0.35130873
000010 39 e2 29 3e 23 35 e1 3e 01 33 9c 3e 46 04 84 3e
       0.16590203 0.43985853 0.30507663 0.2578451
000020 c2 4f 8f 3e 8b bc 74 3f 26 d7 25 3e ec 46 1e 3f
       0.27990538 0.95600194 0.16195354 0.6182697
000030 97 7d bc 3e 39 0e 79 3e d5 b3 d1 3e 9d 63 6b 3e
       0.36814567 0.24321832 0.40957513 0.22987218

conv_layer.3.weight f4 [16, 16, 3, 3]
000000 20 2d 35 3e 92 32 67 3e 79 7b d7 be e4 ab 1b 3e
       0.17692995 0.22577885 -0.4208639 0.1520229
000010 70 57 c6 3c 2b 21 92 be 69 14 5c 3d d0 25 94 bd
       0.024211615 -0.2854093 0.053730402 -0.07233775
000020 5d a8 9e be 70 eb 31 bd 98 b3 70 3e 29 db 3e be
       -0.30987826 -0.04343742 0.2350601 -0.1863829
000030 6b 4a 0c 3e 50 c7 27 3d 9a d4 93 be 19 6b 00 3e
       0.13700263 0.040961564 -0.2887314 0.12540855
000040 52 e0 b3 bd 81 64 58 be f7 d9 20 be 3a 54 6c 3e
       -0.0878302 -0.21132089 -0.15708147 0.23079005
000050 02 18 c8 bd 34 0c b9 be f1 b8 92 3e 7d d9 b5 bd
       -0.09770204 -0.36142123 0.28656724 -0.08879373
000060 73 d2 a6 be 76 86 a9 3e 62 3c 01 be ac a0 99 bd
       -0.32582435 0.33110398 -0.1262069 -0.07501349
000070 5f 53 34 3d e9 af 27 3e 14 fc a7 3d 1d 6a fe b8
       0.04402482 0.16375698 0.08202377 -0.00012131429
000080 97 30 09 3d 5b 33 0c bd 17 03 d3 bb 05 ea ff bd
       0.033493605 -0.034228664 -0.0064395773 -0.124958076
000090 ed c4 01 be e9 7d 2b bd 55 0d 7c 3d 49 39 09 be
       -0.12672777 -0.041868124 0.061536152 -0.13400759
0000a0 98 17 a6 3d 52 05 60 bd b6 94 86 bc 3d 70 31 3e
       0.08109969 -0.054692574 -0.016428333 0.17327972
0000b0 66 2c d2 bd 41 d6 41 bd da 8a e0 3d d4 47 93 be
       -0.102623746 -0.04732347 0.10963984 -0.28765738
0000c0 10 7a 10 3e 02 07 0f 3e 0d 03 62 be 3f d3 88 3d
       0.14109063 0.13967517 -0.22071476 0.06680917
0000d0 66 42 ee 3d fe f9 45 be 83 8c fc 3d 04 dc 8d 3d
       0.11633758 -0.19333646 0.12331488 0.0692673
0000e0 c8 0e a2 bc 2e 03 01 3e eb 4f c4 3c ba 89 4d be
       -0.019782439 0.12598869 0.02396389 -0.2007207
0000f0 42 3f 6f 3e 18 1c 43 3e 45 ed 20 be ac 6a 7f be
       0.23363975 0.19053686 -0.15715511 -0.24943036
000100 7c 6a 86 3e 1d d3 7a be 3c 9e f0 bd cf a2 c1 3e
       0.26253116 -0.24494596 -0.11748931 0.37819526
000110 3f b3 71 be 0a ce 9a bd 0d 81 56 3e 05 d6 0c be
       -0.23603533 -0.0755883 0.20947666 -0.13753517
000120 a4 04 61 3d 39 42 fc bd 68 a9 ad bb 2c 12 cd 3d
       0.054936066 -0.123173185 -0.005299736 0.10013232
000130 12 e0 c0 bd 06 df c6 bd 0b 8a 4a bd 4b b1 3d be
       -0.09417738 -0.09710507 -0.049448054 -0.18524663
000140 16 42 a3 bd 56 41 75 be 56 12 34 3e 4e bc 64 bd
       -0.07971589 -0.23950705 0.1758512 -0.055843644
000150 c2 09 a8 bd 70 1c e9 3e fb 54 26 3e 00 a4 ec bd
       -0.08204986 0.4552951 0.16243355 -0.11554718
000160 8f 72 c4 3e 79 ac e5 bc 2b fb 8f 3e b1 8f d4 be
       0.3836865 -0.028036343 0.28121313 -0.41515878
000170 11 20 9f 3d 2e 0c e4 3d b5 aa ba be ae a4 fe 3d
       0.07769788 0.111351356 -0.36458364 0.12433754
000180 54 05 6c 3e fe 52 e9 bd ce 80 37 3e a4 59 eb 3c
       0.23048908 -0.11392783 0.17920229 0.028729267
000190 98 78 10 3e c9 aa 76 be 41 db 70 3e 1a 63 17 3e
       0.14108503 -0.24088587 0.23521139 0.14783898
0001a0 67 54 da bd e1 55 fe 3c ee 0f 5f 3e 79 d6 a1 bd
       -0.1066063 0.03104681 0.2178342 -0.079022355
0001b0 70 0c 13 3e 3c ba 8e be 03 b0 82 3e e6 84 d2 3d
       0.14360213 -0.2787646 0.2552491 0.102792546
0001c0 08 58 4e be a9 d8 83 3e 0e cd 6c be fc ef f8 ba
       -0.20150769 0.25751236 -0.23125097 -0.0018992419
0001d0 bb ef 2b be 38 8a fb bd 1e d1 4a 3d bd cd e1 3c
       -0.16790669 -0.122822225 0.049515836 0.027563924
0001e0 ae 33 1e be 4e 11 15 bd a3 d0 6a be d2 f9 bd bd
       -0.15449402 -0.036393456 -0.22931151 -0.09276165
0001f0 22 8f 5c bd b3 bb b1 bd 12 51 81 3d de 14 ac 3e
       -0.05384744 -0.08678379 0.06314291 0.3360967
000200 4c d6 9d be 8f 3b df 3c 93 8e 5e 3b 6a 34 b3 be
       -0.30827558 0.02725008 0.0033959493 -0.35000926
000210 fd 05 9c 3d 98 b5 0e 3d b3 44 5c be 3f 18 51 bd
       0.0761833 0.03484115 -0.21510582 -0.051048514
000220 b1 cf 1a be ab e1 88 3d 52 cf c0 3b ab 24 2c be
       -0.1511829 0.06683668 0.0058840895 -0.16810863
000230 79 bc 68 3e 28 5b dc bd 91 00 10 be 30 fb 7f 3e
       0.22728147 -0.10759574 -0.14062716 0.24998164
000240 37 de 5a 3c 68 b6 6b 3d 78 33 80 3d 13 33 72 be
       0.013358644 0.057547003 0.06259817 -0.23652296
000250 60 86 0f be ae 7f 7c bd cd b0 18 3e 44 81 db 3d
       -0.14016104 -0.061645202 0.14911194 0.10718015
000260 1d 72 05 3e 88 ce 78 3d 86 02 e9 3d 55 2e 3d 3e
       0.13031812 0.06074384 0.113774344 0.18474706
000270 35 63 bf 3c 10 dc 02 be 4b 8b 99 3c a5 ed 48 bc
       0.023362735 -0.1277926 0.018743178 -0.01226369
000280 88 19 04 be 88 90 0b be 08 e7 1a be 98 c2 84 be
       -0.12900364 -0.13629353 -0.15127194 -0.25929713
000290 7e fb 67 be e5 8a 88 3e 8d 3a dd 3d 2c 06 e7 3d
       -0.2265453 0.26668468 0.10802183 0.11280474
0002a0 24 09 b6 3e be 63 b7 3e 9d ba 46 3e d9 4a 02 bd
       0.3555385 0.35818285 0.19407125 -0.03180966
0002b0 35 71 3f bd d6 ea b2 bd f9 ab 97 3d 40 ac ff 3b
       -0.046738822 -0.08736198 0.07405848 0.007802516
0002c0 cc 5a 68 bd 54 87 25 3c 23 90 bd 3c f4 f3 6a 3d
       -0.056727216 0.0101030655 0.023140019 0.057361558
0002d0 10 ec d5 bd 77 94 95 be 05 2d 27 be 3e ec 16 3d
       -0.10445416 -0.29214832 -0.16325767 0.03684639
0002e0 da 5b 67 be aa 71 0a be 44 bf 91 3e 1d c4 78 3e
       -0.22593632 -0.13519922 0.28466237 0.24293561
0002f0 16 bb d8 bc a6 6f 0b 3d cc 4d 38 bc 30 41 fa bd
       -0.026456397 0.034042023 -0.011249017 -0.12219465
000300 97 07 a6 bd 37 a6 19 bd f2 03 5f bd 62 d3 86 bd
       -0.081069164 -0.03751203 -0.054447122 -0.06583287
000310 3e 68 d3 bd 6f fa b1 3d 97 4e 28 3d f8 ff 99 3d
       -0.10322617 0.086903445 0.041090574 0.07519525
000320 84 83 85 3d 61 4b 6f bd cd c9 59 be d9 f9 82 be
       0.06519225 -0.058421496 -0.21268387 -0.25581244
000330 3f 05 89 3c 5f 60 da bd 92 b2 77 bd 91 b3 fd bd
       0.016726134 -0.106629126 -0.060473032 -0.12387765
000340 74 b5 02 bd d7 3b 39 3d f3 e4 ca bd e7 20 2c be
       -0.03191133 0.045223083 -0.0990695 -0.16809426
000350 64 31 80 3c 54 c4 02 3e 1a 59 cb 3d 77 9e 54 3e
       0.015648551 0.12770206 0.09929104 0.20763575
000360 94 d5 cd bd 7e 46 6d be 38 9a 18 be 49 0b 19 bc
       -0.100505024 -0.23171422 -0.1490258 -0.0093410695
000370 df 96 a3 bc 22 f2 d3 bd b9 d4 0d be 1c 64 bc bd
       -0.019969402 -0.103489175 -0.13850679 -0.09198782
000380 c1 56 96 bd 24 be e1 3d 37 e7 c1 bb d6 08 58 bd
       -0.07340766 0.110225946 -0.0059174555 -0.0527428
000390 3a 7c 1a 3d 43 6f 6a bd aa 15 ce bd b4 76 b4 bc
       0.037716128 -0.057235014 -0.10062726 -0.022029258
0003a0 40 6a f3 3c 7d 56 1a 3e 13 2c 02 bc 7e 2e 9d 3c
       0.02971375 0.15072055 -0.007945078 0.019187208
0003b0 2e 1b 57 3d 46 7c dc 3c 53 27 f3 3c eb 0c e4 3d
       0.052516155 0.026914727 0.029681837 0.111352764
0003c0 6c 55 88 be a4 75 da bc 3b 87 15 3e 1e b6 f3 bc
       -0.26627672 -0.026667424 0.14602368 -0.029749926
0003d0 1f 7b 0d 3d 47 ca 94 bd 4b c4 a1 3d 51 cb 74 3d
       0.034541246 -0.07265144 0.07898768 0.05976421
0003e0 db 89 fe 3c 18 6a e6 bd 37 31 f4 bd d7 b5 4f 3c
       0.031071594 -0.112507045 -0.119234495 0.012677631
0003f0 d2 f7 2e be 3f 8d 5b be b9 6b 41 bc 2b c6 88 be
       -0.17086723 -0.214406 -0.011805468 -0.2671369

conv_layer.3.bias f4 [16]
000000 e3 82 34 3d 0e ed 3e bd a6 3a 9c bd 37 ea 95 3d
       0.044070136 -0.04661279 -0.07628374 0.073200636
000010 7e e3 0c bd 7e cf 87 bc af 03 85 bd 0a 50 8d bd
       -0.03439664 -0.016578432 -0.06494843 -0.06900032
000020 66 3d 99 3d 8b 75 74 ba 85 48 c6 3c 30 0c c4 3c
       0.07482414 -0.00093253766 0.024204502 0.023931593
000030 0e e6 df bc be 3b a8 bd 66 f4 8f 3c 5d e3 eb bb
       -0.027331378 -0.0821452 0.017572593 -0.0071987347

conv_layer.4.weight f4 [16]
000000 45 93 9f 3f 3e 8b 6b 3f e1 73 7a 3f ac 6b 8d 3f
       1.2466818 0.9200934 0.9783307 1.1048484
000010 db a3 6a 3f 64 20 8c 3f c9 a5 84 3f b7 49 84 3f
       0.91656274 1.0947385 1.0363094 1.0334996
000020 28 61 86 3f e4 9b 8a 3f 52 df a0 3f 85 58 56 3f
       1.04984 1.0828824 1.2568152 0.8372882
000030 08 43 95 3f f9 12 80 3f 96 9f 74 3f 36 13 80 3f
       1.1661081 1.000579 0.9555601 1.0005863

conv_layer.4.bias f4 [16]
000000 b5 84 48 be 8d 32 53 3e 95 23 da bd 42 08 d8 bd
       -0.19581874 0.20624752 -0.10651318 -0.1054845
000010 29 e9 0b 3c b7 78 a2 ba 52 e3 25 3d 69 47 1c be
       0.008539476 -0.0012395595 0.040499993 -0.15261616
000020 47 51 a6 bd 60 03 1c be 56 6a 59 be 58 d9 59 3d
       -0.08120971 -0.15235662 -0.2123197 0.05318579
000030 e5 43 9e bc 62 5e ec bd 1f c6 23 be 09 c9 2f 3a
       -0.019319484 -0.115414396 -0.15993546 0.0006705677

conv_layer.4.running_mean f4 [16]
000000 ae 87 8b bf a3 ff 37 bf f4 08 b9 bf ba 29 13 bf
       -1.0900781 -0.71874446 -1.4455857 -0.57485545
000010 35 a2 5c 3d 11 b1 81 bf ad e1 3a 3e 92 f5 d9 bd
       0.05386563 -1.0132161 0.18250151 -0.10642542
000020 5e 3c 8f bf 26 b3 26 3d 55 84 80 bf 3b 43 c6 3e
       -1.1190298 0.040698193 -1.0040385 0.38723168
000030 c4 62 19 bf 2f 5e fc bf cb a8 80 3f 98 74 93 3f
       -0.5991633 -1.9716243 1.0051512 1.1519957

conv_layer.4.running_var f4 [16]
000000 2f b9 a3 40 8c 1f 0c 40 01 3b 0a 40 e1 c9 88 40
       5.1163554 2.1894255 2.1598513 4.2746434
000010 70 b8 2f 40 11 9e 84 40 f5 bb 6f 40 75 a3 1d 40
       2.7456322 4.144295 3.745847 2.4631016
000020 d2 70 12 40 45 4f 8a 40 f9 78 77 40 82 0c d2 3f
       2.288136 4.3221765 3.8667586 1.6410067
000030 d5 40 9a 40 e5 8d 12 40 70 df 0b 40 fc 73 70 40
       4.820414 2.2899106 2.1855125 3.7570791

conv_layer.7.weight f4 [32, 16, 3, 3]
000000 ee a7 1a 3e a3 94 fa bd 73 37 10 be 7f d4 05 3d
       0.15103123 -0.122353815 -0.14083652 0.032673355
000010 08 6a fd bc 46 9a 3e be 6b 83 df bd 29 bf 90 3d
       -0.030934349 -0.18613538 -0.10913738 0.07067711
000020 db cf 8c bd d2 33 b1 3d 42 59 9a 3c 53 d5 8a bd
       -0.06875583 0.08652462 0.01884139 -0.067789696
000030 50 f3 0f bd 28 37 cd bc b3 0c 36 bd f3 e3 3f 3d
       -0.03514415 -0.025050715 -0.044445705 0.04684825
000040 81 27 c3 3d b2 4e 62 3d 85 15 f9 3d bd cf 10 be
       0.09529019 0.05525083 0.12162308 -0.14141746
000050 64 d1 13 3e 2c 2e ae bc 48 fe 78 be 32 25 35 3e
       0.14435345 -0.02126225 -0.2431575 0.1768997
000060 b0 9e 29 3d 0c 2f 01 3d 03 ae 24 3e 76 ca 1b 3e
       0.0414111 0.031539008 0.16082005 0.15213951
000070 7c d1 db 3c 3d 80 34 be 5e ac cb bb 6a ec 10 be
       0.026833288 -0.17627044 -0.006215616 -0.14152685
000080 11 fa 86 be 1f f7 21 be 5a 92 77 be 7f cc 75 be
       -0.2636266 -0.15816925 -0.24176922 -0.2400379
000090 3d 4b 0a be 6c fa 02 be 5c 79 a6 bd 8e 82 a7 bc
       -0.13505264 -0.12790841 -0.08128616 -0.020447996
0000a0 ed e8 4e be a1 c2 6d be af 22 b3 3d 26 a2 52 be
       -0.20206042 -0.23218776 0.0874685 -0.20569667
0000b0 1d 80 cc bd d2 e7 18 be d6 67 81 3d 8d a6 3e 3e
       -0.09985373 -0.14932182 0.06318633 0.18618222
0000c0 9f e2 39 bc a8 81 ad bd 18 cd 5e 3d b1 14 28 3d
       -0.011345535 -0.084719956 0.05439481 0.041035358
0000d0 86 3e e0 3c f6 dc 43 3c 25 1b d9 3d b9 82 2e bd
       0.027373563 0.011954537 0.106008805 -0.042605136
0000e0 a1 c9 95 bd 9c fd a8 bd a7 f6 96 be b5 b6 38 be
       -0.07313848 -0.08251497 -0.29485056 -0.18038447
0000f0 6b bf 27 be 3e cb 45 be 8e 80 56 bd 0c 4c a1 3d
       -0.16381614 -0.19315812 -0.052368693 0.07875833
000100 e4 63 4a bd 3f 79 88 3d 9c 9b 80 be fd 3e 81 be
       -0.04941167 0.06663751 -0.2511872 -0.2524337
000110 bf 7e 5d 3d 21 c6 9d 3d 85 74 e6 3d 95 be 15 3e
       0.054075953 0.07703806 0.11252693 0.14623483
000120 7a cc 1c be e4 92 a8 3d 8c 3e 1b 3e 2b dd 78 be
       -0.15312377 0.08231142 0.15160578 -0.24303119
000130 34 ac f1 bd ab ad 45 bc ee 2d a8 bc 1a b8 29 be
       -0.11800423 -0.012065331 -0.020529713 -0.16574135
000140 f7 b7 d5 3d 89 22 d6 3d 69 d5 14 be e5 ea 77 bc
       0.10435479 0.10455806 -0.14534535 -0.015131687
000150 e4 87 5c bb 70 ea d8 3d fd 42 a6 3a df 1f 97 3e
       -0.0033650333 0.105915904 0.0012684759 0.29516503
000160 5a 82 5e 3e 1a 6f 9d 3d d3 19 8f 3e e5 51 7b bc
       0.21729413 0.076872066 0.2794939 -0.015339349
000170 60 df 4a be 1d 3b 69 3d c4 0a 20 be ce 11 2d be
       -0.19811773 0.05694114 -0.15629107 -0.16901323
000180 c5 5a 08 3d 90 a5 58 be 5a b3 f1 bd 36 bb 36 3d
       0.03328969 -0.21156907 -0.11801787 0.044612132
000190 28 bc 91 3d 12 68 f4 3c 74 53 b2 bd 2c 47 b4 be
       0.07115966 0.02983478 -0.08707324 -0.3521055
0001a0 2d ac 18 be a5 c6 f7 bd a4 c2 d8 3c 19 a5 d2 bd
       -0.1490943 -0.12098435 0.02646 -0.10285396
0001b0 fe 93 78 bc dd 64 05 3d 5d d0 a8 bd 55 3f 28 bd
       -0.015172003 0.032566894 -0.08242867 -0.041076023
0001c0 22 0b f5 3d 96 f3 e5 bd cb 4d 97 bd 8c 0c 7b bc
       0.11965014 -0.11228101 -0.07387885 -0.015322816
0001d0 38 3a b2 bd 72 0d 62 3d a1 72 74 3d bf 22 7e bd
       -0.087025106 0.055188604 0.05967963 -0.062044855
0001e0 ef 37 eb bd 61 15 30 bc 7c e4 2e be 74 d5 b4 bd
       -0.11485278 -0.010747285 -0.17079347 -0.088297755
0001f0 97 0e d7 bc 61 60 f4 3d 96 e6 09 3d a3 3b 34 3e
       -0.026252074 0.11932445 0.03366717 0.17600875
000200 6d 1c fd bd dc 4b 71 3d eb 50 c3 3d be 23 32 bd
       -0.123589374 0.058910236 0.09536918 -0.043491118
000210 dd 36 b4 3d 3d 74 0e 3e ed 0d 62 3d 8d 42 02 3e
       0.08799527 0.13911529 0.055189062 0.127207
000220 d5 cc d2 bd 48 c8 84 3d dc 59 17 be 27 c3 84 bb
       -0.10292975 0.06483513 -0.14780372 -0.0040515843
000230 c7 39 0f be f5 41 0a be 93 a5 9e bd 3d 2e 3a 3e
       -0.13986884 -0.13501723 -0.077464245 0.18181701
000240 01 83 5a be be 53 29 bd e7 85 1c 3e 7d 6b 6d be
       -0.21339037 -0.04133963 0.15285455 -0.23185535
000250 e5 47 ea bd 93 48 0e 3e cc 35 f7 bd ff 3a 32 3d
       -0.11439494 0.13894872 -0.12070808 0.043513294
000260 ac 28 48 3d ec 76 71 3d b8 17 80 bd 7d 29 97 bd
       0.048866913 0.058951303 -0.06254524 -0.0738096
000270 6f db 0b be 50 5a 07 be 28 e2 3c bd fe de 9a 3d
       -0.13657926 -0.13218045 -0.046114117 0.07562064
000280 90 20 20 3d 90 ff 39 b7 35 b6 34 3c 78 a8 98 3d
       0.039093554 -1.1086362e-05 0.01102977 0.07454008
000290 72 a2 28 be 0c 0b e2 bb ed 52 b8 bd 64 3e 3f bd
       -0.16468218 -0.0068982895 -0.09000192 -0.04669036
0002a0 3d 4e 53 3d 63 dc a0 bd 43 54 f4 bc b2 9c e8 3c
       0.051588286 -0.078545354 -0.029825335 0.02839503
0002b0 10 c9 7b 3d 28 c5 11 3e 16 ef 85 3e d6 46 33 3e
       0.061471045 0.14235365 0.2615897 0.1750749
0002c0 56 2c aa 3d df d8 a6 3d bb f3 0d 3d 0f 37 85 3d
       0.08309238 0.08146834 0.034656268 0.06504642
0002d0 2f 32 0d 3d d8 6c d7 3d 5a 34 7b bb bc 95 81 3e
       0.034471687 0.10518807 -0.0038330765 0.2530955
0002e0 7b 11 80 3e 6e fb a3 bb c2 51 75 bc cf 0c a2 bc
       0.25013337 -0.005004338 -0.014973106 -0.019781498
0002f0 69 b7 ae bd 39 49 1c be ca 48 79 be 85 03 ab bc
       -0.085310765 -0.15262307 -0.24344173 -0.020875702
000300 8e 66 2a be 19 34 9b be 37 f1 67 be ba bd 47 3d
       -0.16640684 -0.30313185 -0.2265061 0.04876492
000310 23 86 24 3e a7 03 8c 3e c3 c6 27 3d 0d f8 0e 3d
       0.16066794 0.27346537 0.04096104 0.03490453
000320 20 d1 8a bd 7c 1d 65 bd 65 dc b9 bd 01 f2 b0 3d
       -0.06778169 -0.05593632 -0.0907524 0.086399086
000330 27 59 ef 3c cb c9 c8 bd 02 f8 c6 bb bb f7 42 bd
       0.029217316 -0.09804114 -0.0060720453 -0.047599535
000340 54 31 da bd 03 14 06 be 64 c3 43 bb 87 77 4b be
       -0.1065394 -0.13093571 -0.00298711 -0.19869815
000350 7c 22 70 3d 4c c1 52 bd a9 d9 18 3d 9c ed f4 3d
       0.058626637 -0.051453874 0.037316952 0.11959383
000360 af 31 4e 3e 47 bf 58 3d 36 dd a9 bd ca ac 65 3d
       0.2013614 0.05291679 -0.08294146 0.056072988
000370 29 0b 05 be 43 4e 8d be 42 8c 81 3d cb 4f 9e bd
       -0.12992539 -0.2759877 0.0632558 -0.07730063
000380 73 a0 a8 bd 0f f5 b5 3e 52 42 99 bd cf 04 0f be
       -0.08233728 0.35538527 -0.07483353 -0.13966678
000390 36 60 6a 3d 11 3e 22 bd 26 37 3c bc bc 71 75 3e
       0.05722066 -0.039609972 -0.011487758 0.23969167
0003a0 39 de 5d bd 47 62 92 3c fc 43 f9 bd 4e bb 68 bd
       -0.054167006 0.017869128 -0.1217117 -0.056819253
0003b0 3b fb af 3e 35 5b ed bd 08 47 15 bd 05 c1 74 be
       0.3437136 -0.11589662 -0.036444694 -0.23901756
0003c0 e0 29 1e bb 2c c8 62 bd 48 a5 e4 3d af 87 87 3d
       -0.0024133846 -0.05536668 0.111643374 0.066176765
0003d0 e4 12 96 3d b8 4b 88 bd 37 19 8c 3d ad 65 12 3e
       0.07327822 -0.06655067 0.06840747 0.14296599
0003e0 d3 05 1e be 30 ea 78 be 01 74 d9 bd e6 2b 99 bd
       -0.1543191 -0.24308085 -0.10617829 -0.07479076
0003f0 dc b4 9b bd bc c3 94 bd 4f 2a 36 3d d7 91 3e be
       -0.076028556 -0.07263896 0.044473942 -0.18610321

conv_layer.7.bias f4 [32]
000000 e3 dc 23 bd fb 12 e2 bc d9 e0 8c bc 68 87 54 bd
       -0.040005576 -0.027596941 -0.01719706 -0.051886946
000010 16 b4 17 bd ec 8d 52 bc c3 1e 6f 3d d6 44 18 3d
       -0.037036978 -0.01285122 0.058378946 0.037175022
000020 10 7a 3e 3d de 01 35 bd 7b 23 01 bd 5b c4 ed bc
       0.046503127 -0.044191234 -0.031527977 -0.029024294
000030 3f 96 94 3c be e0 40 3d 37 ac 88 bd 2e 02 97 bd
       0.01813805 0.04708933 -0.066734724 -0.073734626
000040 5e 35 78 bd 03 a0 18 3c 68 ae 3f 3d 28 96 68 3d
       -0.06059777 0.0093154935 0.046797186 0.056783825
000050 53 02 32 3d 7b 1c a2 bc 03 9d 1b bd 82 cf 8b bd
       0.043459248 -0.019788971 -0.037991535 -0.06826688
000060 b0 74 4d 3d c0 fd 59 bd 0a 06 9c bd 78 ff d7 3b
       0.05016011 -0.05322051 -0.07618339 0.0065917335
000070 8e c9 0d bd 02 6d 98 3d d8 e6 4c bc 2b 60 a3 bd
       -0.034616046 0.074426666 -0.012506209 -0.07977327

conv_layer.8.weight f4 [32]
000000 2c 48 99 3f 4e 63 8c 3f 02 51 83 3f bd 27 64 3f
       1.197515 1.0967805 1.0259097 0.89123136
000010 95 14 7f 3f fd 30 87 3f 94 c7 8e 3f 9e 44 7c 3f
       0.9964078 1.0561825 1.1154656 0.985422
000020 ff b9 63 3f 32 ba 8b 3f b6 9a 80 3f ac fb 88 3f
       0.8895568 1.0916197 1.0047214 1.0701804
000030 f0 73 83 3f fa cd 7c 3f 69 fd 93 3f 1b b2 8a 3f
       1.0269756 0.98751795 1.156171 1.0835603
000040 de 27 82 3f f9 b3 89 3f 2a 1c 80 3f 2f a2 75 3f
       1.0168417 1.0758048 1.0008595 0.959506
000050 88 55 72 3f 15 4d 6e 3f cb a1 66 3f 4e e9 83 3f
       0.9466176 0.9308637 0.90090626 1.0305574
000060 35 e8 6a 3f b2 99 5d 3f ad df 84 3f 70 84 73 3f
       0.9176057 0.86562645 1.038076 0.9512396
000070 c2 16 97 3f 10 f8 66 3f a5 98 94 3f 3c 05 6e 3f
       1.180382 0.90222263 1.1609083 0.9297674

conv_layer.8.bias f4 [32]
000000 8a 1f a0 3b 43 bd 25 bd f4 6b fd 3c 4d a9 d2 3d
       0.0048865722 -0.040463697 0.030935265 0.10286198
000010 e2 93 93 bd 2f 01 9f bd dd f7 2d be ba ee bf bd
       -0.07205941 -0.07763898 -0.16989084 -0.09371705
000020 68 7f 28 be a9 2e 7d 3d f8 0c 13 bd 0a be 6c bd
       -0.16454852 0.061812077 -0.03590104 -0.057798423
000030 81 ea 70 3d 4b fe 88 3c e6 b6 1b bd 77 60 d8 bc
       0.05881739 0.016722819 -0.038016222 -0.026413186
000040 aa 4f 92 bc d8 c6 f2 3c 47 fc 3a be e2 82 5b bd
       -0.017860252 0.029635832 -0.18260299 -0.053591616
000050 dc 43 15 be 28 2c a0 bd 8b b3 86 bd b8 ec 1c 3d
       -0.14576668 -0.07820922 -0.06577214 0.03831169
000060 4c 48 62 be fd c5 bd bd d6 94 a5 be 8e 99 33 be
       -0.22097892 -0.09266279 -0.32340115 -0.17539045
000070 b1 33 30 bd 88 1e 0f 3d 89 4d ad bd d2 91 ac bd
       -0.043018047 0.034941226 -0.08462054 -0.084262505

conv_layer.8.running_mean f4 [32]
000000 3e 6f 35 c0 6e d4 09 c0 6b c0 3c bf e8 d5 cd bf
       -2.8349147 -2.1535907 -0.73731107 -1.6080904
000010 1a 13 88 bf af 42 06 c0 ba 99 a5 bf 57 d6 a9 bf
       -1.0630829 -2.09782 -1.2937539 -1.3268536
000020 c1 fb 7f 3f 48 97 98 bf cd 60 7a be 26 42 ba bf
       0.9999352 -1.1921167 -0.24450989 -1.4551437
000030 aa a1 c1 bf 94 53 0d bf 4e 77 00 c0 b0 09 aa bf
       -1.5127461 -0.55205655 -2.0072818 -1.3284206
000040 fe 0a 7c bf 14 5b c5 bf 7d 19 58 be 0f 23 64 be
       -0.9845427 -1.541842 -0.21103473 -0.22278999
000050 1f 66 77 bf 7f 56 6c be cc e2 2e 3f 1a 62 f5 bf
       -0.966402 -0.2307987 0.68314815 -1.9170563
000060 b4 bd 48 3f 0a c9 1e 3f c2 b3 00 bf b5 bd 09 bf
       0.78414464 0.6202551 -0.5027429 -0.53805095
000070 04 4a 20 c0 8a f3 5d be 17 ec ea bf e5 7d 97 3e
       -2.5045176 -0.21674934 -1.8353299 0.29588237

conv_layer.8.running_var f4 [32]
000000 6f 67 8c 40 29 9a 37 40 59 a0 34 40 19 18 22 40
       4.387626 2.8687842 2.8222868 2.5327208
000010 6a 7c 24 40 89 ee 6f 40 45 51 83 40 bc 80 23 40
       2.5700936 3.748934 4.1036706 2.5547323
000020 aa 63 07 40 c6 df 3a 40 77 6b 1e 40 6d 16 3e 40
       2.115458 2.919908 2.4753091 2.9701188
000030 c1 31 19 40 56 9a 16 40 18 47 81 40 48 d8 5f 40
       2.3936617 2.35317 4.0399284 3.4975758
000040 d6 7c 42 40 6a 33 4a 40 d7 7a 12 40 ea a6 39 40
       3.0388694 3.159388 2.2887475 2.9008126
000050 33 56 19 40 6f 0a 25 40 92 60 18 40 3e c9 32 40
       2.3958862 2.5787618 2.3808942 2.7935328
000060 18 3f 0f 40 40 5d 00 40 2e ea 23 40 f8 9c fe 3f
       2.238226 2.0056915 2.5611682 1.9891653
000070 3a 67 71 40 a0 7f 2d 40 46 5d 62 40 60 df 3e 40
       3.7719254 2.7109146 3.536943 2.9823837

conv_layer.10.weight f4 [32, 32, 3, 3]
000000 bd 97 37 be 4c a0 bf 3d 56 68 c3 3d df 63 de bd
       -0.17928977 0.09356746 0.09541385 -0.10858893
000010 0c 2b a8 bd 54 f8 18 3c ae fc b9 3d 53 7b 11 bd
       -0.082113355 0.00933655 0.09081398 -0.035518
000020 df 66 1b 3b d4 f7 35 3e df 32 6f bc 89 c2 65 3e
       0.002371244 0.1777032 -0.014599531 0.2243749
000030 5f 9d 85 bd 56 16 04 3d 4d f8 b0 3d 01 3d ff bd
       -0.06524157 0.032247864 0.086411096 -0.124628074
000040 cd 99 39 be 66 db df bc 73 1d 13 be ef 31 be bc
       -0.18125077 -0.027326297 -0.14366703 -0.02321717
000050 8f 60 42 bd 29 42 ec bc f2 ca 0e bd 70 66 bc 3d
       -0.047455367 -0.028840141 -0.034861512 0.09199226
000060 53 a9 96 3e d7 48 d5 bd 58 dc f3 3c 1f 49 86 3d
       0.2942606 -0.10414284 0.029768154 0.065569155
000070 7f c8 a2 bd 47 38 3d 3d 62 70 54 3e 18 a2 da 3d
       -0.07948398 0.04619625 0.20745996 0.10675448
000080 19 57 c2 bd da d7 4b be a7 c4 e5 bb 6a 69 c3 3c
       -0.09489269 -0.1990656 -0.007011968 0.023853976
000090 2e d2 fc 3d 50 d9 e7 bb fd 02 81 bd 31 ff 46 3e
       0.12344776 -0.007075466 -0.06299398 0.19433285
0000a0 54 97 12 3e bc 63 d2 3a 57 18 ca bc b1 ea 38 bd
       0.1431554 0.0016051452 -0.02466981 -0.045145694
0000b0 8e fc 88 3d 09 c8 b3 3d b7 ce 9d bc 6a db 6e 3d
       0.06688796 0.08778388 -0.019263608 0.05831472
0000c0 85 24 ce 3c b4 d1 d1 bd d8 f7 11 3d 4e c9 b6 bb
       0.025163898 -0.10245076 0.035636753 -0.0055781966
0000d0 86 87 3f bd 2d 1e 79 3d d9 87 47 3c 8e 9b 51 3d
       -0.046760105 0.060819793 0.012178385 0.05117374
0000e0 61 30 49 3d dd bf da bc 70 43 d7 bd ef 7f e7 bd
       0.049118403 -0.026702816 -0.105109096 -0.11303698
0000f0 2e fd 82 bc 7c 01 1a bd 42 1f 05 bd 32 3a 74 bd
       -0.015989866 -0.03759907 -0.032500513 -0.059625812
000100 42 e9 84 3d 49 c2 98 3d 7b 2f bf bd ad fa 98 bd
       0.06489803 0.07458932 -0.09335228 -0.074696876
000110 05 93 f1 3c bd c0 23 bc 41 be 8b be 5e 72 58 bd
       0.02948905 -0.009994683 -0.2729359 -0.052843444
000120 c7 0c 85 3e 25 43 aa bd e4 d3 3b be 81 ea 33 bd
       0.2598631 -0.08313588 -0.18342549 -0.043924812
000130 0a d4 98 3e bf e3 c6 3d 98 c8 b5 bc 7e 43 ff bc
       0.29849273 0.09711408 -0.022190377 -0.031160112
000140 5a 50 06 3c d6 b9 e7 bd eb e6 ca 3d f6 2b a0 bd
       0.008197868 -0.11314742 0.09907325 -0.07820885
000150 83 22 0b be 3b 11 57 bd 54 4b a3 3d 08 50 0b be
       -0.13587384 -0.052506667 0.07973352 -0.13604748
000160 40 4e 87 be 77 2c 54 bd ed b9 be bd 2c 7f 1b bd
       -0.26426888 -0.051800217 -0.09312806 -0.037963077
000170 ed c4 ac bd 31 e7 fa bd 70 0d 27 bd 8c 37 35 3d
       -0.08435998 -0.122511275 -0.0407843 0.044242427
000180 08 9a 9d 3d ce 9b 8d 3b 82 2a 9a bd fc 4d 9a bd
       0.07695395 0.004321552 -0.07527639 -0.075344056
000190 82 f8 d3 3d d8 ee cf 3d 9c 49 27 bd a3 62 73 bd
       0.103501335 0.10152978 -0.040841684 -0.05942024
0001a0 43 01 d3 3d b8 a7 42 3e b1 d7 61 3d 6e 21 e9 bc
       0.10302975 0.19009292 0.05513734 -0.028458323
0001b0 02 95 a0 3c 4c 01 4f bd 9a 97 7e bc 77 92 10 bd
       0.019602302 -0.050538346 -0.015539074 -0.03529593
0001c0 2d 51 9e bd 75 f0 7e bd d6 80 b4 3d 27 c9 2e be
       -0.07730327 -0.062241036 0.08813636 -0.17068921
0001d0 4b 42 56 be 90 ed 6e 3d 25 1d 4b bc ff bb 96 bd
       -0.20923726 0.058332026 -0.012397085 -0.07360076
0001e0 71 0a 2d be 3b c3 2a 3d 3c c2 84 bd 83 d3 c3 3c
       -0.16898514 0.041690093 -0.0648236 0.023904568
0001f0 71 e0 4b be ba 7d 98 bd 9d 96 9e bd df 48 f9 bd
       -0.19909836 -0.074458554 -0.07743571 -0.12172102
000200 10 ba ca 3c 25 50 23 bd 31 0a 8e bd 72 80 50 be
       0.024746925 -0.039871354 -0.069355376 -0.20361498
000210 59 f2 88 3d e3 ba 05 be e4 da 05 bd 95 8b 90 3d
       0.06686849 -0.13059573 -0.032679453 0.07057873
000220 0b 7c e0 3c 70 cb 2d 3d 84 80 6c 3b e0 78 86 3d
       0.027402898 0.04243034 0.0036087343 0.06566024
000230 6c af 15 3e 94 cd c9 bd 3c 70 0f be ce 24 43 3d
       0.146177 -0.09853664 -0.14007658 0.04764252
000240 d2 87 a0 bd af 19 61 be b6 ae cc 3d 91 a1 e7 3d
       -0.07838406 -0.21982454 0.09994261 0.11310113
000250 e6 a0 b4 bd 07 cb 13 bd 55 41 29 3c 90 cf d5 3d
       -0.088197514 -0.036082294 0.010330518 0.1043998
000260 8d 35 e3 bc ad 7b d9 3b 8a f1 2a be 13 6d 92 bd
       -0.027735496 0.0066370578 -0.16693702 -0.071497105
000270 a4 3e 15 3e 4a ef a6 bc 6c 68 53 be 3a 62 1c 3e
       0.14574677 -0.020377774 -0.20645303 0.15271845
000280 3f 12 82 3e 17 ce 45 bd ba da 0d be 89 3b 95 bd
       0.25404546 -0.048292246 -0.13852969 -0.07286746
000290 2e dd 5b 3c 31 1c 11 3e b0 54 0a be 0e 2b 13 be
       0.013419433 0.1417091 -0.13508868 -0.14371893
0002a0 6c 49 1b 3e ba 19 b9 3b d5 2f cd bc ce d0 4a bd
       0.15164727 0.005648819 -0.025047222 -0.049515538
0002b0 13 21 0a bd 77 f0 3c bd 79 bf 95 3d dc 62 00 3d
       -0.03372295 -0.046127763 0.07311911 0.03134428
0002c0 58 3c a9 3d ad bb 05 3e 2b d9 14 3e 8c 06 d9 3c
       0.08263463 0.13059874 0.14535968 0.02649238
0002d0 cf 45 41 bc 31 35 a4 bd 0d 35 c2 bd b4 67 10 bd
       -0.011796429 -0.08017958 -0.09482775 -0.03525515
0002e0 2b 55 49 be 7b d0 c7 bd f8 b0 fa 3d 1d a0 3f 3e
       -0.19661395 -0.09756561 0.12240785 0.18713422
0002f0 61 e6 2c bd ce e9 f5 3d 35 22 17 bd 3a 47 20 be
       -0.042211894 0.12007485 -0.036897857 -0.15652171
000300 16 1b 39 be 40 4b 27 be bf bb 2c 3d cf 76 ca bd
       -0.18076739 -0.163373 0.042171236 -0.09885942
000310 ed c2 32 3d 35 8e 38 be d6 c5 99 3d 56 d1 c8 bd
       0.043642927 -0.18022998 0.07508437 -0.09805553
000320 27 6e 2a bd a4 30 13 be ec a1 e3 bd 33 33 87 3d
       -0.041608956 -0.14374024 -0.111148685 0.06601562
000330 e3 eb 81 3d 79 02 04 bd 2c c9 32 be 9d 77 80 3d
       0.0634382 -0.03222892 -0.17459553 0.062728144
000340 a8 bb 85 3c 54 fa c8 bd 1c 31 6a 3d b0 38 33 3d
       0.016324833 -0.09813371 0.05717574 0.043755233
000350 6d a2 bf bd d1 3a 9b 3c f7 dd 2d 3c 68 13 25 be
       -0.09357152 0.018948944 0.010612003 -0.16120684
000360 96 12 33 be 36 2e 6a 3d e4 a2 40 bd a0 64 b4 3b
       -0.17487559 0.057172976 -0.047030345 0.0055051595
000370 c7 7b 2d 3e 63 c8 a6 bd 0e b0 21 be b6 fc 44 3e
       0.16941749 -0.081436895 -0.15789816 0.19237027
000380 ef e1 0f 3e 91 50 21 bd 5c 56 b4 bd f1 c4 ad 3d
       0.1405103 -0.039383475 -0.08805534 0.08484829
000390 94 c4 88 3d 90 bc 6e be ef e4 80 3d e4 c0 16 3d
       0.06678119 -0.23314118 0.062936656 0.03680505
0003a0 25 ef e4 3c 6d aa 1a bd 49 cf c8 bd 45 82 e3 ba
       0.027946064 -0.037760187 -0.098051615 -0.0017357549
0003b0 1c 66 d8 bd e4 eb d9 bb 26 b7 b4 3d d4 8b 55 bc
       -0.10566351 -0.006650435 0.08823995 -0.013033826
0003c0 e9 12 0e be 10 07 a2 3d d1 af 55 3e 2c 34 ac 3d
       -0.13874401 0.07911503 0.2086785 0.084083885
0003d0 d9 02 e9 3c e4 56 3e bd 23 b3 9a 3d 8d 0d c2 bb
       0.02844374 -0.046469584 0.07553699 -0.0059220255
0003e0 1e 2b fe bc 1a 05 c8 bc 81 74 a0 3d c6 93 64 be
       -0.03102642 -0.024416495 0.07834721 -0.22321996
0003f0 c0 53 41 3d 8e 75 3f 3d b3 ed f2 bc e2 26 1d 3e
       0.04719901 0.04674297 -0.02965436 0.15346864

conv_layer.10.bias f4 [32]
000000 79 0a 56 3d 33 34 94 3c 76 42 6e 3c ba ea 3e 3d
       0.05225608 0.018091297 0.014542213 0.04661057
000010 be 89 45 3d 0b c1 4b 3d 5f 36 38 bd ea a9 27 bd
       0.048227064 0.049744647 -0.044973727 -0.040933527
000020 e2 ac 5d 3c 98 16 52 bd ea 23 ec 3b 81 28 fe 3c
       0.013529988 -0.05129108 0.0072064297 0.031025173
000030 bf ae 0c bd 5f 24 6d bd 59 2f e1 3c 22 09 f3 bc
       -0.03434634 -0.057896014 0.027488397 -0.02966744
000040 60 0c 28 3c ae 46 06 bd 5e d4 20 bd 25 65 01 39
       0.010256857 -0.03278225 -0.03926503 0.00012340078
000050 f1 51 e8 bc 6b c3 0a 3d ff 3c 81 3a 72 ef 5f bd
       -0.028359385 0.03387777 0.0009860097 -0.054671712
000060 7c 21 d8 3c 6c ce b8 3c 0e 68 40 bc b6 12 7c 3b
       0.026383154 0.022559367 -0.011743559 0.00384633
000070 4d c8 48 3d 4d 8b 63 3d b3 8a 6a 3d 0b 64 60 bd
       0.049019147 0.05555277 0.05726118 -0.05478291

conv_layer.11.weight f4 [32]
000000 86 57 69 3f 32 11 77 3f ee 33 84 3f 03 57 71 3f
       0.91149175 0.9651061 1.0328348 0.94273394
000010 19 ca 75 3f b0 91 83 3f cc 0e 7d 3f 4d 37 7f 3f
       0.960115 1.0278835 0.98850703 0.9969376
000020 ba bd 81 3f bc 7d 7e 3f 41 18 83 3f 55 dd 7d 3f
       1.0136025 0.99410605 1.0241777 0.9916585
000030 c2 67 8f 3f 17 3c 73 3f 10 64 87 3f fd 2d 8b 3f
       1.1203539 0.95013565 1.0577412 1.087341
000040 14 9f 68 3f a3 aa 66 3f f9 a0 84 3f b7 4e 81 3f
       0.90867734 0.9010412 1.0361625 1.0102147
000050 7e bd 7b 3f a2 56 83 3f 01 98 7f 3f ba e6 78 3f
       0.9833602 1.0260813 0.99841315 0.9722706
000060 3b 6d 7e 3f ff aa 81 3f 52 14 8b 3f 3b af 7b 3f
       0.9938542 1.0130309 1.0865576 0.98314255
000070 13 c4 79 3f d8 4e 79 3f 70 30 69 3f b4 71 7d 3f
       0.9756481 0.9738593 0.91089535 0.9900162

conv_layer.11.bias f4 [32]
000000 a1 f8 95 be b3 ec 59 be 24 cb 21 be dc 45 1d be
       -0.2929125 -0.212817 -0.15800148 -0.1535868
000010 81 b5 8c be 85 8f 77 be c9 92 6f be b9 c7 9f be
       -0.27482226 -0.24175842 -0.23395838 -0.31207064
000020 a2 08 bf be 38 fc 99 be fd b5 bd be 96 a2 23 be
       -0.37311274 -0.3007524 -0.3705291 -0.1597999
000030 25 1c 30 be e6 f2 69 be 8d 05 4e be 93 fc c2 be
       -0.17198236 -0.22846565 -0.20119305 -0.38083324
000040 58 18 0b be ca c8 8b be bb 9f 9b be ee 2e 65 be
       -0.13583505 -0.27301627 -0.30395302 -0.22381184
000050 8d f5 6b be be b9 6f be b3 0c 96 be 9b 58 37 be
       -0.23042889 -0.23410699 -0.29306564 -0.17904894
000060 76 bc b2 be 4a 07 ae be e6 ef 0e be 12 68 d9 bd
       -0.3490941 -0.33989936 -0.13958701 -0.10615553
000070 8f 8c 67 be c3 33 1a be db 81 30 be f6 2d 73 be
       -0.22612213 -0.15058808 -0.17237036 -0.23748001

conv_layer.11.running_mean f4 [32]
000000 b0 61 67 bf 26 65 92 bf 1a 9e 9a bf 1a 40 96 bf
       -0.90383434 -1.1437118 -1.2079499 -1.1738312
000010 50 c5 67 3e a3 dd 07 c0 01 eb de bf 4b 17 33 bf
       0.22633862 -2.1229026 -1.7415468 -0.6995742
000020 fb 79 cd bd b2 b6 81 bf f0 ee e4 bf 25 1a 07 c0
       -0.100330316 -1.0133879 -1.7885418 -2.1109707
000030 71 44 0a bf ee 0e aa 3f 2d b2 4f bf 26 61 2c c0
       -0.54010683 1.3285806 -0.8113125 -2.6934295
000040 ea 59 e5 3e fd ed 82 bf 52 46 01 c0 1e 91 b4 bf
       0.4479516 -1.0228878 -2.019917 -1.4106786
000050 6b 43 8d bf b6 93 cf 3e 8c 33 b1 be be 4a 17 c0
       -1.1036199 0.40542382 -0.3460964 -2.363937
000060 51 63 70 bf e4 ab ba bf 97 dd 0c c0 8a ef 0c c0
       -0.93901545 -1.4583707 -2.2010248 -2.2021203
000070 13 7f 02 bf 9a 9e 37 c0 53 a6 13 3f ac 91 b8 bf
       -0.5097515 -2.8690553 0.57675666 -1.4419456

conv_layer.11.running_var f4 [32]
000000 87 9a e3 3f 1f 2f ab 3f 61 76 9f 3f 52 2d be 3f
       1.7781533 1.3373755 1.2458001 1.4857581
000010 f0 b3 b9 3f 25 10 ab 3f c1 2b db 3f a7 0b d2 3f
       1.4508038 1.3364302 1.7122728 1.6409806
000020 9a 43 b7 3f 46 c8 d5 3f 1c 64 f4 3f a4 39 a4 3f
       1.4317505 1.6701744 1.9093051 1.283009
000030 83 15 db 3f 75 ed b8 3f c9 08 da 3f e5 54 f3 3f
       1.711594 1.4447466 1.7033931 1.9010283
000040 85 3f 9a 3f 0d 95 a4 3f bc 0e bd 3f ed 07 bf 3f
       1.2050635 1.2857987 1.4770122 1.4924294
000050 8f 54 aa 3f 3f c1 d6 3f 21 a1 ee 3f fb f4 a2 3f
       1.3307055 1.6777724 1.8642923 1.2731012
000060 31 8c cb 3f 53 2c 00 40 2f ba 04 40 60 62 f3 3f
       1.5902158 2.0027053 2.0738637 1.9014397
000070 32 d0 ac 3f c6 02 ee 3f ab ed d7 3f f8 07 9b 3f
       1.3501036 1.8594596 1.6869406 1.2111807

conv_layer.14.weight f4 [64, 32, 3, 3]
000000 d3 cc 65 3d 85 17 07 3e 41 fd 44 bc 85 e7 31 be
       0.05610354 0.13192566 -0.012023271 -0.17373474
000010 35 7f 83 bc 0a 0e dc 3d 1e a9 a1 bd b1 55 b3 3b
       -0.016051868 0.10744865 -0.07893585 0.0054728617
000020 bd ba 87 bd bf 34 46 3c f0 04 9a 3d 77 af a9 bb
       -0.066274144 0.012097537 0.07520473 -0.0051783877
000030 2f b8 e1 bd 98 d4 60 3d 9a 16 da 3d fd 70 9d bd
       -0.11021458 0.054890245 0.10648842 -0.076875664
000040 04 6a 9b bc b9 cd 03 be e7 c5 a2 bc e0 d1 b5 bd
       -0.01897145 -0.12871446 -0.019869758 -0.08877921
000050 96 68 8d bd af b3 6f be 9c 00 19 be ea b1 a7 bd
       -0.06904714 -0.23408388 -0.14941639 -0.08188231
000060 c4 36 8a bd 83 7c a0 3d 9b 3c e3 bc cd d6 c9 bd
       -0.06748727 0.07836249 -0.02773886 -0.09855423
000070 d9 a2 67 ba c9 51 dd bd 92 5b ae bd 64 aa 3f 3d
       -0.0008836217 -0.10806615 -0.085135594 0.046793357
000080 8f ae 65 bd c4 2c d1 bd b6 ae c4 bc b0 cc 86 bc
       -0.056074675 -0.102136165 -0.02400909 -0.016455024
000090 b5 74 21 3e 75 6e e5 3d a0 fb 16 3d de c7 dd 3d
       0.15767176 0.11202709 0.036861062 0.10829137
0000a0 6a fa b1 bc a9 89 5c 3d 99 16 5e bd ed 4b 77 3d
       -0.021725852 0.05384222 -0.05422077 0.060375143
0000b0 a2 8e 40 3d 1d a4 34 3d 59 ec 29 3e 13 c6 2c be
       0.047011025 0.044101823 0.16594066 -0.16872434
0000c0 8d 99 af 3d 20 59 76 3e 54 e9 39 3d bc cd 2b 3e
       0.08574209 0.24057436 0.045388535 0.167777
0000d0 9d 43 57 3e 31 5d 5c 3d 6d ea 38 bd 03 44 71 3d
       0.21021886 0.05379981 -0.04514544 0.05890275
0000e0 46 67 41 3d 2f 5f 0d 3b 78 38 92 bd 6e e0 27 3d
       0.04721763 0.0021571626 -0.07139677 0.040985517
0000f0 4b 66 f9 bc 3b ef b0 3b 9b fd ce 3d 13 7d 5b 3d
       -0.030444285 0.0053996122 0.10106965 0.053586077
000100 dc f1 c8 3d 2c 7e f2 3d d0 9c 0a be b5 a5 1e 3d
       0.09811756 0.118404716 -0.13536382 0.03873225
000110 cc 53 ad bd d9 24 35 be 98 77 c3 bc ab 0e 1b be
       -0.084632486 -0.17689838 -0.023860738 -0.15142314
000120 6f 13 0c be 87 ae 21 be 46 36 4b bd 0d 16 ba 3d
       -0.13679288 -0.15789233 -0.049612306 0.09086237
000130 8d c1 90 3c a6 58 94 bc 63 93 24 3d a2 2e 8c 3d
       0.017670417 -0.018108677 0.04017962 0.06844832
000140 d8 50 a1 3d db 05 96 3d be 01 aa 3d 68 e2 18 3e
       0.07876748 0.073253356 0.083011135 0.14930117
000150 92 36 e7 3d 39 6e de 3d 57 c9 32 3d 0f 25 d0 3d
       0.11289705 0.10860867 0.043649044 0.10163318
000160 b5 db d7 bd 1a d0 a5 3d 4f 2c 20 bd 56 08 a2 3d
       -0.10539953 0.08096333 -0.039104756 0.07911746
000170 d4 e3 98 3d c1 02 bf bd c8 2b 01 3e 9e b8 0e 3e
       0.0746533 -0.09326697 0.12614357 0.13937613
000180 ad 4f db bb 1e 9e b0 bd 6e 7b fa 3d d9 67 d8 bd
       -0.0066928477 -0.086239085 0.122305736 -0.10566682
000190 bb a3 1e 3d cd 3f 02 3e b8 7c db bd da ce f2 bc
       0.038730364 0.1271965 -0.107171476 -0.02963965
0001a0 53 bb 69 3d 3c 96 33 3d 7a fe ba bd ba 1a d8 3d
       0.057063412 0.043844447 -0.09130569 0.10551973
0001b0 d3 70 fd 3c b6 da ea bd e2 db 6c 3d 16 81 94 bd
       0.030937588 -0.11467497 0.057826884 -0.07251184
0001c0 ab 49 57 3b a2 3a 51 bd 65 3a f9 bd f9 2c b0 3c
       0.0032850306 -0.051081307 -0.12169341 0.02150582
0001d0 32 07 c9 3d f9 09 b1 bc 87 cd 80 3c 90 a1 53 3d
       0.098158255 -0.0216112 0.015723003 0.05166775
0001e0 2e 8a ef 3d 4e 57 05 be f1 b6 37 bd 9b 0b 43 bd
       0.116962776 -0.13021585 -0.0448522 -0.04761849
0001f0 97 6c 98 bd d3 0f c4 bd 40 c6 5d 3e a0 b3 d2 3b
       -0.07442587 -0.09573331 0.21657658 0.0064301044
000200 25 09 0e bd bf b8 5e 3c 8d b0 0e 3e eb 3d b8 3c
       -0.03467669 0.013593852 0.13934536 0.022490462
000210 b8 55 57 3d 8b 28 fc 3c d8 ea da bd 42 4e ec bd
       0.052571982 0.030781051 -0.10689324 -0.11538364
000220 37 e4 60 bd 19 38 6d 3d 85 f8 e1 bd e3 03 d6 bc
       -0.054905143 0.057914827 -0.110337295 -0.0261249
000230 1d c0 da 3d b4 fd 38 be 7f b3 86 bd 05 d2 da 3a
       0.10681174 -0.1806553 -0.06577205 0.0016694671
000240 fc 1d 5c bd 55 e0 1b 3c 3c 39 31 3d 1d e0 2a bc
       -0.053739533 0.009513934 0.043267474 -0.010429409
000250 c5 da 0a 3d 6d d1 72 3d 8d 49 c7 bc be 69 15 bb
       0.03390004 0.059281755 -0.024327064 -0.0022798623
000260 94 94 26 3d 8f 1d 9a bd e4 3d fa 3b 1a ba 92 3a
       0.04066904 -0.07525169 0.0076367725 0.0011194379
000270 19 ed a7 bd b2 54 2b bd 95 91 d8 3d b4 c0 53 bc
       -0.0819952 -0.04182882 0.105746426 -0.012924362
000280 28 3e 2a be 05 ed 9d 3d 2e 55 8d bd b5 81 83 bc
       -0.16625273 0.077112235 -0.06901012 -0.01605306
000290 98 d9 8f 3c 3a d5 3e be 2d 84 d1 bd dc 3d e5 3b
       0.017559811 -0.18636027 -0.10230289 0.0069958996
0002a0 cb dc 96 bd 89 76 aa bd ed 43 0d 3e 76 ad 1f ba
       -0.07366332 -0.0832339 0.13795443 -0.00060912163
0002b0 89 12 f2 3d c4 62 d8 3d ab b3 bd bd 8c ca 10 3d
       0.118199416 0.10565713 -0.092627846 0.035349414
0002c0 42 34 2a bc 4d 79 2f 3b 73 a3 03 be 49 8a 99 bd
       -0.010388436 0.0026775182 -0.1285532 -0.07497079
0002d0 81 eb 47 3b d0 5b ad 3c 86 12 14 bd bc 53 1b 3c
       0.0030505362 0.021161944 -0.036150478 0.009480413
0002e0 f6 f2 8f bc 40 85 35 bd b3 d6 fc 3c c4 fd 97 3d
       -0.017571907 -0.04431653 0.030864095 0.07421449
0002f0 96 d8 ad bd da 92 db bd 87 cd 96 bd 8c 83 c3 3b
       -0.08488576 -0.10721369 -0.0736342 0.0059666093
000300 73 c9 bf 3d 97 c7 99 3d d1 7b 52 3e 9d 9e 15 bc
       0.09364595 0.07508772 0.20555045 -0.009132055
000310 c5 54 cc 3c 67 6d 02 3d f8 30 87 bd f0 ea b8 bc
       0.024942765 0.031842615 -0.06601137 -0.022572964
000320 8e f0 fc bc eb 98 80 3a cd 2b 0d be 5b 09 0b 3b
       -0.030876424 0.0009811198 -0.1378624 0.0021215293
000330 4a 11 37 3d d1 78 0d be 6a 72 f9 bd dc 69 0c 3e
       0.044694223 -0.13815619 -0.12180026 0.13712257
000340 0b 5e 27 3e 0e b4 f3 ba ab 9d 45 3c 73 65 b0 3c
       0.16344468 -0.0018593089 0.012061517 0.02153275
000350 2e 7c f5 bc 6a c9 6e 3c 25 e0 aa 3c 44 46 1c 3c
       -0.02996644 0.014574388 0.020858834 0.009538237
000360 1d 07 54 bd 9e ab 7e bd 32 64 9d bd 76 e0 9a bd
       -0.051764596 -0.062175386 -0.07685126 -0.07562344
000370 d6 cb e7 3d 1f 1d 08 3e 59 97 a1 bd 93 23 40 bd
       0.113181755 0.13292359 -0.078901954 -0.046908926
000380 ef 5a 63 3b ed 4f 4a bd 4a 2a 20 3d 0e cd 79 3d
       0.0034691652 -0.04939263 0.03910283 0.06098657
000390 fd 4f 9c bd e5 81 4a be c0 3e e4 3d bc 23 15 bc
       -0.07632444 -0.19776113 0.11144781 -0.009102758
0003a0 28 3a 3f bd fd b4 b3 3d 99 57 cc bd 4e 05 29 3e
       -0.04668632 0.08774755 -0.099776454 0.1650593
0003b0 83 d5 1a bc ff 0a 0c be 4f 47 cb bc e1 84 3e 3e
       -0.009450319 -0.1367607 -0.024814276 0.18605377
0003c0 44 6b 4c be 0d 17 26 be 9b 62 6b bd cb db 13 be
       -0.19962794 -0.1621973 -0.057467084 -0.14439313
0003d0 78 07 0f 3d 34 1e 3c 3e 13 21 89 bd 00 c8 2f be
       0.034919232 0.18370897 -0.066957615 -0.17166138
0003e0 fc df e6 3d 37 13 7a bd 47 95 e5 bd d4 2a c4 3d
       0.112731904 -0.06105348 -0.11210113 0.09578481
0003f0 6f 5d d3 bc 50 52 95 bc 3a c9 3e 3d 40 54 3e bd
       -0.025801389 -0.018227726 0.046578623 -0.046467066

conv_layer.14.bias f4 [64]
000000 a3 e5 61 bd db 0b 10 3d 62 26 b2 3c d3 ae 12 3d
       -0.05515064 0.035167556 0.021746818 0.035811257
000010 60 3d a1 3c cc 7c 35 3d fe 77 42 3d 7c 41 22 3d
       0.019682586 0.04430847 0.047477715 0.039613232
000020 af 92 2b 3d 69 ea 28 3c 13 96 45 bd 2b ca ff bc
       0.041887935 0.010309794 -0.048238825 -0.03122433
000030 32 a8 0f 3d cc 7c e8 3c b6 e9 64 3c 53 e6 2d 3c
       0.035072513 0.02837982 0.013971737 0.010613996
000040 12 9a e0 3b 18 1d 57 bc e0 f4 26 ba cb a6 32 3b
       0.006854304 -0.013129495 -0.00063688867 0.002726006
000050 64 cf 24 bd 81 cb 87 3c 29 3d 89 bc 50 2d 6c 3d
       -0.040236846 0.01657653 -0.016752796 0.0576604
000060 e4 9d 35 bd 0b e4 7a 3c 42 14 af bc d3 77 46 3d
       -0.04434003 0.015313159 -0.021371964 0.048454117
000070 68 d4 8f 3c da 58 87 3c 29 fd 12 3c 73 1c 06 3c
       0.017557338 0.01652186 0.008971491 0.008185494
000080 85 cd 21 bd 74 85 8b 3c 42 1b 6c 3d dc ab d9 3c
       -0.03950264 0.017031409 0.057643183 0.026571207
000090 1c d5 65 3d 17 2c 2d 3d 3b cd 2e 3d 98 1a 06 bc
       0.05611144 0.042278375 0.04267619 -0.008185051
0000a0 00 b0 80 bc dc 16 9f bc fd 0a 26 bc 44 c0 15 3d
       -0.015708923 -0.01942008 -0.010134456 0.036560312
0000b0 22 08 28 bc b6 e8 2d 3c a4 c4 b1 bc a4 73 b4 bc
       -0.010255845 0.010614565 -0.02170021 -0.022027798
0000c0 c9 15 9e bc 9b f0 cf 3c 66 9f ca bb 5f 00 75 3c
       -0.019297497 0.025383284 -0.0061835526 0.014953702
0000d0 60 6b 91 3c 69 d2 d2 bc 5c 6b 44 3d 26 20 44 3c
       0.017751396 -0.025735097 0.04795395 0.011970555
0000e0 7a 99 9c 3c 9b 6a 2b 3c 04 7d b7 3c 59 69 3d bd
       0.019116152 0.010462428 0.02239848 -0.046243045
0000f0 fa b1 77 bc 41 c4 44 3d 74 4d 3b 3b 4e fe 4c 3d
       -0.0151181165 0.048038725 0.0028580101 0.05004721
