Knowledge Distillation/TAKD/saved/10-8-6-4-2.pth (torch, 58338 bytes, 14 tensors)

conv_layer.0.weight f4 [16, 3, 3, 3]
0.13769946 0.40136904 0.47636807 -0.98069006 -0.51904494 0.5187306 0.26642042 -0.9047865
0.24910706 -0.33578104 0.44580016 1.0201355 -0.84473026 -0.6079546 0.7711876 0.2634931
-0.57792825 0.12048268 -0.59501773 -0.015467534 0.93808866 -0.6123058 -0.45229134 0.63493717
0.3001974 -0.48251083 0.30357742 -0.28324774 0.022412278 0.597674 -0.10152566 0.9188201
-0.07961674 0.6301143 0.10055073 -1.053124 -0.6830725 0.018016206 0.13951156 -0.5287879
0.92633915 -0.07129513 0.35741165 -0.056660198 -0.70211715 -0.6259699 -0.12787169 -0.11866337
-0.5898938 0.7614348 0.0952926 0.6526853 0.29337624 -0.39657977 -0.06213789 -0.26179948
-0.29989943 0.2544457 -0.61807567 0.09039754 0.52343184 0.024657736 0.20135929 -0.7525001
0.12560937 0.31509113 -0.36771274 -0.7202788 -0.013559605 0.40200105 -0.24672662 -0.30488673
-0.11133725 0.79162455 0.22379805 -0.36377293 0.42857456 0.27239487 -0.78384864 -0.11071308
-0.26049542 -0.7176539 -0.89233506 -0.68698514 0.28758726 -0.31422472 -0.6311781 0.9966142
0.66954875 0.8148669 0.019947141 0.14106151 0.1745295 0.34067208 -0.42067567 -0.54065984
-0.06484877 0.44136363 0.45494947 0.17623428 0.3120772 0.16167748 -0.14418957 -0.6929973
-0.45284015 0.113304615 0.16915143 0.22146799 0.33123586 0.47965237 0.23407169 -0.8584327
-0.8628239 -0.9218025 0.37047935 -0.07013631 0.20495266 -0.16356272 0.79071224 -0.02933673
-1.2654326 -0.051012278 -0.8140944 0.07072694 0.86294293 0.18032913 0.030926622 0.7275092
-0.009235852 -0.74201363 -0.27044818 -0.72948146 0.45027456 1.4213284 0.39112 0.20295139
-0.92320323 0.3746374 1.0390631 -1.4281137 0.88520133 0.5199238 -1.0514121 0.38285056
0.7668519 -1.2701051 0.35558903 1.2659713 -1.8427634 0.8196986 0.56899405 -1.3587112
0.65475094 0.11000614 -0.8054942 0.6910943 0.60228807 -1.3294456 0.72621113 0.47299644
-0.7351432 0.35139593 0.5741225 0.23026799 0.3827531 -0.3330854 -1.1026186 -0.75050414
0.4392328 0.04196769 0.4832462 1.383041 1.0015265 0.947692 -0.58731115 -0.91752553
-0.36899 -0.48058096 -0.58898693 -0.22817911 0.4937856 0.26537716 0.16312027 -0.5352336
-0.48220226 -0.332266 0.015475242 0.19534682 0.079088636 -0.5030462 0.65573305 -0.4052383
1.8372253 -1.6062071 -0.29526708 -1.0092533 1.0807296 0.09947531 -0.3565188 0.31309462
-0.029445047 1.5080723 -1.609059 0.23898752 -2.0553398 0.9995126 0.8618547 -0.058903635
0.27011558 -0.021825198 2.2127628 -1.4365966 -0.81361175 -1.2684196 0.80589306 0.2785808
0.6495032 -0.16602829 0.16650474 -0.20405143 -1.0070018 -0.15988848 -0.70989 -0.6030714
-0.6300108 0.004735159 -0.12082526 -0.039925456 -0.07098936 0.14011382 -0.10124131 -0.17669298
0.29735425 -0.037206206 -0.6801477 -0.461989 0.059878528 0.26665387 0.8791687 0.73124987
0.32291085 1.2431663 0.6919268 -0.04577969 -0.4338048 -0.39630598 -0.25917345 -0.56575537
-0.5670326 -0.5248069 0.040298797 -0.43735814 0.17268945 0.8811467 0.5549191 0.62511796
00000000: 1601 0d3e 3e80 cd3e 84e6 f33e 810e 7bbf
00000010: 21e0 04bf 87cb 043f 4268 883e 17a0 67bf
00000020: ec15 7f3e 7eeb abbe eb3f e43e cd93 823f
00000030: 3e40 58bf eaa2 1bbf 8d6c 453f 91e8 863e
00000040: 1bf3 13bf a0bf f63d 1553 18bf 8a6b 7dbc
00000050: 9426 703f 13c0 1cbf bb92 e7be 3e8b 223f
00000060: 79b3 993e a90b f7be 806e 9b3e d905 91be
00000070: f499 b73c 2a01 193f afec cfbd cb37 6b3f
00000080: 1a0e a3bd 2c4f 213f 8bed cd3d c4cc 86bf
00000090: d7dd 2ebf b996 933c 1edc 0e3e a55e 07bf
000000a0: 9024 6d3f 2e03 92bd a9fe b63e 8614 68bd
000000b0: f3bd 33bf 903f 20bf ccf0 02be c805 f3bd
000000c0: 4803 17bf 64ed 423f c428 c33d 6216 273f
000000d0: 6935 963e 810c cbbe 4d84 7ebd 950a 86be
000000e0: 6b8c 99be b546 823e 353a 1ebf 5822 b93d
000000f0: a1ff 053f 05ff c93c 2131 4e3e d9a3 40bf
00000100: be9f 003e a053 a13e d844 bcbe 3164 38bf
00000110: 1b29 5ebc 15d3 cd3e e7a5 7cbe 1d1a 9cbe
00000120: c904 e4bd e8a7 4a3f 512b 653e 7240 babe
00000130: 206e db3e 5777 8b3e 4eaa 48bf 8abd e2bd
00000140: a85f 85be 2ab8 37bf 1270 64bf 42de 2fbf
00000150: a33e 933e 10e2 a0be e394 21bf 1c22 7f3f
00000160: 8c67 2b3f 1e9b 503f 3068 a33c 6e72 103e
00000170: dcb7 323e 926c ae3e cd62 d7be af68 0abf
00000180: 6fcf 84bd 6afa e13e 23ef e83e c276 343e
00000190: 95c8 9f3e c88e 253e 6ea6 13be 4568 31bf
000001a0: aada e7be 400c e83d 0836 2d3e 81c8 623e
000001b0: bf97 a93e ff94 f53e 7db0 6f3e 3fc2 5bbf
000001c0: 07e2 5cbf 40fb 6bbf 78af bd3e a0a3 8fbd
000001d0: 1cdf 513e fc7c 27be 1e6c 4a3f 9553 f0bc
000001e0: b2f9 a1bf 40f2 50bd 7e68 50bf 49d9 903d
000001f0: d4e9 5c3f 33a8 383e d459 fd3c 0b3e 3a3f
00000200: f951 17bc 9bf4 3dbf 2f78 8abe 4cbf 3abf
00000210: 638a e63e 17ee b53f e140 c83e 7dd2 4f3e
00000220: 0c57 6cbf 79d0 bf3e 0500 853f 6ecc b6bf
00000230: 8e9c 623f ba19 053f ac94 86bf fd04 c43e
00000240: 6850 443f ce92 a2bf c40f b63e 590b a23f
00000250: acdf ebbf c4d7 513f 98a9 113f 40ea adbf
00000260: c29d 273f e64a e13d de34 4ebf 8eeb 303f
00000270: 8d2f 1a3f 462b aabf f9e8 393f 972c f23e
00000280: 5832 3cbf 2bea b33e b1f9 123f 5fcb 6b3e
00000290: 37f8 c33e 2b8a aabe 9b22 8dbf 0a21 40bf
000002a0: 1fe3 e03e 50e6 2b3d 0c6c f73e 7d07 b13f
000002b0: 0532 803f f19b 723f 065a 16bf f4e2 6abf
000002c0: 42ec bcbe b50e f6be d9c7 16bf c9a7 69be
000002d0: 77d1 fc3e 84df 873e 0009 273e 1205 09bf
000002e0: 37e3 f6be c51e aabe df8b 7d3c ff08 483e
000002f0: 39f9 a13d a3c7 00bf 1fde 273f 657b cfbe
00000300: 332a eb3f 3298 cdbf 3f2d 97be 362f 81bf
00000310: 5955 8a3f b6b9 cb3d a289 b6be f04d a03e
00000320: bd36 f1bc 8308 c13f a5f5 cdbf 25b9 743e
00000330: b08a 03c0 0fe0 7f3f 82a2 5c3f f044 71bd
00000340: 974c 8a3e c2ca b2bc e89d 0d40 66e2 b7bf
00000350: dc48 50bf 935b a2bf 024f 4e3f 25a2 8e3e
00000360: d745 263f 5203 2abe 3880 2a3e dcf2 50be
00000370: 6fe5 80bf ceb9 23be 5abb 35bf e362 1abf
00000380: 6348 21bf 6529 9b3b 3c73 f7bd e088 23bd
00000390: df62 91bd ff79 0f3e 9b57 cfbd 01ef 34be
000003a0: d13e 983e 8965 18bd 291e 2ebf d289 ecbe
000003b0: 3043 753d db86 883e 3311 613f 3133 3b3f
000003c0: 9254 a53e 1320 9f3f 1d22 313f 7c83 3bbd
000003d0: aa1b debe 9ee8 cabe 62b2 84be 58d5 10bf
000003e0: 0c29 11bf bf59 06bf 5a10 253d 68ed dfbe
000003f0: 81d5 303e d592 613f 2e0f 0e3f bb07 203f

conv_layer.0.bias f4 [16]
-0.19133493 0.06810955 0.075984836 -0.10124114 0.030190248 -0.096174434 0.1831789 -0.1606952
-0.1225464 -0.16856879 -0.044960063 -0.018889207 0.062474534 0.082786486 0.030139213 -0.119226135
00000000: 4eed 43be 057d 8b3d f09d 9b3d 8457 cfbd
00000010: 8a51 f73c 1af7 c4bd 4093 3b3e 488d 24be
00000020: 9bf9 fabd 4c9d 2cbe 0b28 38bd 8abd 9abc
00000030: 4ce5 7f3d f68b a93d 83e6 f63c d52c f4bd

conv_layer.1.weight f4 [16]
1.4813327 1.1392117 1.3781596 1.5937192 1.2053009 1.8646182 1.5970647 0.98758864
1.0684768 0.9473076 1.3510662 1.0604875 1.3475996 1.4843102 0.9824603 1.1319224
00000000: 4f9c bd3f b0d1 913f 8967 b03f fefe cb3f
00000010: 4d47 9a3f cfab ee3f 9e6c cc3f 9cd2 7c3f
00000020: d9c3 883f c082 723f bdef ac3f 0ebe 873f
00000030: 257e ac3f e0fd bd3f 8582 7b3f d5e2 903f

conv_layer.1.bias f4 [16]
-0.2306939 -0.40313742 -0.35863557 -0.5985526 -0.04680578 -0.43696195 -0.3080271 -0.10910422
0.102528505 0.115170516 -1.0239784 -0.58185744 0.0718178 -0.582077 0.21510042 -0.0530181
00000000: 063b 6cbe 0768 cebe 159f b7be be3a 19bf
00000010: 6bb7 3fbd 7ab9 dfbe bab5 9dbe 0972 dfbd
00000020: 77fa d13d 85de eb3d b911 83bf 9cf4 14bf
00000030: 3615 933d 0003 15bf 4943 5c3e 8229 59bd

conv_layer.1.running_mean f4 [16]
-0.47575572 0.38402352 -1.4305967 -0.2846718 -0.46520817 -0.3837669 0.008431004 -0.37117025
-0.06366806 -0.41954333 1.1174854 -0.33635035 -0.24670133 -0.80585563 1.2608677 -0.090612315
00000000: 4196 f3be bb9e c43e cb1d b7bf 81c0 91be
00000010: c42f eebe 187d c4be 3222 0a3c 070a bebe
00000020: 6664 82bd 62ce d6be c309 8f3f 1d36 acbe
00000030: 469f 7cbe 8e4c 4ebf 1d64 a13f f392 b9bd

conv_layer.1.running_var f4 [16]
2.5689323 0.568217 0.6584794 1.2834442 1.5932474 3.0707123 2.1692436 0.4818386
1.0022935 0.62346524 0.7788856 0.25693837 3.6352026 1.644743 0.45522344 0.65515816
00000000: 6369 2440 ab76 113f 1b92 283f e647 a43f
00000010: 88ef cb3f 8d86 4440 e3d4 0a40 8db3 f63e
00000020: 274b 803f 6b9b 1f3f 0c65 473f 6d8d 833e
00000030: 29a7 6840 f086 d23f 0c13 e93e 72b8 273f

conv_layer.4.weight f4 [16, 16, 3, 3]
0.21201935 -0.5952855 -0.86231107 -0.20220076 -0.17662401 -0.017214477 -0.048794124 -0.19216669
0.10981484 0.102837965 0.1415512 -0.051552746 0.094119094 0.013124518 0.026340818 -0.13415875
-0.040136356 -0.57177776 -0.6869835 -0.08146914 0.004376594 -0.2668994 0.46178573 0.23562086
-0.07273931 0.28569221 0.25149527 -0.59201455 -0.16579808 -0.40879324 -0.10563664 0.050517235
-0.20535599 -0.13729227 0.18832153 0.10428498 0.029554194 0.036609292 0.037130177 -0.22951873
-0.12533206 0.07981384 -0.15366656 0.08186688 0.047486726 0.12779458 0.06988511 -0.011034056
0.013295057 -0.04076718 0.0016514153 -0.2618374 -0.188773 -0.026772646 -0.03276072 -0.20442088
0.45419344 -0.23199937 -0.029339535 -0.014949421 -0.0747242 0.2824476 0.053012826 0.028887713
0.08585381 -0.09502188 -0.06467437 -0.090392105 0.107871555 0.61250657 0.103269055 -0.25206763
0.17121534 0.20135993 -0.049699295 0.03749235 -0.44289124 -0.14736116 -0.20465632 -0.046339713
0.35912368 0.12060251 0.04279294 -0.34578454 -0.46678942 -0.41452238 0.051397778 -0.42707017
0.5296746 0.26913232 0.23793317 -0.07157901 -0.25817814 -0.41290367 -0.002166235 0.04875001
0.11970626 0.4207306 -0.2478041 0.17120257 0.31758055 -0.1287739 0.19172242 -0.080236584
-0.18466337 0.0010319857 -0.11388644 -0.09118597 0.32992706 0.06216075 0.13099134 0.34084997
0.31031802 0.21151395 -0.056615338 -0.030027697 -0.3160918 -0.19023108 -0.11903612 0.5383432
-0.08600541 0.49367213 0.28425646 0.10256836 0.44706386 0.21858512 0.33888316 0.14612697
-0.37728044 -0.48048156 -0.037018232 -0.21207394 0.044706725 -0.10202826 0.25078163 -0.24116953
-0.40179136 -0.42195457 0.058875535 -0.29979047 -0.5343032 -0.24069208 -0.5530595 0.07717786
0.25770128 -0.10345424 -0.16186155 -0.30382693 -0.017473152 -0.7166803 0.4596673 0.125203
0.002851825 -0.004164593 -0.33351585 0.30963117 0.41660225 0.1082275 -0.3947034 -0.18614806
0.11873342 -0.5542587 0.21670115 -0.033072688 -0.2064218 -0.21454482 -0.20931286 -0.06904296
0.16222319 -0.47304642 -0.51747507 -0.0021944526 0.16562359 0.41724852 0.01915837 -0.04910889
-0.46013466 -0.13264169 0.110656135 -0.17837483 -0.40032005 0.10013972 -0.27944934 -0.2609547
-0.076481536 0.07874409 0.09658875 0.017483078 -0.22861399 0.1528087 0.0872166 0.16256246
-0.11708617 -0.03194147 -0.051247332 -0.5198542 -0.20514986 -0.010829909 0.1005716 -0.021173306
0.41504058 0.23736785 0.1957418 -0.20768139 -0.030302232 -0.08277928 0.24773392 0.33047765
0.02601555 -0.091501996 -0.040624656 0.1466403 -0.19438738 -0.15812331 0.07367418 -0.03942541
0.15663162 0.013481828 0.36057043 -0.16530477 -0.31830359 -0.10518026 -0.16027054 0.018286087
0.27581632 0.014662241 0.095175706 -0.19639727 -0.32644537 -0.34510756 -0.03551172 -0.008214129
-0.1922977 -0.20941167 -0.041926205 0.4478286 0.09318783 0.036259066 -0.007875005 -0.1224932
-0.23506132 -0.19716609 -0.02976609 0.3642932 0.42669344 0.27674997 -0.09937741 -0.061998397
0.07878904 -0.18667978 -0.43592477 -0.4164447 0.007855657 0.066262454 0.12325279 0.3871726
00000000: 9a1b 593e a164 18bf 6bc0 5cbf b70d 4fbe
00000010: eddc 34be 6005 8dbc 59dc 47bd 58c7 44be
00000020: 9ae6 e03d b69c d23d ccf2 103e f928 53bd
00000030: 83c1 c03d 3808 573c b3c8 d73c e960 09be
00000040: 0566 24bd 0760 12bf 27de 2fbf 4bd9 a6bd
00000050: 8869 8f3b 0aa7 88be 2e6f ec3e 9846 713e
00000060: 59f8 94bd 4046 923e fdc3 803e 448e 17bf
00000070: f9c6 29be 594d d1be 0658 d8bd 29eb 4e3d
00000080: d748 52be 5896 0cbe 5cd7 403e 5d93 d53d
00000090: a31b f23c a0f3 153d d015 183d f506 6bbe
000000a0: 0c57 00be 7075 a33d c45a 1dbe d3a9 a73d
000000b0: 7181 423d 95dc 023e ed1f 8f3d 2fc8 34bc
000000c0: 83d3 593c 7dfb 26bd 4d74 d83a 8d0f 86be
000000d0: b64d 41be 4f52 dbbc 1b30 06bd b553 51be
000000e0: 0b8c e83e 3e91 6dbe 7759 f0bc 6bee 74bc
000000f0: 0009 99bd f99c 903e fa23 593d eda5 ec3c
00000100: 1fd4 af3d d59a c2bd ff73 84bd 7f1f b9bd
00000110: c3eb dc3d 3bcd 1c3f ba7e d33d 020f 81be
00000120: 1353 2f3e 4c31 4e3e 7d91 4bbd 9491 193d
00000130: a4c2 e2be d8e5 16be 6d91 51be b6ce 3dbd
00000140: 0fdf b73e 73fe f63d a647 2f3d ac0a b1be
00000150: 06ff eebe 473c d4be 7a86 523d f1a8 dabe
00000160: c198 073f b6cb 893e c1a4 733e 0498 92bd
00000170: ed2f 84be 1c68 d3be 64f7 0dbb 17ae 473d
00000180: 8e28 f53d 006a d73e 5cc0 7dbe ba4f 2f3e
00000190: eb99 a23e 4edd 03be e252 443e 1453 a4bd
000001a0: 6518 3dbe b243 873a 4b3d e9bd b6bf babd
000001b0: 33ec a83e 459c 7e3d 9822 063e e383 ae3e
000001c0: 01e2 9e3e 1d97 583e 7ce5 67bd a5fc f5bc
000001d0: c9d6 a1be f0cb 42be 36c9 f3bd dcd0 093f
000001e0: 9b23 b0bd 98c2 fc3e 108a 913e 5c0f d23d
000001f0: 8ee5 e43e c7d4 5f3e 1882 ad3e 4fa2 153e
00000200: e72a c1be ae01 f6be 6ea0 17bd e929 59be
00000210: 661e 373d 31f4 d0bd 7366 803e 25f5 76be
00000220: 99b7 cdbe 6e0a d8be 7927 713d 237e 99be
00000230: 18c8 08bf fc77 76be 4f95 0dbf 6d0f 9e3d
00000240: 6cf1 833e d1df d3bd 09bf 25be 348f 9bbe
00000250: db23 8fbc 5c78 37bf 8359 eb3e 3735 003e
00000260: afe5 3a3b 2377 88bb 97c2 aabe fa87 9e3e
00000270: e44c d53e 61a6 dd3d 9016 cabe 999d 3ebe
00000280: 822a f33d e6e3 0dbf e8e6 5d3e 3a77 07bd
00000290: 3d60 53be a3b1 5bbe 1c56 56be 6566 8dbd
000002a0: d61d 263e 2433 f2be 3f79 04bf ced0 0fbb
000002b0: 3b99 293e 99a1 d53e 04f2 9c3c 6726 49bd
000002c0: c596 ebbe 39d3 07be af9f e23d e4a7 36be
000002d0: c0f6 ccbe 0e16 cd3d fc13 8fbe db9b 85be
000002e0: 5aa2 9cbd 9544 a13d 53d0 c53d ac38 8f3c
000002f0: c919 6abe e279 1c3e 9e9e b23d c676 263e
00000300: e0ca efbd 0fd5 02bd b9e8 51bd 2a15 05bf
00000310: ce12 52be ee6f 31bc 7cf8 cd3d a473 adbc
00000320: 3380 d43e 8f10 733e 8a70 483e 6eaa 54be
00000330: 633c f8bc 2f88 a9bd f6ad 7d3e 5e34 a93e
00000340: 901e d53c 6665 bbbd 0a66 26bd e028 163e
00000350: 7c0d 47be 14eb 21be 7de2 963d 8a7c 21bd
00000360: 0a64 203e e3e2 5c3c b09c b83e a745 29be
00000370: b0f8 a2be c068 d7bd f61d 24be b4cc 953c
00000380: cc37 8d3e e539 703c 7beb c23d 5e1c 49be
00000390: d923 a7be f0b1 b0be bd74 11bd 8e94 06bc
000003a0: b0e9 44be 0370 56be d0ba 2bbd ca49 e53e
000003b0: 43d9 be3d 6384 143d 2a06 01bc b7dd fabd
000003c0: eab3 70be e8e5 49be 04d8 f3bc a384 ba3e
000003d0: 9077 da3e 2cb2 8d3e 6286 cbbd 08f2 7dbd
000003e0: 265c a13d fc28 3fbe 8831 dfbe 3d38 d5be
000003f0: 03b5 003c 9cb4 873d f56b fc3d 7d3b c63e

conv_layer.4.bias f4 [16]
-0.04465283 0.046833597 -0.059872895 -0.05057007 0.027793616 -0.012876703 -0.03942139 0.042520445
-0.05615344 0.06483581 -0.0007475211 0.007210131 -0.082003586 0.022623926 0.008553459 0.063869685
00000000: e3e5 36bd 96d4 3f3d 483d 75bd 9022 4fbd
00000010: 70af e33c cff8 52bc 5378 21bd eb29 2e3d
00000020: 2601 66bd a3c8 843d 4bf5 43ba f642 ec3b
00000030: 7ff1 a7bd d055 b93c cf23 0c3c 1cce 823d

conv_layer.5.weight f4 [16]
1.3267307 0.9808366 1.997168 0.9862231 1.606572 0.84118396 1.4603435 1.6506317
0.8085695 1.531547 1.0723122 1.0441232 1.063416 0.9442921 0.8640933 1.446198
00000000: 50d2 a93f 1b18 7b3f 33a3 ff3f 1e79 7c3f
00000010: 27a4 cd3f d557 573f 89ec ba3f e647 d33f
00000020: 69fe 4e3f bb09 c43f 8741 893f d4a5 853f
00000030: 041e 883f 21bd 713f 3835 5d3f 041d b93f

conv_layer.5.bias f4 [16]
-0.89253265 -0.69029677 -1.440439 -0.7861091 -0.9061124 -0.09173849 -1.2065253 -1.0482432
-0.2974352 -1.1911062 -0.52283007 -0.552377 -0.3429466 -0.3095068 -0.51290876 -1.1015853
00000000: 057d 64bf 4ab7 30bf 4e60 b8bf 723e 49bf
00000010: fbf6 67bf 64e1 bbbd 6c6f 9abf d52c 86bf
00000020: 6d49 98be 2b76 98bf 31d8 05bf 9468 0dbf
00000030: b296 afbe ad77 9ebe fd4d 03bf bf00 8dbf

conv_layer.5.running_mean f4 [16]
-2.6931467 -1.6792387 -5.3025117 -1.1277846 -3.2092223 -0.92493063 -1.1918528 -1.7701142
-1.2011722 -2.8078454 -1.8870198 -1.9429445 -3.0399973 -2.8432493 -0.88054925 -2.9318998
00000000: 845c 2cc0 4bf1 d6bf 2dae a9c0 3f5b 90bf
00000010: e663 4dc0 41c8 6cbf a28e 98bf 1a93 e2bf
00000020: 03c0 99bf bdb3 33c0 dd89 f1bf 68b2 f8bf
00000030: 518f 42c0 ccf7 35c0 ad6b 61bf 3fa4 3bc0

conv_layer.5.running_var f4 [16]
8.222204 7.7735167 15.661622 5.3574295 11.869237 7.380753 8.636205 15.21594
6.5474343 10.153987 7.295417 7.2661633 8.625865 8.151284 4.9874873 8.646319
00000000: 268e 0341 a6c0 f840 0196 7a41 1070 ab40
00000010: 65e8 3d41 212f ec40 e52d 0a41 7e74 7341
00000020: 9584 d140 bb76 2241 0e74 e940 6984 e840
00000030: 8b03 0a41 a96b 0241 7f99 9f40 5357 0a41

fc_layer.0.weight f4 [10, 1024]
-0.20147933 -0.10001084 -0.09722498 -0.14203048 -0.2522628 -0.14508422 -0.099231124 -0.2717776
0.18895745 0.14153755 0.045953184 0.030252688 0.2401546 0.21951249 0.11397561 0.19768228
-0.11371771 0.096391216 0.008619255 0.064592674 -0.033943325 0.31367397 0.22953738 0.0014760938
-0.24118216 -0.17395079 -0.21082182 0.2576742 0.019316519 0.122618526 -0.04621776 0.24641886
-0.20036572 -0.15598397 -0.2018801 0.0741758 -0.09810958 -0.12116783 0.020954864 -0.007941202
-0.13297679 -0.28407028 -0.088148065 -0.092401356 0.007839884 -0.27504578 -0.2996114 0.034381304
0.26701477 0.05710375 -0.058192044 -0.08161168 -0.23800671 -0.1288614 -0.14298148 -0.047018275
0.16233037 0.18010014 -0.11996357 0.01657811 -0.13967566 0.035441782 0.17653666 0.16312516
-0.19544214 -0.12208995 0.044673055 0.16520989 0.034729462 0.054466933 0.09891025 0.006425496
0.1319267 0.13066128 -0.026622301 0.043440156 -0.0019974133 -0.16084683 0.21798815 0.06539625
-0.30040422 0.14528543 -0.08750648 0.053209927 -0.28048047 0.11090546 -0.03829055 -0.16455789
-0.011344402 0.15209197 0.04639141 -0.10142035 0.15185535 0.1097476 0.15768166 -0.024790855
-0.025711762 0.23796876 0.22265229 -0.06208324 0.07484339 0.29070413 0.019493086 0.1873401
0.0036999101 0.06882399 0.04587528 -0.08395315 0.08104357 0.0013639334 0.038363203 -0.02727967
-0.059702106 0.041141734 0.017649401 0.067922905 0.0139564825 -0.32796016 0.1958357 0.12174991
-0.11566258 -0.16483681 -0.08127882 0.16311033 0.11632231 0.03548165 0.041908454 -0.106793955
0.3278571 -0.14120597 0.25042138 0.013094427 0.03495631 0.16530003 -0.12373548 -0.038711663
0.013675564 0.042917587 0.06401934 0.03374252 0.09779637 0.0686571 0.08155194 -0.041900717
-0.16404751 -0.046906896 0.11306422 0.0024553586 0.05492702 0.058135495 0.3646061 0.01575241
-0.0025516013 -0.058153864 0.015385143 0.037470166 -0.049984157 -0.02625215 -0.050975483 0.10557955
0.046387713 0.13694492 -0.07765337 -0.039356712 0.0020520564 0.16448814 0.14206462 -0.04728477
-0.09082967 0.02923277 0.089129485 0.06570286 0.05043384 -0.11181233 0.10032939 0.12467267
-0.26373598 0.21014166 0.02876007 0.059336327 0.1396778 0.14071101 0.043097954 0.3430414
0.107748486 0.20647047 0.12406466 -0.024781933 0.24735153 0.16225877 -0.076483026 0.19548434
-0.10964395 -0.061271716 -0.14170851 0.090668015 -0.039585248 0.27307135 0.019327432 0.20061062
-0.04520244 -0.03269166 0.023881664 -0.035155386 -0.032051574 0.0043982137 0.17746554 -0.087258875
0.14419736 0.10903733 -0.067283444 -0.020388499 -0.10557435 0.18580376 0.25640237 0.033932135
0.31222072 0.11281959 -0.03887151 0.019584207 0.11781488 0.13042553 0.11395257 -0.022794733
0.2537304 0.39212415 0.1277647 0.05140456 0.1249228 -0.011439014 0.25600606 0.17664613
0.28103667 0.033142284 0.26769733 -0.025964756 -0.018631835 0.23043744 0.19310871 0.2669489
-0.034495622 0.063203014 0.06807883 0.05882974 -0.049461573 0.23872954 -0.028036147 0.056245156
-0.27826253 -0.056022555 -0.10079898 -0.24974479 0.12705208 -0.02965707 0.23298089 0.06864663
00000000: 9950 4ebe 7cd2 ccbd e41d c7bd 7070 11be
00000010: 9728 81be f590 14be b039 cbbd 6f26 8bbe
00000020: 107e 413e 38ef 103e 6839 3c3d 7cd4 f73c
00000030: 16eb 753e e2c7 603e 0b6c e93d 396d 4a3e
00000040: d5e4 e8bd c268 c53d c737 0d3c 2a49 843d
00000050: 2808 0bbd e099 a03e d90b 6b3e 7d79 c13a
00000060: 75f8 76be 2820 32be ade1 57be dfed 833e
00000070: ad3d 9e3c 6c1f fb3d d54e 3dbd 3a55 7c3e
00000080: ac2c 4dbe 43ba 1fbe a8b9 4ebe 7be9 973d
00000090: aded c8bd d726 f8bd 89a9 ab3c d11b 02bc
000000a0: 112b 08be a971 91be f986 b4bd ec3c bdbd
000000b0: db72 003c cdd2 8cbe aa66 99be 69d3 0c3d
000000c0: 29b6 883e 9fe5 693d c85a 6ebd 0624 a7bd
000000d0: 08b8 73be 3ef4 03be bd69 12be 3c96 40bd
000000e0: ef39 263e 2c6c 383e 76af f5bd d1ce 873c
000000f0: 2307 0fbe 672b 113d 07c6 343e 480a 273e
00000100: fc21 48be 4c0a fabd 18fb 363d c82c 293e
00000110: 7b40 0e3d b818 5f3d 7591 ca3d f88c d23b
00000120: cb17 073e 12cc 053e 0317 dabc 4eee 313d
00000130: 09e7 02bb 08b5 24be 4938 5f3e 78ee 853d
00000140: 95ce 99be b4c5 143e 9936 b3bd a7f2 593d
00000150: 239b 8fbe 6722 e33d 8dd6 1cbd dd81 28be
00000160: dfdd 39bc ffbd 1b3e eb04 3e3d 79b5 cfbd
00000170: f87f 1b3e 5ac3 e03d 4d77 213e 3116 cbbc
00000180: 79a1 d2bc 15ae 733e f6fe 633e ff4a 7ebd
00000190: 7e47 993d 2cd7 943e f7af 9f3c 15d6 3f3e
000001a0: 317a 723b 98f3 8c3d b8e7 3b3d a1ef abbd
000001b0: 2cfa a53d 03c6 b23a bc22 1d3d 9d79 dfbc
000001c0: 328a 74bd 3c84 283d 7a95 903c 2a1b 8b3d
000001d0: bba9 643c 65ea a7be 2789 483e 0458 f93d
000001e0: 81e0 ecbd fbca 28be 8375 a6bd 6506 273e
000001f0: 643a ee3d 3555 113d 33a8 2b3d cab6 dabd
00000200: e3dc a73e 4c98 10be 3b37 803e 028a 563c
00000210: 592e 0f3d 6944 293e 0769 fdbd 1f90 1ebd
00000220: 790f 603c 5aca 2f3d 921c 833d 9935 0a3d
00000230: 7749 c83d 189c 8c3d b404 a73d 16a0 2bbd
00000240: 12fc 27be 7221 40bd 378e e73d 15ea 203b
00000250: 28fb 603d 7c1f 6e3d a7ad ba3e 330b 813c
00000260: c438 27bb bf32 6ebd f811 7c3c 517a 193d
00000270: 30bc 4cbd c00e d7bc abcb 50bd 173a d83d
00000280: 0b01 3e3d 4a3b 0c3e bb08 9fbd 8134 21bd
00000290: cb7b 063b 946f 283e 6379 113e adad 41bd
000002a0: e804 babd 9079 ef3c 8589 b63d 398f 863d
000002b0: b793 4e3d ddfd e4bd 7f79 cd3d 6354 ff3d
000002c0: 6708 87be 602f 573e 3d9a eb3c a60a 733d
000002d0: b207 0f3e 8c16 103e 7b87 303d 1fa3 af3e
000002e0: 3dab dc3d ff6c 533e 9d15 fe3d 7b03 cbbc
000002f0: b849 7d3e 2a27 263e 22a3 9cbd 0c2d 483e
00000300: 028d e0bd 0df8 7abd 091c 11be 27b0 b93d
00000310: 2424 22bd 02d0 8b3e 9054 9e3c df6c 4d3e
00000320: 3226 39bd b1e7 05bd 7ba3 c33c 18ff 0fbd
00000330: 8348 03bd e41e 903b 87b9 353e c8b4 b2bd
00000340: 79a8 133e f74e df3d e7cb 89bd c805 a7bc
00000350: 5d37 d8bd 5743 3e3e 2c47 833e 6cfc 0a3d
00000360: 65db 9f3e f50d e73d bc37 1fbd 0f6f a03c
00000370: ee48 f13d 458e 053e f75f e93d 05bc babc
00000380: f3e8 813e 7fc4 c83e c0d4 023e 978d 523d
00000390: 86d7 ff3d b46a 3bbc 3a13 833e b9e2 343e
000003a0: 0ae4 8f3e 34c0 073d a00f 893e 0ab4 d4bc
000003b0: caa1 98bc cbf7 6b3e 4abe 453e 87ad 883e
000003c0: 484b 0dbd 9570 813d ea6c 8b3d 74f7 703d
000003d0: 3898 4abd 8475 743e 10ac e5bc 5261 663d
000003e0: 6d78 8ebe e877 65bd b26f cebd 19bd 7fbe
000003f0: f119 023e 62f3 f2bc 8b92 6e3e 9b96 8c3d

fc_layer.0.bias f4 [10]
-0.41388366 -0.60327274 -0.16087103 -0.1364262 0.7356722 -0.14238237 0.8467812 -0.4448178
0.31205717 0.012883097
00000000: 8fe8 d3be 1570 1abf 60bb 24be 4fb3 0bbe
00000010: 0355 3c3f afcc 11be a7c6 583f 29bf e3be
00000020: f5c5 9f3e a013 533c
