Knowledge Distillation/TAKD/saved/10-8-6-4.pth (torch, 160158 bytes, 26 tensors)

conv_layer.0.weight f4 [16, 3, 3, 3]
0.18882371 -0.13277663 0.10588003 -0.1158785 -0.1721118 0.48358738 0.0003667202 -0.33102027
0.13649113 -0.014605947 -0.32577965 0.2937506 -0.42019048 -0.58710754 0.28996134 0.15750888
-0.53737986 0.24096324 0.16793416 -0.12744202 0.19711687 0.050370544 -0.30823448 0.4535399
-0.067641154 -0.18116476 0.2299355 -0.054391704 -0.035197224 -0.15087827 -0.163043 -0.23231776
0.13429432 0.0004941654 -0.14081231 -0.028941631 -0.04615478 -0.20521234 0.07825772 -0.21390538
-0.10777589 0.07452191 -0.14447874 -0.26242203 -0.17195946 -0.071459614 -0.063437395 0.044517305
-0.028042074 0.085141584 -0.11204022 -0.14453904 -0.13321899 0.14457843 0.2530505 0.09236848
0.76024187 0.19182935 0.23683126 0.27136907 -0.42922795 -0.3000103 -0.029304277 -0.09648378
-0.63656265 -0.21843465 0.050345223 -0.512635 -0.25905612 0.16766892 -0.25730374 -0.02044643
0.3387976 -0.39715546 -0.18659331 0.50257754 -0.105541006 -0.3735893 0.74441665 0.053322233
-0.09801927 -0.07722266 0.054344162 -0.103585474 -0.29370227 -0.0729466 -0.18474486 -0.20291637
-0.09032577 0.2357508 -0.19210859 0.09502817 -0.3714039 0.010645618 0.14185372 -0.05919579
-0.2095766 -0.2850242 0.09293193 0.2822205 0.40869218 -0.26698944 0.20944855 0.6031048
0.2740428 -0.08534642 0.061802626 -0.005725574 -0.17478004 0.15673919 -0.32327846 0.4560749
-0.043780986 0.05136275 0.4240829 -0.5372612 0.11819593 0.036381636 0.018713938 -0.05339642
0.31495568 -0.66517615 0.19912359 0.32084262 -0.8722767 0.49414343 -0.29775313 0.45989916
0.025001783 0.0875559 -0.25836226 0.10813919 0.13574757 -0.5723839 0.51693267 -0.06604824
0.36550137 -0.11351714 -0.25808167 -0.35301226 -0.6015438 -0.054488845 -0.04039028 0.13694307
0.35008958 0.5604559 0.24333136 0.018662745 -0.11999466 -0.36154494 0.03909916 0.002369405
-0.07013022 0.00634735 0.47075096 0.17231715 -0.13824086 0.1307024 -0.0072137746 -0.092272624
-0.2514833 -0.020446071 0.27019083 0.13183297 -0.09992951 0.7632609 -0.24628815 -0.56201255
0.2716054 0.2125254 0.06378375 0.1140543 -0.31021348 -0.0011983127 0.2287902 -0.63066065
-0.39171264 -0.23697686 -0.16549537 -0.10704658 -0.064322926 0.21403053 0.32463324 0.5158061
-0.06846761 -0.16370147 -0.15946138 -0.1365487 0.30955717 0.12985307 0.031118825 0.092153355
-0.0383823 0.16766275 0.15601784 0.09195945 -0.052475594 0.12639058 -0.15193759 -0.022920175
-0.26994953 -0.024160802 0.07398057 0.017320847 -0.2897037 0.10264452 0.017729549 0.17840023
0.113517396 -0.13806127 0.22503424 0.09732322 0.043695893 0.099734135 0.16831899 0.18007028
0.26602986 -0.06468081 0.10210636 0.15595818 0.02219008 0.20030755 -0.15857911 -0.1718142
0.15731972 -0.3565971 -0.2371067 -0.079170786 0.014763319 -0.2274566 0.12056911 -0.31358755
-0.015699053 0.3548935 -0.42138153 -0.3428707 0.28137872 -0.049227335 -0.19294862 0.72219604
-0.31345862 0.12706327 0.56537265 -0.46797958 -0.3859258 -0.12296303 0.26383287 0.5175024
0.1550277 0.333029 0.24478868 -0.008276144 -0.2554029 -0.06392903 0.031940624 -0.05493585
00000000: 015b 413e 99f6 07be a1d7 d83d b551 edbd
00000010: 133e 30be c498 f73e 5a44 c039 7d7b a9be
00000020: 55c4 0b3e c84d 6fbc 97cc a6be 7b66 963e
00000030: 3523 d7be ae4c 16bf d075 943e 024a 213e
00000040: ba91 09bf 11bf 763e eff6 2b3e 2980 02be
00000050: 01d9 493e 5851 4e3d e9d0 9dbe 6236 e83e
00000060: 7287 8abd 4183 39be 3674 6b3e d6c9 5ebd
00000070: f72a 10bd d57f 1abe bff4 26be b5e4 6dbe
00000080: 7384 093e e18a 013a 1a31 10be 0017 edbc
00000090: cb0c 3dbd 2f23 52be 9545 a03d 030a 5bbe
000000a0: 9bb9 dcbd f19e 983d 3cf2 13be 2e5c 86be
000000b0: 2416 30be 6b59 92bd 77eb 81bd c757 363d
000000c0: 7eb8 e5bc b65e ae3d 5875 e5bd 0b02 14be
000000d0: 8f6a 08be 5e0c 143e d68f 813e b02b bd3d
000000e0: 369f 423f ea6e 443e e583 723e e3f0 8a3e
000000f0: c4c3 dbbe f39a 99be 860f f0bc 4a99 c5bd
00000100: c5f5 22bf 55ad 5fbe cb36 4e3d 0c3c 03bf
00000110: 01a3 84be 67b1 2b3e 51bd 83be 467f a7bc
00000120: e176 ad3e f657 cbbe 5112 3fbe eca8 003f
00000130: e225 d8bd 1947 bfbe 1792 3e3f 6a68 5a3d
00000140: 54be c8bd ea26 9ebd fc97 5e3d 9f24 d4bd
00000150: 2560 96be 0765 95bd c22d 3dbe 4fc9 4fbe
00000160: b8fc b8bd a868 713e 1db8 44be 219e c23d
00000170: a728 bebe f56a 2e3c 1a42 113e 4977 72bd
00000180: 409b 56be b1ee 91be 1953 be3d 357f 903e
00000190: 1a40 d13e d7b2 88be ae79 563e 1465 1a3f
000001a0: 564f 8c3e 1bca aebd c024 7d3d 999d bbbb
000001b0: 8af9 32be 3d80 203e c184 a5be a682 e93e
000001c0: b153 33bd bf61 523d 6521 d93e f389 09bf
000001d0: b510 f23d e904 153d f94d 993c 34b6 5abd
000001e0: df41 a13e fc48 2abf 0ee7 4b3e 7c45 a43e
000001f0: 874d 5fbf 5e00 fd3e 1973 98be e777 eb3e
00000200: 8ad0 cc3c 8250 b33d 0f48 84be 1478 dd3d
00000210: 6901 0b3e c087 12bf b355 043f 4d44 87bd
00000220: ff22 bb3e ad7b e8bd 4823 84be 06be b4be
00000230: c6fe 19bf b22f 5fbd 4770 25bd ce3a 0c3e
00000240: f13e b33e 0a7a 0f3f db2b 793e 9de2 983c
00000250: c3bf f5bd 6b1c b9be 7126 203d 0548 1b3b
00000260: 6fa0 8fbd 6efd cf3b 4506 f13e e873 303e
00000270: 038f 0dbe dad6 053e 8761 ecbb 6ef9 bcbd
00000280: 6bc2 80be 857e a7bc 7456 8a3e 39ff 063e
00000290: d8a7 ccbd 1165 433f f632 7cbe 0ee0 0fbf
000002a0: dd0f 8b3e 42a0 593e 0ea1 823d 4d95 e93d
000002b0: 4dd4 9ebe b410 9dba fa47 6a3e fa72 21bf
000002c0: 8f8e c8be 10aa 72be 9e77 29be 3d3b dbbd
000002d0: bdbb 83bd d22a 5b3e 5436 a63e de0b 043f
000002e0: bf38 8cbd 5ca1 27be d849 23be 6cd3 0bbe
000002f0: 477e 9e3e 34f8 043e e8ec fe3c e6ba bc3d
00000300: c236 1dbd c9af 2b3e 24c3 1f3e 3c55 bc3d
00000310: a6f0 56bd 886c 013e 8795 1bbe 17c3 bbbc
00000320: d336 8abe e0ec c5bc 2083 973d 73e4 8d3c
00000330: 0b54 94be 4a37 d23d 8f3d 913c 8dae 363e
00000340: cf7b e83d ef5f 0dbe 606f 663e 6551 c73d
00000350: 77fa 323d 6941 cc3d d05b 2c3e 5864 383e
00000360: 1135 883e 5f77 84bd 241d d13d 80b3 1f3e
00000370: f8c7 b53c 6c1d 4d3e 9062 22be 10f0 2fbe
00000380: 6c18 213e e593 b6be 19cc 72be 4b24 a2bd
00000390: d9e1 713c 62ea 68be f0ec f63d 8c8e a0be
000003a0: 4d9b 80bc 9ab4 b53e 52bf d7be c08c afbe
000003b0: df10 903e 9aa2 49bd 5394 45be d7e1 383f
000003c0: a67d a0be e01c 023e 43bc 103f 059b efbe
000003d0: 1198 c5be 0bd4 fbbd 1a15 873e 0a7b 043f
000003e0: 95bf 1e3e c782 aa3e e2a9 7a3e aa98 07bc
000003f0: 2bc4 82be 39ed 82bd 2cd4 023d 6a04 61bd

conv_layer.0.bias f4 [16]
-0.075446524 0.08573705 -0.122848645 0.122667246 0.1519067 0.03919072 -0.04473564 -0.050240837
-0.040241923 0.119135775 -0.12961711 0.115541816 -0.06946892 -0.05863631 0.009745441 0.01316847
00000000: b583 9abd e896 af3d 1298 fbbd f738 fb3d
00000010: 6e8d 1b3e 7386 203d b83c 37bd 56c9 4dbd
00000020: b7d4 24bd 75fd f33d 59ba 04be 30a1 ec3d
00000030: b945 8ebd a12c 70bd 58ab 1f3c 91c0 573c

conv_layer.1.weight f4 [16]
1.0544754 0.74916697 0.9035779 0.7919939 1.4025451 0.95399296 1.1352612 0.64816123
1.0166937 0.7683428 0.8354905 1.2599453 0.8780523 0.878151 0.8952597 0.90487295
00000000: 0df9 863f 68c9 3f3f e250 673f 1dc0 4a3f
00000010: 9986 b33f e238 743f 3d50 913f e5ed 253f
00000020: 0523 823f 1db2 443f b5e2 553f e345 a13f
00000030: 09c8 603f 81ce 603f bd2f 653f c1a5 673f

conv_layer.1.bias f4 [16]
0.4177543 -0.25963297 0.20882517 -0.029221758 1.0063418 0.07270505 0.2727446 -0.12269457
0.2599725 0.23050146 -0.077076636 0.6109157 -0.08163048 0.07736987 0.32071835 0.32495415
00000000: e4e3 d53e 9dee 84be 44d6 553e 7862 efbc
00000010: cfcf 803f 63e6 943d 2ea5 8b3e 4a47 fbbd
00000020: 1e1b 853e 9308 6c3e 5bda 9dbd f964 1c3f
00000030: e22d a7bd 1874 9e3d 3235 a43e 6460 a63e

conv_layer.1.running_mean f4 [16]
-0.47456533 -1.7069571 -0.46964303 0.06556606 0.08321123 -0.046541195 -0.19967465 0.96563756
0.15947323 -0.11692962 -0.11675 0.08631175 -0.30628368 0.04874303 -0.17403002 0.1318984
00000000: 3afa f2be 927d dabf 0d75 f0be 8047 863d
00000010: a66a aa3d fba1 3ebd 8377 4cbe 0634 773f
00000020: f34c 233e cc78 efbd a01a efbd 37c4 b03d
00000030: 37d1 9cbe c5a6 473d ed34 32be 6010 073e

conv_layer.1.running_var f4 [16]
0.43924454 0.75411713 0.2994284 0.20554441 0.19610377 0.38026616 0.31325996 0.2920332
0.5227026 0.2222825 0.19468892 0.25955176 0.61077243 0.851516 0.34217408 0.19973288
00000000: a9e4 e03e d20d 413f ae4e 993e 3c7a 523e
00000010: 6dcf 483e 3fb2 c23e 9c63 a03e 6085 953e
00000020: d6cf 053f 069e 633e 885c 473e f8e3 843e
00000030: 955b 1c3f f4fc 593f 7131 af3e c786 4c3e

conv_layer.3.weight f4 [16, 16, 3, 3]
0.2262283 -0.123662226 -0.24651825 0.14121518 0.008193044 -0.22599855 0.17510836 -0.091345236
-0.30460694 0.08803114 -0.021355208 0.010640181 -0.004399826 0.056118537 0.047232736 0.03757755
-0.07122401 -0.0633283 -0.14392917 -0.048890214 0.16207169 -0.06727989 -0.20926815 0.22509785
-0.1346033 -0.1335118 0.12934384 -0.06483231 -0.09010962 -0.13703291 0.051124725 -0.081869364
-0.30147833 -0.16781797 0.06291896 -0.11038415 -0.0017407283 -0.06961081 -0.08838071 0.02782504
-0.07675457 0.066624224 -0.015464163 -0.01631552 0.027046537 0.049612563 0.07569436 0.14116496
-0.07791535 -0.04353803 -0.11747203 -0.116882816 -0.06437774 -0.14540946 -0.113602854 0.081753716
0.06699617 -0.3093019 0.005648119 0.26799536 -0.293374 0.07464876 0.090255775 0.11751693
0.03536784 -0.0095704915 -0.0090393275 0.09269367 0.119471535 -0.02679369 0.022859108 0.05495057
0.03303724 -0.15354994 -0.27501154 0.039686307 0.062362626 -0.25461328 0.15721112 0.07248818
-0.17244375 -0.09624793 0.02563531 0.059410892 -0.058889132 0.004789017 0.031769693 -0.15615134
0.039922208 0.012682211 0.10618107 0.027095895 0.002983917 -0.020470971 0.017533049 0.022390153
0.12341946 0.054981276 -0.00822747 0.16499327 -0.05010409 -0.09804249 0.08679078 0.062957294
-0.2723027 0.16306296 0.06872684 -0.23924056 -0.047279686 -0.09401824 -0.078687936 -0.040507074
-0.1357101 -0.16212854 -0.097867705 -0.11908671 -0.083756804 0.18002969 -0.010703892 -0.021846512
0.1529684 -0.01242583 -0.18438442 0.06505139 -0.035334367 -0.13646361 -0.1192005 -0.047437906
0.09149421 -0.2814977 -0.18197437 -0.035994925 -0.1696989 -0.17603771 0.006530656 0.08843202
-0.10042352 -0.14013837 0.13867582 -0.13615519 -0.25465617 0.21504916 -0.03477687 -0.17728166
-0.05929438 -0.053660374 0.12029271 -0.061657153 -0.16524827 0.020815812 0.024111642 0.048448596
-0.02939782 0.009974264 0.023490176 0.16231862 0.021154856 0.019051088 -0.077247106 -0.10451063
-0.05497056 -0.092216715 -0.05646818 0.1500467 -0.048069946 -0.15071951 0.010417964 0.035604067
-0.046926122 -0.22535603 0.017685575 0.07839742 -0.15044954 -0.08872173 0.13820292 -0.03409683
-0.12307716 -0.020787043 0.14377739 0.029527677 -0.019828862 -0.031189773 0.104213536 0.05751876
-0.08063558 -0.023899764 0.011201339 0.06654582 -0.1551908 0.11489194 0.024078669 0.0049914042
0.014341535 -0.029408755 -0.0598999 -0.031422436 0.1069864 -0.2281742 0.25505432 -0.0068864324
-0.35782155 0.06181106 0.20913532 0.11207163 -0.050891615 -0.09212179 0.19808683 0.008468838
-0.14797051 -0.18304183 0.12028142 0.09760181 0.04410779 0.040967416 0.20022345 0.06234163
-0.043928597 -0.16573587 -0.017977227 0.043245316 0.05656364 -0.10290183 -0.019223131 -0.0721261
0.0384693 0.090114735 -0.017140983 -0.03090094 0.17606692 0.1974639 -0.16288243 -0.06535231
0.06292926 0.21251957 -0.124140084 -0.05000149 0.07516334 0.027751 -0.1962554 -0.019009465
0.033718035 0.13501836 -0.19220531 -0.075484484 0.21640997 0.010196108 -0.10200732 -0.13467301
0.27207306 0.17093277 -0.19810513 -0.16885191 0.11016009 0.06682553 -0.11085022 0.012102373
00000000: 64a8 673e 9f42 fdbd 486f 7cbe b69a 103e
00000010: 1e3c 063c 2a6c 67be 9b4f 333e 3613 bbbd
00000020: 71f5 9bbe ac49 b43d 1ef1 aebc 2754 2e3c
00000030: 6a2c 90bb 8ddc 653d 1d77 413d ebea 193d
00000040: e5dd 91bd 45b2 81bd 2b62 13be 1b41 48bd
00000050: 1ff6 253e 0aca 89bd 644a 56be 0d80 663e
00000060: 73d5 09be 51b7 08be b672 043e cdc6 84bd
00000070: 648b b8bd 5b52 0cbe 2968 513d 20ab a7bd
00000080: 5e5b 9abe 79d8 2bbe a8db 803d 1611 e2bd
00000090: 2629 e4ba 1d90 8ebd f200 b5bd 57f1 e33c
000000a0: 8031 9dbd 4872 883d 675d 7dbc 20a8 85bc
000000b0: b390 dd3c 8b36 4b3d a505 9b3d 8c8d 103e
000000c0: 1592 9fbd ef54 32bd 2d95 f0bd 4260 efbd
000000d0: 7ad8 83bd 38e6 14be 9da8 e8bd 7e6e a73d
000000e0: 4a35 893d d25c 9ebe db13 b93b b036 893e
000000f0: 1e35 96be 73e1 983d 05d8 b83d b7ac f03d
00000100: dedd 103d 8dcd 1cbc b019 14bc 2ed6 bd3d
00000110: 7ead f43d 717e dbbc 0643 bb3c d913 613d
00000120: 0f52 073d 323c 1dbe 50ce 8cbe 1c8e 223d
00000130: f46f 7f3d ac5c 82be f4fb 203e af74 943d
00000140: 1895 30be a21d c5bd 2401 d23c d658 733d
00000150: bb35 71bd 30ed 9c3b f020 023d 23e6 1fbe
00000160: 7885 233d 0cc9 4f3c 7675 d93d 36f8 dd3c
00000170: d28d 433b bdb2 a7bc 78a1 8f3c 8e6b b73c
00000180: 58c3 fc3d 0c34 613d 83cc 06bc fff3 283e
00000190: f239 4dbd 80ca c8bd 5dbf b13d c1ef 803d
000001a0: 426b 8bbe faf9 263e a8c0 8c3d 7afb 74be
000001b0: 58a8 41bd a38c c0bd 2427 a1bd bfea 25bd
000001c0: 97f7 0abe 0605 26be dd6e c8bd bce3 f3bd
000001d0: b088 abbd b459 383e 615f 2fbc 75f7 b2bc
000001e0: c0a3 1c3e b595 4bbc 45cf 3cbe aa39 853d
000001f0: c5ba 10bd 1ebd 0bbe 641f f4bd 404e 42bd
00000200: 5161 bb3d 7720 90be 7d57 3abe 6a6f 13bd
00000210: 8cc5 2dbe 3b43 34be 1dff d53b d91b b53d
00000220: d9aa cdbd 6f80 0fbe 0901 0e3e 446c 0bbe
00000230: 4b62 82be d935 5c3e 3172 0ebd 5389 35be
00000240: aade 72bd fbca 5bbd 065c f63d 368c 7cbd
00000250: d836 29be ec85 aa3c c785 c53c 0972 463d
00000260: b2d3 f0bc 186b 233c 786e c03c da36 263e
00000270: f34c ad3c 0711 9c3c bb33 9ebd ab09 d6bd
00000280: cf28 61bd 1edc bcbd 2e4b 67bd d8a5 193e
00000290: fee4 44bd 3756 1abe 1cb0 2a3c 92d5 113d
000002a0: 9b35 40bd bbc3 66be 57e1 903c d48e a03d
000002b0: 720f 1abe bdb3 b5bd 1185 0d3e 1ea9 0bbd
000002c0: e10f fcbd 9749 aabc 613a 133e 07e4 f13c
000002d0: 2370 a2bc b281 ffbc e86d d53d cb98 6b3d
000002e0: 4424 a5bd 70c9 c3bc d285 373c 2d49 883d
000002f0: 56ea 1ebe 774c eb3d a140 c53c ef8e a33b
00000300: c2f8 6a3c a1ea f0bc 9959 75bd d0b4 00bd
00000310: b01b db3d 7fa6 69be 7b96 823e 95a7 e1bb
00000320: 6334 b7be 982d 7d3d 9227 563e d085 e53d
00000330: ba73 50bd 59aa bcbd 46d7 4a3e e2c0 0a3c
00000340: 9585 17be 516f 3bbe 1b56 f63d 75e3 c73d
00000350: 5faa 343d 73cd 273d 6007 4d3e f059 7f3d
00000360: 79ee 33bd aab6 29be fa44 93bc 0022 313d
00000370: 46af 673d 32be d2bd d479 9dbc d9b6 93bd
00000380: fc91 1d3d 138e b83d 3f6b 8cbc f823 fdbc
00000390: e34a 343e fa33 4a3e a7ca 26be 6fd7 85bd
000003a0: 0ee1 803d bb9e 593e 283d febd 5dce 4cbd
000003b0: 3def 993d 1156 e33c 2df7 48be bdb9 9bbc
000003c0: ec1b 0a3d 4142 0a3e 78d1 44be 9c97 9abd
000003d0: 939a 5d3e 940d 273c 37e9 d0bd b9e7 09be
000003e0: 294d 8b3e 0009 2f3e 12dc 4abe 84e7 2cbe
000003f0: 9d9b e13d d3db 883d 7105 e3bd 0849 463c

conv_layer.3.bias f4 [16]
-0.014754034 -0.030423285 0.07591759 -0.021650534 -0.062478036 0.04406952 -0.06852024 -0.06391439
-0.024846278 0.024994966 -0.0006977831 0.024088355 0.00477392 -0.0574331 -0.052617576 0.03778203
00000000: e7ba 71bc 413a f9bc ae7a 9b3d 765c b1bc
00000010: f8e8 7fbd 3e82 343d 5754 8cbd 8ce5 82bd
00000020: 6c8a cbbc 3ec2 cc3c 6eeb 36ba f154 c53c
00000030: 8b6e 9c3b f83e 6bbd 8785 57bd 54c1 1a3d

conv_layer.4.weight f4 [16]
1.1883186 0.96781504 1.0440501 1.1340797 0.9775046 0.86541235 0.9590591 1.034216
0.8959562 1.1563535 1.0361066 0.89769924 0.85848075 1.2258523 0.91567355 1.0606127
00000000: d31a 983f bac2 773f 6fa3 853f 8629 913f
00000010: be3d 7a3f aa8b 5d3f e684 753f 3161 843f
00000020: 635d 653f 6403 943f 249f 843f 9ecf 653f
00000030: 65c5 5b3f bae8 9c3f 9569 6a3f 28c2 873f

conv_layer.4.bias f4 [16]
-0.28445557 -0.14273556 -0.17127009 -0.21616076 -0.3033519 -0.19151157 -0.29299894 -0.13607417
-0.057414513 -0.2648626 -0.19902918 -0.032117944 -0.049171902 -0.47502744 -0.3811334 -0.3630553
00000000: 29a4 91be 4529 12be 6d61 2fbe 3f59 5dbe
00000010: f150 9bbe 9c1b 44be f503 96be 0757 0bbe
00000020: 7b2b 6bbd 129c 87be 4ece 4bbe 1b8e 03bd
00000030: 7a68 49bd cc36 f3be eb23 c3be 62e2 b9be

conv_layer.4.running_mean f4 [16]
-1.8387173 -0.07932641 -0.8749526 -0.9491943 -0.30975494 -0.65824455 -0.31151205 -1.5457963
-1.2931093 -1.0196693 -0.64485943 -0.92937297 1.2263588 -0.9883468 0.7657144 -1.1403651
00000000: 175b ebbf e375 a2bd e5fc 5fbf 66fe 72bf
00000010: 3398 9ebe b782 28bf 827e 9fbe a7dc c5bf
00000020: 9b84 a5bf 8684 82bf 8215 25bf 63eb 6dbf
00000030: 53f9 9c3f 4c04 7dbf dc05 443f 7cf7 91bf

conv_layer.4.running_var f4 [16]
3.96313 2.3827994 5.324042 2.5616004 2.4059997 1.4378625 2.3398683 3.166635
0.98247874 2.3086932 3.5059373 2.5244007 1.9210573 3.651908 1.3235537 1.6049455
00000000: eca3 7d40 c97f 1840 8d5e aa40 43f1 2340
00000010: e6fb 1940 e10b b83f 67c0 1540 26aa 4a40
00000020: ba83 7b3f a1c1 1340 4761 6040 c88f 2140
00000030: 35e5 f53f dcb8 6940 356a a93f db6e cd3f

conv_layer.7.weight f4 [32, 16, 3, 3]
-0.06487252 -0.014222081 -0.10679545 0.009656508 0.022632532 0.11326089 0.20088562 0.13990518
0.25480896 -0.0773951 0.20286147 0.14057958 -0.15650128 -0.023276836 -0.012093376 -0.3169988
-0.2260538 -0.178483 -0.1337905 -0.13202314 -0.050502308 -0.073562734 -0.12236237 -0.034961727
0.013220752 0.039149057 0.09887311 0.2598986 0.04918451 0.012315634 0.15485655 -0.07284522
-0.08877396 -0.18847016 -0.06075408 -0.15202938 0.05244809 0.07129924 0.07020848 0.027424743
-0.09707466 -0.018244231 -0.13698266 -0.14225316 -0.019231493 0.075440824 0.09963426 -0.016450759
-0.10118642 -0.051452383 -0.09030622 -0.05482274 -0.037135113 0.038726006 0.016381426 -0.07132485
0.057359 -0.017946137 -0.059545964 0.0023510903 0.03414159 0.032558754 0.07805303 0.15702283
0.29320893 -0.050407566 -0.1182723 -0.14923523 -0.2294281 -0.058396135 -0.2713454 -0.28107807
0.21065648 0.18984382 0.10641411 -0.024996638 -0.14981097 -0.091736116 -0.30248508 -0.22927846
-0.04685671 -0.11883951 0.19238654 0.078342944 -0.26678616 -0.08307837 0.19482118 -0.041713282
0.05611082 0.14127356 -0.19183293 0.017842172 -0.06590165 -0.053511452 0.24503994 0.26476783
0.010819405 0.12370464 0.11405995 0.13776338 0.101904124 0.152662 0.17118858 -0.057182845
0.052631166 0.019652188 -0.0676608 -0.13068146 0.04237027 0.16059269 0.15398414 0.038496837
0.07821751 -0.1913069 -0.26744947 -0.28325742 -0.40737975 0.039276697 0.13822293 0.072071
-0.09925521 -0.03204677 -0.04577423 -0.13739187 -0.013997493 0.062700294 -0.15177321 -0.0756227
-0.01667362 -0.15411973 0.14542207 0.056194182 -0.13495511 0.017799204 0.04199662 -0.13273498
0.12023408 0.07678565 -0.09476535 0.032432977 0.06243477 -0.15862821 -0.011271353 -0.0444985
-0.27318645 -0.047802277 -0.06125769 -0.002185334 -0.08690074 0.02960878 -0.13473935 -0.008992454
-0.046376202 -0.038196415 0.06655824 -0.0029785966 0.1609634 0.18349235 0.10718394 0.046416778
0.19829708 -0.09358843 -0.06738159 -0.2266805 -0.22079886 0.00080112787 -0.18648796 -0.12474927
0.04082353 0.06510496 0.09250954 0.026247278 -0.12723066 0.06299767 0.069229536 0.20686866
0.074725695 0.008044267 0.031613767 0.020957654 -0.1781976 0.019624047 0.19307815 0.08483657
0.14631261 0.015879478 -0.030125981 -0.05244002 0.010702866 0.06731312 -0.16018866 -0.123729944
-0.087622754 -0.08910318 -0.10292583 -0.0048153223 0.030451437 -0.24604104 -0.13838972 -0.012246273
0.027390236 -0.09778795 -0.09240284 0.14721334 0.0633214 0.050107382 0.010980577 -0.019483607
0.06889732 0.13367885 -0.09132135 0.15231763 0.18209103 -0.1367735 0.04197434 -0.043059755
-0.0051387306 -0.019147942 -0.055105638 0.073414356 -0.18146777 -0.20690912 0.096201554 0.06486627
0.012482163 0.0119360145 -0.18187822 0.10359588 -0.31563315 -0.06316387 -0.050904386 -0.04565482
0.05582604 0.17901114 -0.1727201 -0.09022252 -0.043017074 0.14461842 -0.07115662 0.120066546
0.008491252 0.09002355 -0.11756568 -0.0022169412 -0.06691309 0.01796227 -0.08470991 -0.36837924
-0.23363404 0.04261685 -0.09286586 -0.14300288 -0.0007921745 0.14176962 0.0696312 -0.17429736
00000000: e2db 84bd bb03 69bc 93b7 dabd 5536 1e3c
00000010: dc67 b93c 53f5 e73d f6b4 4d3e 4e43 0f3e
00000020: 5276 823e 5281 9ebd ebba 4f3e 18f4 0f3e
00000030: df41 20be 10af bebc 4c23 46bc ab4d a2be
00000040: a67a 67be 3fc4 36be 6000 09be 1331 07be
00000050: 82db 4ebd 0fa8 96bd 1f99 fabd 0734 0fbd
00000060: da9b 583c c35a 203d fc7d ca3d 6e11 853e
00000070: b275 493d 83c7 493c b792 1e3e e02f 95bd
00000080: 1fcf b5bd 52fe 40be 45d9 78bd 97ad 1bbe
00000090: cfd3 563d 5605 923d 77c9 8f3d dba9 e03c
000000a0: 14cf c6bd ed74 95bc 2f45 0cbe d0aa 11be
000000b0: 5d8b 9dbc b880 9a3d 0c0d cc3d bec3 86bc
000000c0: d33a cfbd bcbf 52bd 78f2 b8bd cf8d 60bd
000000d0: fd1a 18bd 299f 1e3d 5732 863c c312 92bd
000000e0: 45f1 6a3d c703 93bc 78e6 73bd c014 1a3b
000000f0: 0dd8 0b3d 545c 053d 44da 9f3d 98ca 203e
00000100: 7b1f 963e 2a78 4ebd bf38 f2bd 1fd1 18be
00000110: 33ef 6abe c930 6fbd c9ed 8abe 77e9 8fbe
00000120: 55b6 573e 6b66 423e a4ef d93d c0c5 ccbc
00000130: 0c68 19be 25e0 bbbd 53df 9abe f9c7 6abe
00000140: d2ec 3fbd 2162 f3bd fa00 453e 4472 a03d
00000150: 3298 88be fe24 aabd 347f 473e 8cdb 2abd
00000160: 76d4 653d 04aa 103e da6f 44be bf29 923c
00000170: 72f7 86bd d32e 5bbd c0eb 7a3e a68f 873e
00000180: e043 313c dc58 fd3d 4398 e93d d811 0d3e
00000190: 1cb3 d03d 6d53 1c3e 0f4c 2f3e 8f38 6abd
000001a0: c793 573d a0fd a03c bf91 8abd 5cd1 05be
000001b0: 738c 2d3d 6972 243e 05ae 1d3e dcae 1d3d
000001c0: 8030 a03d f5e5 43be 23ef 88be 1e07 91be
000001d0: 1494 d0be 9ae0 203d 508a 0d3e f699 933d
000001e0: 5146 cbbd 7943 03bd c27d 3bbd 74b0 0cbe
000001f0: be55 65bc 0369 803d 706a 1bbe 13e0 9abd
00000200: 1e97 88bc 90d1 1dbe 86e9 143e df2b 663d
00000210: ac31 0abe a3cf 913c a604 2c3d aeeb 07be
00000220: 493d f63d cb41 9d3d 5614 c2bd 71d8 043d
00000230: 9abb 7f3d 6f6f 22be 7bab 38bc 0f44 36bd
00000240: 18df 8bbe 52cc 43bd 58e9 7abd d237 0fbb
00000250: 04f9 b1bd 1d8e f23c 1df9 09be 1655 13bc
00000260: f9f4 3dbd d873 1cbd b04f 883d 8f34 43bb
00000270: 97d3 243e 6be5 3b3e 4183 db3d 851f 3e3d
00000280: 640e 4b3e 4aab bfbd 5cff 89bd ef1e 68be
00000290: 1919 62be c802 523a b3f6 3ebe 8c7c ffbd
000002a0: 9336 273d c055 853d a475 bd3d 8804 d73c
000002b0: c148 02be ec04 813d 37c8 8d3d 61d5 533e
000002c0: c909 993d 1acc 033c 707d 013d 63af ab3c
000002d0: 6f79 36be 9cc2 a03c 47b6 453e ccbe ad3d
000002e0: f9d2 153e ae15 823c c3ca f6bc 59cb 56bd
000002f0: 135b 2f3c 76db 893d 7f08 24be 2066 fdbd
00000300: 8f73 b3bd ba7b b6bd c7ca d2bd dac9 9dbb
00000310: 4b75 f93c 2ff2 7bbe 09b6 0dbe 98a4 48bc
00000320: 7d61 e03c 0c45 c8bd b33d bdbd 18bf 163e
00000330: a6ae 813d 663d 4d3d e1e7 333c 169c 9fbc
00000340: 0a1a 8d3d 1ce3 083e b006 bbbd 27f9 1b3e
00000350: 1276 3a3e 5a0e 0cbe 49ed 2b3d 6d5f 30bd
00000360: cc62 a8bb 25dc 9cbc 73b6 61bd 445a 963d
00000370: b0d2 39be fcdf 53be 5205 c53d 9bd8 843d
00000380: fc81 4c3c 468f 433c 493e 3abe 142a d43d
00000390: ab9a a1be 0f5c 81bd 1e81 50bd 8c00 3bbd
000003a0: d9a9 643d b24e 373e 8add 30be 96c6 b8bd
000003b0: ac32 30bd da16 143e 90ba 91bd 73e5 f53d
000003c0: e41e 0b3c 445e b83d 46c6 f0bd 1a4a 11bb
000003d0: bb09 89bd 9c25 933c 647c adbd 349c bcbe
000003e0: c33d 6fbe 028f 2e3d 7530 bebd 596f 12be
000003f0: eea9 4fba 0e2c 113e cd9a 8e3d 027b 32be

conv_layer.7.bias f4 [32]
-0.04863625 -0.028135877 -0.050570976 -0.06816369 0.034629695 0.018137058 0.048682004 -0.038186442
-0.07962027 0.0326553 -0.020713052 0.0500127 0.08181645 0.04551109 0.060299635 -0.035503488
-0.019202959 -0.03273803 0.04790028 -0.025266618 -0.0058568083 0.056945704 -0.06713976 -0.03276714
-0.0599163 -0.055271726 0.039379984 0.007140463 0.021111041 -0.0235747 0.068427704 -0.07798317
00000000: ce36 47bd 367d e6bc 8323 4fbd 6899 8bbd
00000010: ded7 0d3d 2b94 943c c866 473d 6369 1cbd
00000020: f40f a3bd 90c1 053d 6bae a9bc 1eda 4c3d
00000030: 628f a73d d669 3a3d c0fc 763d 1b6c 11bd
00000040: 864f 9dbc 5018 06bd 1633 443d f0fb cebc
00000050: 78ea bfbb e63f 693d 9280 89bd d636 06bd
00000060: cb6a 75bd 9b64 62bd e84c 213d 8cfa e93b
00000070: 10f1 ac3c bb1f c1bc d323 8c3d a4b5 9fbd

conv_layer.8.weight f4 [32]
1.1978028 0.92009443 1.1325257 0.8717938 0.8958721 1.0049216 1.1351943 1.1497772
0.9335838 0.7958951 0.933642 1.030567 0.8925702 1.2036186 1.2646651 1.070388
1.0288423 0.89302474 1.0671738 0.93783337 0.9868851 1.0550675 1.0276537 0.8797631
0.9812099 0.8498677 0.9181526 1.0057917 0.9399391 1.1218517 1.0967588 0.8397893
00000000: 9a51 993f 4f8b 6b3f 9af6 903f e12d 5f3f
00000010: e057 653f 45a1 803f 0c4e 913f e62b 933f
00000020: 59ff 6e3f c8bf 4b3f 2a03 6f3f 9fe9 833f
00000030: 7b7f 643f 2d10 9a3f 8ce0 a13f 7902 893f
00000040: 1bb1 833f 459d 643f 2799 883f d915 703f
00000050: 80a4 7c3f 740c 873f 288a 833f 2838 613f
00000060: 9230 7b3f ee90 593f 0c0c 6b3f c8bd 803f
00000070: d99f 703f d698 8f3f 9862 8c3f 6efc 563f

conv_layer.8.bias f4 [32]
-0.2891486 -0.116810896 -0.0930689 -0.007734146 -0.20480575 -0.27139187 -0.3149077 -0.28540567
-0.19734025 -0.18365268 -0.37651113 -0.267875 -0.14324012 -0.14582446 -0.098001316 -0.2281041
-0.13642833 -0.10359403 -0.1791995 -0.13801801 -0.22152881 -0.0681994 -0.0401786 -0.31185558
-0.14646414 -0.17725368 -0.1417496 -0.14886323 -0.12381086 -0.07917916 -0.15828298 -0.082016625
00000000: 490b 94be 8d3a efbd e89a bebd b86e fdbb
00000010: 99b8 51be e0f3 8abe 953b a1be b120 92be
00000020: 9013 4abe 730f 3cbe 11c6 c0be e926 89be
00000030: 8aad 12be 0253 15be eab4 c8bd 1f94 69be
00000040: deb3 0bbe 1b29 d4bd 1380 37be 9854 0dbe
00000050: 73d8 62be 21ac 8bbd 5192 24bd 89ab 9fbe
00000060: b2fa 15be fd81 35be cf26 11be 9a6f 18be
00000070: 8c90 fdbd af28 a2bd ef14 22be 55f8 a7bd

conv_layer.8.running_mean f4 [32]
-1.0583055 -0.499859 -2.711432 -0.42664 -0.23259541 -0.21179388 -0.22245023 -1.7145656
0.3755326 0.69243854 0.67513055 -0.1986456 -0.3267543 -1.5411276 -1.6369269 -1.3151988
-0.81152576 0.13857299 -1.0218502 0.024437549 -0.003694037 -0.4186779 -1.0309168 0.7064737
0.46978468 0.96429175 -0.30476344 -1.3924012 -0.19373217 -2.3710406 -1.1711501 -0.4402058
00000000: 8e76 87bf 85ed ffbe 1a88 2dc0 8f70 dabe
00000010: 7e2d 6ebe 7fe0 58be fec9 63be e376 dbbf
00000020: cf45 c03e a743 313f 5bd5 2c3f c169 4bbe
00000030: 574c a7be ab43 c5bf d286 d1bf 6f58 a8bf
00000040: 27c0 4fbf 14e6 0d3e fdcb 82bf 4131 c83c
00000050: a817 72bb f35c d6be 15f5 83bf 76db 343f
00000060: 9e87 f03e d3db 763f f409 9cbe 343a b2bf
00000070: ba61 46be 21bf 17c0 3fe8 95bf a862 e1be

conv_layer.8.running_var f4 [32]
3.4478755 1.5069427 3.103558 2.6592813 1.6081136 1.9606262 2.4903278 2.758135
1.9863974 1.6741724 1.8832836 1.731465 2.0037131 3.3052762 3.0698953 1.7801054
2.2336128 1.1996773 2.2208505 1.6264615 1.9040099 2.2929385 2.5178246 1.0800685
1.9358851 1.9123508 1.9400065 1.6899586 1.9974895 3.0839517 2.08721 1.6558071
00000000: fea9 5c40 80e3 c03f b2a0 4640 aa31 2a40
00000010: abd6 cd3f cdf5 fa3f 8861 1f40 4985 3040
00000020: 4542 fe3f 484b d63f 700f f13f a5a0 dd3f
00000030: d63c 0040 a589 5340 2a79 4440 7eda e33f
00000040: 83f3 0e40 078f 993f 6a22 0e40 e42f d03f
00000050: 99b6 f33f 81bf 1240 0a24 2140 af3f 8a3f
00000060: 15cb f73f e9c7 f43f 2252 f83f 9050 d83f
00000070: bcad ff3f 775f 4540 d994 0540 7df1 d33f

conv_layer.10.weight f4 [32, 32, 3, 3]
-0.08214102 -0.04003852 -0.07141194 0.12590934 0.07113263 -0.015745461 -0.04793544 -0.05247142
-0.08206405 0.08043088 0.2700658 0.02350191 0.072545595 -0.016922634 -0.029650532 0.010954679
-0.02120934 -0.20729202 0.00523315 -0.036750056 0.07019971 -0.03516859 -0.07520607 -0.089908965
0.007893058 -0.16969572 0.0010792115 -0.13243657 -0.07755031 -0.15740627 -0.23116246 -0.07308651
-0.10073757 -0.15878437 -0.054260317 0.020421566 0.10593645 0.12543209 0.03542709 0.104487985
0.052802615 -0.11919205 0.074038535 -0.019761676 0.1556515 0.24213842 0.11557454 0.010883357
0.17133489 0.0925786 0.15406266 0.08236848 0.039695937 0.117335476 0.0131608145 -0.037840303
0.009077138 0.14932302 0.004069196 0.066783495 0.09118546 0.13919342 0.09285801 -0.05231101
-0.05763043 0.019123206 -0.006624875 -0.05684086 0.059683826 -0.09732184 -0.04201067 0.08416643
-0.025851857 -0.017971452 -0.033711627 0.08053904 0.115509994 0.009029472 -0.037300687 -0.10879241
-0.19319293 -0.09644485 -0.09620895 -0.13330828 -0.11704454 0.030996073 -0.13011792 -0.07459275
0.14229873 -0.035740137 0.10953593 0.13211195 0.030934863 0.11712658 0.24607107 0.051442783
0.11529632 0.18813597 -0.06433113 -0.04786135 0.0051356186 -0.076145194 -0.03662082 -0.09255503
-0.034695648 0.174128 0.08015987 -0.013111237 -0.033690225 0.03984161 -0.0487214 -0.0060582594
-0.004214209 0.011133014 -0.06916153 -0.1849072 -0.21746379 0.03274184 0.11082439 0.013812566
-0.10603604 -0.0014956186 -0.00895103 0.050037142 -0.11558284 -0.0101027945 0.15918303 0.011698094
0.0052479263 -0.076336965 -0.005826816 0.08943689 -0.17277661 0.02815178 0.07489218 0.0035515274
-0.08920607 -0.039307915 -0.13586183 -0.1930094 -0.15305568 -0.07288566 -0.049786974 -0.058719307
-0.16624072 -0.26192468 -0.26288876 -0.019715035 0.037745416 0.091632046 -0.021793826 0.057158176
0.017724805 -0.069273576 0.0975592 0.020312093 0.02072337 0.038630262 0.1329894 -0.06617061
-0.030749302 0.029755129 -0.14200063 -0.17788035 -0.110286444 -0.15775843 -0.16973332 -0.005211493
-0.17276359 -0.089347005 -0.040082052 -0.04809233 -0.04451837 -0.06054453 -0.067365795 -0.06923058
0.116208665 -0.072365716 -0.0532809 0.00038707332 -0.11902138 -0.09261687 -0.0743988 -0.07782569
-0.03518286 -0.059681285 -0.1338414 -0.06393789 -0.01875215 0.008320612 -0.19536161 -0.06670183
0.017335504 -0.1555569 -0.02167056 -0.031669274 -0.10216434 0.02032794 -0.054532554 -0.21105568
0.02550849 -0.10429012 -0.2802635 -0.055149462 -0.10348593 -0.082611635 0.08477514 -0.05848251
-0.24054985 -0.10222812 -0.20540135 -0.049401686 -0.015964067 -0.13442507 0.061002452 0.073326916
0.21550256 0.13592078 -0.18329532 0.108406544 0.12787409 -0.06834511 0.24359886 0.06526075
-0.005514309 0.014520672 0.052976027 -0.025330555 -0.011884448 -0.024755713 0.078426704 0.045674864
0.025346214 0.011754836 -0.21103589 -0.11729921 -0.09017784 -0.08616788 -0.14492638 -0.13490918
-0.052707724 -0.07877762 -0.10230758 0.07436068 -0.007686613 0.11638023 -0.037225213 -0.14313012
-0.045944083 -0.1082355 -0.19699177 -0.14482681 0.106850564 0.012999611 -0.016474213 0.060187843
00000000: 8d39 a8bd 6eff 23bd 6c40 92bd 61ee 003e
00000010: fcad 913d a0fc 80bc f457 44bd 46ec 56bd
00000020: 3211 a8bd f2b8 a43d 1146 8a3e 1487 c03c
00000030: c992 943d 56a1 8abc ace5 f2bc 417b 333c
00000040: 36bf adbc 5c44 54be d87a ab3b 3a87 16bd
00000050: dec4 8f3d f00c 10bd a405 9abd 3122 b8bd
00000060: e251 013c b7c4 2dbe 5474 8d3a 749d 07be
00000070: b2d2 9ebd 1c2f 21be dab5 6cbe 61ae 95bd
00000080: 804f cebd 5f98 22be 1140 5ebd 214b a73c
00000090: 36f5 d83d 4571 003e ff1b 113d ccfd d53d
000000a0: 8e47 583d f61a f4bd 84a1 973d 3de3 a1bc
000000b0: 1b63 1f3e 22f3 773e 58b2 ec3d 1c50 323c
000000c0: 6a72 2f3e d999 bd3d 9ac2 1d3e ceb0 a83d
000000d0: 3598 223d 954d f03d 75a0 573c 6ffe 1abd
000000e0: 47b8 143c 22e8 183e e456 853b c9c5 883d
000000f0: 71bf ba3d b888 0e3e 572c be3d 1244 56bd
00000100: e30d 6cbd 45a8 9c3c 7b15 d9bb f6d1 68bd
00000110: 0777 743d ac50 c7bd 6113 2cbd 735f ac3d
00000120: 46c7 d3bc de38 93bc 3415 0abd a7f1 a43d
00000130: 8190 ec3d 5af0 133c 9bc8 18bd 8ece debd
00000140: 5ed4 45be e184 c5bd 3309 c5bd f781 08be
00000150: 0cb5 efbd 7aeb fd3c a23d 05be 15c4 98bd
00000160: c2b6 113e 4064 12bd 6054 e03d 5b48 073e
00000170: 1c6b fd3c 0fe0 ef3d 0efa 7b3e abb5 523d
00000180: 7a20 ec3d b7a6 403e 0ac0 83bd 430a 44bd
00000190: b148 a83b 03f2 9bbd b7ff 15bd 7e8d bdbd
000001a0: 061d 0ebd 9c4e 323e dc2a a43d 84d0 56bc
000001b0: c3fe 09bd f530 233d 1790 47bd 5d84 c6bb
000001c0: 5917 8abb 3f67 363c 8fa4 8dbd 5058 3dbe
000001d0: d4ae 5ebe 4f1c 063d e6f7 e23d 1a4e 623c
000001e0: 6c29 d9bd a208 c4ba 57a7 12bc bff3 4c3d
000001f0: b2b6 ecbd 3186 25bc e000 233e 5da9 3f3c
00000200: ccf6 ab3b 8e56 9cbd e0ee bebb b02a b73d
00000210: 5aec 30be 909e e63c 1261 993d bec0 683b
00000220: acb1 b6bd 5601 21bd 5d1f 0bbe 42a4 45be
00000230: a1ba 1cbe 1445 95bd 6ded 4bbd a883 70bd
00000240: 023b 2abe fe1a 86be 5b99 86be 6d81 a1bc
00000250: f09a 1a3d 95a9 bb3d f788 b2bc b11e 6a3d
00000260: 9c33 913c 4edf 8dbd 1ecd c73d 8c65 a63c
00000270: 0fc4 a93c c43a 1e3d 602e 083e 7584 87bd
00000280: f6e5 fbbc 07c1 f33c 9d68 11be 4426 36be
00000290: dcdd e1bd 6d8b 21be 92ce 2dbe 2cc5 aabb
000002a0: f0e8 30be 90fb b6bd 142d 24bd 77fc 44bd
000002b0: e558 36bd 8bfd 77bd 14f7 89bd c3c8 8dbd
000002c0: cffe ed3d 7a34 94bd 133d 5abd 1af0 ca39
000002d0: 7bc1 f3bd eaad bdbd 665e 98bd 1363 9fbd
000002e0: e71b 10bd 5d74 74bd b80d 09be def1 82bd
000002f0: 1c9e 99bc 2d53 083c e00c 48be f89a 88bd
00000300: 3003 8e3c 4f4a 1fbe 7586 b1bc a4b7 01bd
00000310: 8a3b d1bd c886 a63c 875d 5fbd fb1e 58be
00000320: 2ef7 d03c 0f96 d5bd b37e 8fbe 67e4 61bd
00000330: 6ef0 d3bd 4a30 a9bd 979e ad3d 5b8b 6fbd
00000340: b352 76be fa5c d1bd bb54 52be 6c59 4abd
00000350: 13c7 82bc baa6 09be b5dd 793d 6c2c 963d
00000360: b4ac 5c3e d12e 0b3e c5b1 3bbe 4004 de3d
00000370: 6df1 023e 85f8 8bbd fb71 793e 6ea7 853d
00000380: 60b1 b4bb 1de8 6d3c 64fd 583d 0682 cfbc
00000390: fdb6 42bc 7ecc cabc 2e9e a03d 9115 3b3d
000003a0: dda2 cf3c 5b97 403c cb19 58be 913a f0bd
000003b0: 29af b8bd c978 b0bd 9567 14be a225 0abe
000003c0: 0ee4 57bd 2956 a1bd a386 d1bd 6a4a 983d
000003d0: fcdf fbbb c258 ee3d 7779 18bd b490 12be
000003e0: dd2f 3cbd 93aa ddbd 36b8 49be 7b4d 14be
000003f0: 78d4 da3d 52fc 543c eef4 86bc 8787 763d

conv_layer.10.bias f4 [32]
0.054628793 -0.0052503147 -0.04964259 0.038777728 0.028658986 -0.020805195 -0.043713287 0.04965859
0.04046597 0.007121122 0.030784858 -0.053885717 0.0137186665 0.017648157 -0.05174556 -0.016466444
-0.046605155 0.0022771265 0.044897392 0.018071607 -0.058519896 -0.042487886 -0.025376694 -0.028674573
0.05768019 -0.04011877 -0.045174483 -0.0019470477 0.039072048 0.0075132377 -0.026679447 0.043358035
00000000: 71c2 5f3d d50a acbb 0756 4bbd 65d5 1e3d
00000010: 40c6 ea3c a86f aabc b40c 33bd ce66 4b3d
00000020: a5bf 253d 4d58 e93b 8730 fc3c 45b7 5cbd
00000030: 42c4 603c de92 903c 27f3 53bd a3e4 86bc
00000040: 0ce5 3ebd d83b 153b 54e6 373d e80a 943c
00000050: 8fb2 6fbd c707 2ebd c9e2 cfbc f0e6 eabc
00000060: 1042 6c3d 9453 24bd e108 39bd 1434 ffba
00000070: 030a 203d 9b31 f63b db8e dabc 3298 313d

conv_layer.11.weight f4 [32]
1.5293617 1.3673953 1.3348985 1.0942494 1.3104645 1.2004592 1.2076895 1.1482753
1.26245 1.2012373 1.2566394 1.2461911 1.3078601 1.1851716 1.0631355 1.1741403
1.2263881 1.1824467 1.3127983 1.3030535 1.1956089 1.3173314 1.3882812 1.1986448
1.3016545 1.0866723 1.4438794 1.199122 1.362034 1.2365184 1.2847178 1.1187166
00000000: 20c2 c33f cf06 af3f f4dd aa3f 5d10 8c3f
00000010: 4dbd a73f a6a8 993f 9295 9a3f affa 923f
00000020: f697 a13f 25c2 993f 8fd9 a03f 3183 9f3f
00000030: f667 a73f b4b3 973f d314 883f 3b4a 963f
00000040: 49fa 9c3f 6a5a 973f c609 a83f 75ca a63f
00000050: b609 993f 519e a83f 33b3 b13f 316d 993f
00000060: 9d9c a63f 1418 8b3f 0ad1 b83f d47c 993f
00000070: 2157 ae3f 3c46 9e3f a271 a43f 1b32 8f3f

conv_layer.11.bias f4 [32]
-0.82114136 -0.65838253 -0.9629246 -0.64747274 -0.82916206 -0.6672075 -0.6387883 -0.616762
-0.73815125 -0.73261493 -0.6104197 -0.6035535 -0.7458291 -0.55365795 -0.5077072 -0.6011244
-0.928324 -0.5306064 -0.61302966 -0.543507 -0.58848035 -0.68304455 -0.73223525 -0.7172736
-0.84195566 -0.5097312 -0.9927173 -0.65903836 -0.59547144 -0.61203915 -0.65279895 -0.4635307
00000000: 5236 52bf c28b 28bf 3a82 76bf c6c0 25bf
00000010: f743 54bf 1cce 2abf a187 23bf 1de4 1dbf
00000020: 7bf7 3cbf a78c 3bbf 7744 1cbf 7b82 1abf
00000030: a8ee 3ebf 87bc 0dbf 19f9 01bf 4ae3 19bf
00000040: a4a6 6dbf d2d5 07bf 83ef 1cbf 4623 0bbf
00000050: a6a6 16bf 02dc 2ebf c573 3bbf 3e9f 37bf
00000060: 688a 57bf be7d 02bf b922 7ebf bdb6 28bf
00000070: d170 18bf 99ae 1cbf d51d 27bf e553 edbe

conv_layer.11.running_mean f4 [32]
-1.8444724 -1.2900059 -1.7282537 -0.030423336 0.1031896 -1.2747046 -0.93561625 -0.20997219
-1.5032123 -0.80371845 -1.1656828 -0.1592303 -0.5411419 -1.1982177 -0.6742185 -1.0290344
-0.7052135 -0.7241886 -1.7721841 -1.573401 -1.5001894 -2.217279 -1.5600166 -1.0350426
-0.65611166 0.08309451 -0.8727342 -1.5938904 -1.2402163 -1.9266998 -0.3736279 0.562939
00000000: ac17 ecbf ea1e a5bf 6b37 ddbf 5c3a f9bc
00000010: 1255 d33d 8529 a3bf 8c84 6fbf f302 57be
00000020: 4369 c0bf 7ec0 4dbf 1835 95bf 450d 23be
00000030: 4788 0abf 335f 99bf 9599 2cbf 66b7 83bf
00000040: df88 34bf 6d64 39bf eed6 e2bf 3465 c9bf
00000050: 3506 c0bf e6e7 0dc0 a0ae c7bf 477c 84bf
00000060: eff6 27bf 742d aa3d 826b 5fbf 9a04 ccbf
00000070: 68bf 9ebf 199e f6bf 284c bfbe c51c 103f

conv_layer.11.running_var f4 [32]
1.5173689 1.1219144 1.307709 0.8528996 1.149245 0.94064826 1.2384273 0.9518275
0.98116094 0.92281145 1.3557435 1.2346252 1.151193 0.8366931 0.77120095 1.1133196
1.1584524 0.75054896 1.4950736 1.3473351 0.8179859 1.3075557 1.6832412 0.79211754
1.3979841 0.87216306 1.7080014 0.8237952 1.0059365 0.90038353 1.1942182 0.906634
00000000: 2539 c23f e49a 8f3f 0263 a73f a157 5a3f
00000010: 761a 933f 53ce 703f c984 9e3f f8aa 733f
00000020: 5d2d 7b3f 5f3d 6c3f 0189 ad3f 3308 9e3f
00000030: 4b5a 933f 8531 563f 6d6d 453f 4281 8e3f
00000040: 2b48 943f fa23 403f 925e bf3f 7a75 ac3f
00000050: 8667 513f fc5d a73f 7374 d73f 37c8 4a3f
00000060: 25f1 b23f 1446 5f3f ca9f da3f 3ee4 523f
00000070: 87c2 803f 897f 663f 24dc 983f 2a19 683f

fc_layer.0.weight f4 [10, 2048]
-0.008617591 -0.07678807 -0.124013 -0.08460893 -0.0729872 -0.07019297 -0.044885974 0.0007116568
0.10979922 0.09080847 0.05317236 0.02100033 0.010171875 -0.058915865 0.00835225 -0.0026315204
-0.03533361 -0.06022428 0.008331796 0.03198595 0.060009144 0.13900389 0.048486702 -0.06701455
-0.008414128 -0.1258991 -0.0138571225 -0.059120543 0.047252126 0.14560209 -0.043374535 -0.14702924
-0.029637765 0.08533607 -0.04047504 0.04890356 -0.04312877 0.062671036 0.0121035045 -0.14461339
-0.046082854 0.079097174 0.12732247 0.09283683 -0.010531848 0.06311312 0.10570534 -0.07130422
-0.05705281 0.032455117 0.13539952 -0.11472768 -0.041054115 0.0633599 -0.025656678 -0.07399787
0.1488475 -0.062526844 0.031397007 -0.043616958 -0.007383601 -0.05102053 -0.0037844959 -0.0063448786
0.013855687 -0.09054321 -0.07765766 -0.00041288912 0.0169738 -0.08351089 -0.11440635 -0.06427908
0.030302946 0.022455491 0.010989297 -0.044643212 -0.048745435 -0.027352124 -0.049333856 -0.026747262
0.0206065 -0.09259415 -0.11345111 -0.087383516 0.019375093 -0.032989822 -0.030187909 0.0139586665
-0.0032972158 0.0049715713 -0.10479734 -0.13377962 -0.28019893 -0.1958326 -0.0835871 0.018301504
-0.021600945 -0.024307191 -0.129236 -0.21967927 -0.21810867 -0.058052715 0.064490296 0.06792336
-0.05524927 -0.0884378 -0.058562536 -0.12796688 -0.13272093 -0.0076346025 0.07580352 0.08331882
0.011915967 0.020754497 -0.13406278 -0.013658964 -0.11416272 0.04046095 -0.02690575 -0.011414279
0.14622433 0.079963505 -0.06339479 -0.0087751215 -0.01648491 0.06132356 -0.03750609 0.030390505
0.037570227 -0.06027994 0.006445622 -0.028814152 -0.052262317 -0.11374547 -0.083135016 -0.011818714
-0.027474567 -0.08677646 -0.10304724 -0.04415876 0.040385786 -0.11709744 -0.042719115 -0.0015957447
0.004745721 -0.027809031 0.031773295 0.0394306 -0.08513478 -0.0066435933 -0.12150279 -0.029805632
0.018188877 0.15690772 -0.15640467 -0.19423759 -0.02488914 -0.17476109 0.022166975 0.01804587
-0.013511722 -0.049436785 -0.09574254 -0.17244251 -0.14050727 -0.1732618 -0.004405561 -0.017069202
0.04314873 -0.2336365 -0.13435422 -0.19634183 -0.27747318 -0.19266658 -0.16736273 -0.058655024
-0.033513978 -0.012137615 -0.015663335 -0.120833755 -0.062846676 -0.030405965 0.10302902 -0.010984847
-0.040815994 -0.048613843 -0.036464322 -0.019458812 0.06570113 0.040092003 -0.021067768 -0.06991049
-0.100944996 -0.12849917 -0.08702572 -0.034292005 0.0045943423 0.008057558 -0.10384989 -0.11757919
-0.060894623 -0.041276187 -0.03388721 0.0030373326 -0.0029726208 0.13908996 0.07869089 0.028324716
-0.011903308 0.08550227 0.020103687 -0.044294544 -0.060165253 0.17051035 0.024979519 -0.02144243
0.040649988 0.010344437 -0.018375756 0.13950396 0.16037774 0.18243086 -0.13436534 -0.030713793
0.05970827 0.013251614 -0.0014713363 -0.05000338 0.012202937 0.009197159 -0.059436813 -0.054906797
0.09143424 -0.06510016 0.10235592 0.06592509 -0.015551351 0.084609784 0.048891313 0.06580531
-0.024138758 -0.0045829304 0.05150375 0.09912212 -0.011695273 0.14755353 0.011741423 -0.06666092
0.023389015 -0.06409811 0.02204053 -0.0072225304 -0.055939 -0.11550079 -0.06943817 -0.060738508
00000000: cc30 0dbc 1043 9dbd 87fa fdbd 7247 adbd
00000010: 507a 95bd 55c1 8fbd 5bda 37bd 7b8e 3a3a
00000020: 6ade e03d cbf9 b93d 43cb 593d e208 ac3c
00000030: f0a7 263c c351 71bd e0d7 083c 9675 2cbb
00000040: fab9 10bd bcad 76bd 1682 083c b303 033d
00000050: 26cc 753d 0957 0e3e fe99 463d ed3e 89bd
00000060: 69db 09bc b2eb 00be fc08 63bc 6228 72bd
00000070: 728b 413d b718 153e 7fa9 31bd d58e 16be
00000080: e6ca f2bc adc4 ae3d 28c9 25bd 194f 483d
00000090: cba7 30bd ac59 803d c74d 463c 8815 14be
000000a0: 60c1 3cbd b3fd a13d d260 023e 3c21 be3d
000000b0: c68d 2cbc 7441 813d 0b7c d83d f207 92bd
000000c0: 35b0 69bd a8ef 043d 2ca6 0a3e 59f6 eabd
000000d0: 5c28 28bd d6c2 813d f42d d2bc 328c 97bd
000000e0: 7b6b 183e 130e 80bd 269a 003d b2a7 32bd
000000f0: 22f2 f1bb e7fa 50bd 4e05 78bb b3e8 cfbb
00000100: f702 633c b86e b9bd fb0a 9fbd 0a79 d8b9
00000110: a30c 8b3c c207 abbd e04d eabd c0a4 83bd
00000120: e23d f83c 94f4 b73c 740c 343c cddb 36bd
00000130: 4ba9 47bd 9011 e0bc 4c12 4abd 131d dbbc
00000140: f6ce a83c 00a2 bdbd 0e59 e8bd 21f6 b2bd
00000150: 84b8 9e3c 5620 07bd a24c f7bc e4b2 643c
00000160: 1a16 58bb 90e8 a23b fd9f d6bd 86fd 08be
00000170: 3c76 8fbe 5788 48be b72f abbd 09ed 953c
00000180: 77f4 b0bc e01f c7bc 7156 04be 9af3 60be
00000190: e157 5fbe afc8 6dbd 7d13 843d 671b 8b3d
000001a0: 0f4d 62bd e11e b5bd 45df 6fbd c009 03be
000001b0: ffe7 07be b02b fabb e03e 9b3d 0fa3 aa3d
000001c0: 303b 433c 5605 aa3c c147 09be d9c9 5fbc
000001d0: 25ce e9bd 62ba 253d 7369 dcbc f502 3bbc
000001e0: d5bb 153e e8c3 a33d 21d5 81bd 87c5 0fbc
000001f0: 5d0b 87bc 6a2e 7b3d fc9f 19bd 82f5 f83c
00000200: 3de3 193d 19e8 76bd cc35 d33b a80b ecbc
00000210: 0311 56bd 63f3 e8bd b142 aabd 48a3 41bc
00000220: 5812 e1bc dbb7 b1bd 6e0a d3bd d1df 34bd
00000230: 916b 253d c8d0 efbd 3dfa 2ebd 4f28 d1ba
00000240: fe81 9b3b c4cf e3bc b724 023d fb81 213d
00000250: 255b aebd 80b2 d9bb 74d6 f8bd f12a f4bc
00000260: d700 953c 6bac 203e 8c28 20be 38e6 46be
00000270: 4fe4 cbbc 92f4 32be 8497 b53c efd4 933c
00000280: 4560 5dbc 3a7e 4abd aa14 c4bd c594 30be
00000290: 23e1 0fbe 8b6b 31be 865c 90bb b6d4 8bbc
000002a0: b9bc 303d 683e 6fbe 2794 09be d50d 49be
000002b0: f710 8ebe 634a 45be 2361 2bbe 4040 70bd
000002c0: f445 09bd d9dc 46bc 6550 80bc b077 f7bd
000002d0: c2b5 80bd ee15 f9bc e100 d33d caf9 33bc
000002e0: ac2e 27bd 4f1f 47bd 9d5b 15bd 1668 9fbc
000002f0: 508e 863d 8337 243d 5096 acbc 3b2d 8fbd
00000300: 40bc cebd 4995 03be 8a3a b2bd c675 0cbd
00000310: 238c 963b d903 043c 40af d4bd 5ccd f0bd
00000320: a46c 79bd 3811 29bd 51cd 0abd fc0d 473b
00000330: 4dd0 42bb 996d 0e3e b028 a13d 3c09 e83c
00000340: 1806 43bc d01b af3d 7db0 a43c 326e 35bd
00000350: d76f 76bd 449a 2e3e d9a1 cc3c 09a8 afbc
00000360: 9a80 263d b77b 293c c188 96bc 20da 0e3e
00000370: 103a 243e 28cf 3a3e 1197 09be 7e9b fbbc
00000380: a990 743d 4c1d 593c dbd9 c0ba 58d0 4cbd
00000390: d4ee 473c aeaf 163c 0474 73bd f3e5 60bd
000003a0: e041 bb3d 3c53 85bd fb9f d13d bc03 873d
000003b0: 18cb 7ebc e547 ad3d 4242 483d efc4 863d
000003c0: a5be c5bc 682c 96bb 99f5 523d 8a00 cb3d
000003d0: 889d 3fbc 4618 173e 195f 403c 8585 88bd
000003e0: 529a bf3c df45 83bd 578e b43c faaa ecbb
000003f0: 4b20 65bd ae8b ecbd 9935 8ebd f1c8 78bd

fc_layer.0.bias f4 [10]
0.05155861 -0.11059042 -0.032258634 -0.0071024043 0.059521947 0.012435091 0.059534244 -0.030914655
0.0073624444 -0.055852074
00000000: 1f2f 533d 3b7d e2bd a121 04bd 49bb e8bb
00000010: 49cd 733d 8dbc 4b3c 2eda 733d bb40 fdbc
00000020: a940 f13b 25c5 64bd
