Knowledge Distillation/TAKD/saved/10-8-2.pth (torch, 57426 bytes, 14 tensors)

conv_layer.0.weight f4 [16, 3, 3, 3]
-0.096171424 -0.5370843 0.4557703 -0.7101143 -0.38156113 0.6399685 -0.19773066 -0.4889386
0.21899278 -0.16136572 -0.023828669 0.58263105 -0.15189111 -0.17863524 0.56622404 0.052646086
0.10686912 0.56280327 -0.2336596 -0.4723984 0.33513445 -0.5910297 -0.1914703 0.5069856
-0.42622617 -0.35076347 0.27080825 0.5687271 -0.64186764 0.2665664 0.86779743 -1.4064248
0.44646698 0.6035186 -0.906919 0.22780415 0.51809186 -1.5718725 0.4916888 1.3592046
-2.023163 1.2542454 0.41116562 -1.4740347 1.008045 0.2842501 -0.98031336 0.63288
0.70099044 -1.3590401 0.79222405 0.40418407 -0.9886192 0.62978697 0.037148386 0.50255555
0.027467446 -0.7377803 -0.8330391 -0.6312315 -0.19440196 0.7458696 0.32898086 0.83838373
1.3209308 0.92332697 -0.15171151 -0.60748005 -0.30379283 -0.015222494 0.121929586 -0.2493989
0.14529051 0.43766326 -0.028166601 -0.39703038 -0.8361074 -0.7328075 0.31573316 0.22301523
-0.26663518 -0.39308697 -0.722788 -0.26906183 0.016799139 -0.5048429 -0.77625865 1.0318686
0.7734678 0.8591645 -0.49200243 -0.40010536 0.038006876 0.1579939 -0.4324051 -0.56634456
0.5647767 0.32126582 0.53324735 0.36963448 0.18072173 0.40559795 -0.09666342 -0.47211385
-0.5122562 0.16225334 0.25720257 0.008486639 0.01573673 0.07631834 0.16922285 -0.0004103908
-0.19372556 0.051492423 -0.008195821 -0.014191202 -0.33426532 -0.16828361 -0.16094747 0.24976493
-0.121328816 -0.5176696 0.2547233 -0.22087727 -0.25391513 -0.42425784 -0.052524675 0.09477612
-0.25040805 -0.06315148 -0.20054036 -0.3486646 0.41673356 0.4178459 -0.24237616 0.06489616
-0.391661 0.29510757 -0.36909953 0.5372525 0.20524743 0.7300301 0.07931153 -0.6887809
-0.13519508 -0.22734666 0.5808426 -0.67736226 0.6515369 0.4219659 0.10920433 0.12253753
-0.5933416 -0.2980417 -0.57261825 0.060917843 -0.74964553 0.8140928 0.050044097 0.8070466
0.607115 -0.77589506 -0.4843004 -0.29198888 -0.2148894 -0.60959935 -0.48794922 -0.28249454
-0.9263329 -0.2838106 0.25548166 0.28470394 0.16675073 -0.40989617 0.67624885 0.54697245
-0.02305337 -0.24526967 0.090007804 -0.41170952 0.14435399 0.3881083 -0.64119786 0.9669412
1.1112088 0.37460217 0.06152775 0.82420987 -0.49100816 0.679336 -1.0607475 0.051614113
-0.8639645 0.16704826 0.65910566 0.2769667 0.9043337 -0.37936574 0.5006701 -1.2164648
0.34576863 -1.1820756 0.3133988 0.5928909 -0.33604783 0.7353773 -0.26384726 0.68216586
-0.85442 -0.048252042 -1.0275456 0.037433453 0.5555912 -0.18506697 0.9375673 -0.1672818
0.29309654 0.049491964 0.33953735 0.12713782 0.0033980268 0.56295854 0.12148906 -0.14968461
0.46206683 -0.12880558 -0.6729887 0.047315273 -0.018669568 -0.28797853 0.26322377 -0.07107428
-0.2838322 0.27496353 -0.19778289 -0.40357652 0.36666226 -0.23277812 0.0436073 0.8292363
-0.35171032 -0.075146176 0.29568636 0.48951954 -0.11367623 -0.08378691 0.999664 -0.4586836
-0.41887206 0.6808361 -0.05858593 -0.50635004 0.33983248 -0.55784225 -0.20661636 0.9179168
00000000: 86f5 c4bd 5b7e 09bf ba5a e93e 0dca 35bf
00000010: fb5b c3be fad4 233f e879 4abe 2956 fabe
00000020: a53f 603e 0e3d 25be 5734 c3bc 4f27 153f
00000030: 5889 1bbe 28ec 36be 0ff4 103f 6ca3 573d
00000040: 32de da3d e013 103f 7644 6fbe 34de f1be
00000050: be96 ab3e b94d 17bf ca10 44be cfc9 013f
00000060: 513a dabe 4597 b3be 61a7 8a3e 1998 113f
00000070: 7051 24bf 647b 883e f927 5e3f ba05 b4bf
00000080: 5297 e43e 3280 1a3f d82b 68bf 7e45 693e
00000090: aba1 043f 1e33 c9bf a2be fb3e 6bfa ad3f
000000a0: 817b 01c0 1d8b a03f 4d84 d23e 2bad bcbf
000000b0: 9e07 813f 3b89 913e d1f5 7abf 6c04 223f
000000c0: 1c74 333f 07f5 adbf 32cf 4a3f 37f1 ce3e
000000d0: 2616 7dbf b839 213f e828 183d 7ba7 003f
000000e0: 6903 e13c 2bdf 3cbf 0d42 55bf 6398 21bf
000000f0: 4f11 47be 4ff1 3e3f 2e70 a83e 51a0 563f
00000100: 4314 a93f 285f 6c3f 435a 1bbe d083 1bbf
00000110: bc8a 9bbe c467 79bc 38b6 f93d 6d62 7fbe
00000120: 09c7 143e 6615 e03e a5bd e6bc 9147 cbbe
00000130: 220b 56bf 4699 3bbf c7a7 a13e 1b5e 643e
00000140: 6884 88be b242 c9be a208 39bf 79c2 89be
00000150: 599e 893c 623d 01bf e3b8 46bf 4514 843f
00000160: fc01 463f 34f2 5b3f bee7 fbbe 9cda ccbe
00000170: 19ad 1b3d 27c9 213e 3464 ddbe f5fb 10bf
00000180: 3595 103f f47c a43e e682 083f bb40 bd3e
00000190: 1e0f 393e 89aa cf3e 79f7 c5bd e8b8 f1be
000001a0: 3923 03bf bd25 263e 0eb0 833e 8b0b 0b3c
000001b0: 51ea 803c ca4c 9c3d c148 2d3e b929 d7b9
000001c0: fe5f 46be b8e9 523d c447 06bc 3782 68bc
000001d0: d324 abbe 8a52 2cbe 6acf 24be 61c2 7f3e
000001e0: 3e7b f8bd ff85 04bf 186b 823e a72d 62be
000001f0: 2a01 82be 5338 d9be 1d24 57bd fb19 c23d
00000200: 7c35 80be 9055 81bd 745a 4dbe 2b84 b2be
00000210: 1a5e d53e e6ef d53e 7531 78be 47e8 843d
00000220: ca87 c8be 5718 973e 9dfa bcbe 6189 093f
00000230: 622c 523e 41e3 3a3f 156e a23d f253 30bf
00000240: 9470 0abe 90cd 68be 1ab2 143f 9d67 2dbf
00000250: 1fcb 263f ea0b d83e 85a6 df3d f5f4 fa3d
00000260: 3ce5 17bf ec98 98be 1c97 12bf fd84 793d
00000270: c5e8 3fbf 6368 503f 0afb 4c3d 9b9a 4e3f
00000280: e36b 1b3f 0fa1 46bf 39f6 f7be 917f 95be
00000290: f80b 5cbe b40e 1cbf 7bd4 f9be 20a3 90be
000002a0: 2724 6dbf 9f4f 91be 7ece 823e b7c4 913e
000002b0: b4c0 2a3e e9dd d1be a51e 2d3f 6306 0c3f
000002c0: 6cda bcbc f927 7bbe 0356 b83d 97cb d2be
000002d0: 88d1 133e 22b6 c63e 8b25 24bf 7589 773f
000002e0: 173c 8e3f dbcb bf3e 8604 7c3d 6bff 523f
000002f0: 6c65 fbbe f7e8 2d3f 93c6 87bf 5269 533d
00000300: c72c 5dbf b30e 2b3e 26bb 283f 94ce 8d3e
00000310: 6a82 673f 3a3c c2be ea2b 003f 1eb5 9bbf
00000320: 9608 b13e 414e 97bf cf75 a03e b3c7 173f
00000330: 760e acbe b041 3c3f fd16 87be 6ca2 2e3f
00000340: 45bb 5abf efa3 45bd 9d86 83bf d253 193d
00000350: 3a3b 0e3f 3282 3dbe 6904 703f ec4b 2bbe
00000360: c010 963e 16b8 4a3d d7d7 ad3e 6b30 023e
00000370: 6eb1 5e3b 0d1e 103f 42cf f83d ec46 19be
00000380: 0694 ec3e 9ce5 03be fd48 2cbf a9cd 413d
00000390: ecf0 98bc ec71 93be 44c5 863e 648f 91bd
000003a0: 7452 91be 05c8 8c3e 9987 4abe 95a1 cebe
000003b0: 28bb bb3e 635d 6ebe 919d 323d d548 543f
000003c0: 6013 b4be 3de6 99bd 3464 973e 4ea2 fa3e
000003d0: 15cf e8bd 7998 abbd fbe9 7f3f 94d8 eabe
000003e0: 6676 d6be 464b 2e3f cdf7 6fbd 28a0 01bf
000003f0: 86fe ad3e c0ce 0ebf 3d93 53be 98fc 6a3f

conv_layer.0.bias f4 [16]
0.082457416 -0.14819106 0.024932954 -0.022577606 -0.08443618 -0.030394234 -0.020038268 0.03342686
-0.016632782 -0.18106826 -0.095667034 -0.16781898 -0.11723835 -0.059067402 -0.07563984 0.17752679
00000000: 6fdf a83d 66bf 17be 3240 cc3c acf4 b8bc
00000010: e0ec acbd 54fd f8bc 4b27 a4bc 9aea 083d
00000020: 7941 88bc f569 39be 14ed c3bd bdd8 2bbe
00000030: a91a f0bd a9f0 71bd 0fe9 9abd 95c9 353e

conv_layer.1.weight f4 [16]
1.5212594 1.8658007 1.408619 1.346784 1.1461855 0.8812372 0.9393121 1.0237278
1.3650191 1.4679173 1.3482693 0.69881 1.2065336 0.98757964 1.372619 0.95782393
00000000: a1b8 c23f 8fd2 ee3f a14d b43f 6b63 ac3f
00000010: 35b6 923f c398 613f c276 703f 8309 833f
00000020: f2b8 ae3f b7e4 bb3f 1794 ac3f 36e5 323f
00000030: b16f 9a3f 05d2 7c3f fbb1 af3f f333 753f

conv_layer.1.bias f4 [16]
-0.72319126 -0.423724 -0.29254913 -0.27203676 -0.3963386 -0.24673437 0.21017751 -0.11658303
-0.7196798 -0.21284321 -0.95710933 0.41715816 -0.20834187 -0.26679435 -0.64083505 -0.13369086
00000000: 1023 39bf 5af2 d8be 00c9 95be 6748 8bbe
00000010: e5ec cabe efa7 7cbe c638 573e 15c3 eebd
00000020: ef3c 38bf 92f3 59be 1e05 75bf c195 d53e
00000030: 9257 55be 4599 88be c40d 24bf 42e6 08be

conv_layer.1.running_mean f4 [16]
-0.76166105 -0.3716638 -0.12868133 -0.13460495 -1.7446445 0.6905353 -0.065124035 -0.23034257
1.0753059 -0.2613667 0.645631 0.17421529 0.5131556 -0.46380025 -0.44709173 0.22549531
00000000: 38fc 42bf b84a bebe 0ac5 03be e1d5 09be
00000010: 8350 dfbf ecc6 303f c05f 85bd ecde 6bbe
00000020: a0a3 893f dbd1 85be 1348 253f 7e65 323e
00000030: 2a5e 033f 3a77 edbe 35e9 e4be 3ee8 663e

conv_layer.1.running_var f4 [16]
1.7441088 3.500654 1.4013821 1.6561894 0.69698393 0.4218356 1.3922747 0.8062449
0.9719802 3.5653324 0.8599808 0.33414036 1.1312456 0.5242169 1.0434468 0.5620502
00000000: f53e df3f b70a 6040 7d60 b33f 04fe d33f
00000010: 8a6d 323f d6fa d73e 0f36 b23f 1166 4e3f
00000020: b2d3 783f 682e 6440 b427 5c3f 7214 ab3e
00000030: a8cc 903f 1433 063f aa8f 853f 86e2 0f3f

conv_layer.4.weight f4 [16, 16, 3, 3]
-0.24146949 -0.44882074 -0.5211027 -0.37830707 -0.5122706 -0.28046542 -0.20989567 -0.22384417
-0.36891332 0.27841523 0.34920895 0.6440162 0.23259763 0.11612541 0.4611174 -0.14209162
-0.24582878 0.3743256 -0.2579302 0.13411957 -0.042523924 0.11873556 -0.11045428 0.11591826
0.26882887 0.93102884 0.41283262 0.035820212 -0.14476599 0.1664642 0.077043556 0.09198837
0.16078214 0.15072452 0.36675864 0.06795706 -0.100139 -0.2627784 -0.36195382 0.2744799
0.2242581 -0.19709842 0.18744192 0.30011654 0.147726 0.011769737 -0.017216932 0.16499825
0.021418339 0.26179913 -0.13326237 -0.012851052 0.10410029 -0.0827338 -0.16399762 -0.074530356
-0.111823656 0.08349832 0.056730326 -0.3312594 0.11847509 0.49586308 0.21558207 0.34959358
-0.14705183 -0.09988677 0.275667 -0.030718077 -0.20870966 0.30728176 -0.17397012 -0.33912045
-0.00055633625 -0.06965059 0.24101403 -0.24706395 -0.043689992 -0.09745226 -0.056610886 0.034333196
0.3497689 0.09965361 -0.007025521 -0.41256216 -0.14248002 -0.048197277 -0.5665594 -0.05495504
-0.586701 -0.533792 0.3870367 0.017341707 -0.19320597 -0.22859968 -0.010567007 -0.20639563
0.008341487 -0.23783138 -0.22280231 0.031576853 -0.018996824 0.17036466 -0.0027750703 0.1510268
0.10901796 -0.28524187 -0.2074185 0.020851674 -0.09318347 0.03793214 -0.060153037 -0.14368263
-0.081581116 -0.214059 -0.25206944 0.6728185 -0.16491881 -0.16982938 -0.15126115 -0.049168643
-0.03603789 0.07294684 0.07977227 0.19715236 0.23476064 0.043568324 0.03327322 -0.12688407
0.31461787 -0.19757809 -0.14029159 -0.08055652 -0.19349782 -0.039679732 0.3861877 -0.016348032
0.00025343482 -0.1526087 0.21778128 -0.2109018 -0.17076893 0.069066554 -0.15734202 -0.15094951
-0.123578005 0.16858383 -0.2790535 -0.02809483 -0.03051741 0.14524204 0.35629293 0.15568045
-0.18116029 0.28443298 0.36656672 0.08990164 -0.10264875 0.012049633 -0.1600525 -0.41678628
-0.43065172 -0.12703978 0.27320403 -0.22296304 0.30007336 -0.22793557 0.27006793 0.012578649
-0.45980036 -0.0662834 0.464575 0.13224079 -0.57105714 -0.5614201 0.02375665 0.46382543
-0.20666903 -0.16457194 0.047344703 0.16120365 0.14882915 0.021688296 -0.5302428 0.04864977
0.2921659 0.05525624 -0.19368929 0.02475261 0.21831238 -0.26276615 -0.13722242 -0.43175858
-0.2932704 0.18025629 0.21684368 0.055905856 -0.11432285 -0.03187794 0.04597027 -0.024933934
0.3426594 -0.16901772 -0.14385718 -0.19257922 0.05839774 0.14791495 -0.31305662 0.22192608
-0.17585588 0.22121827 0.23196933 -0.19077675 0.08047111 -0.26137167 0.03420137 -0.08772911
-0.07187336 -0.27257723 -0.23484783 0.005794468 0.055995774 -0.06491175 -0.21694005 0.11426189
-0.21867253 -0.29570782 -0.30955204 0.15139619 0.46698144 0.42479286 0.071629554 0.3204977
0.7056052 0.1355194 -0.06936987 0.101827316 -0.052076872 -0.029992497 -0.115210086 0.15727769
-0.114738084 -0.6366758 -0.27590084 -0.17666188 0.14010248 0.06948903 -0.04678714 -0.04439016
0.21799423 -0.2396029 0.060512073 0.62206334 -0.268923 -0.19686815 0.045716614 0.12144186
00000000: c743 77be d5cb e5be fd66 05bf 77b1 c1be
00000010: 2b24 03bf 2a99 8fbe e4ee 56be 6837 65be
00000020: 35e2 bcbe 718c 8e3e 84cb b23e 3fde 243f
00000030: 132e 6e3e 29d3 ed3d 9417 ec3e 7780 11be
00000040: 8aba 7bbe 9ba7 bf3e 6d0f 84be a456 093e
00000050: 912d 2ebd a12b f33d db35 e2bd 8d66 ed3d
00000060: f0a3 893e e857 6e3f cc5e d33e 37b8 123d
00000070: 893d 14be 9775 2a3e 03c9 9d3d 6664 bc3d
00000080: 13a4 243e 8757 1a3e cac7 bb3e 122d 8b3d
00000090: ad15 cdbd e48a 86be 0352 b9be a188 8c3e
000000a0: eaa3 653e 2bd4 49be c6f0 3f3e e0a8 993e
000000b0: 7c45 173e dbd5 403c 860a 8dbc 4df5 283e
000000c0: 8375 af3c 890a 863e ee75 08be 388d 52bc
000000d0: 8832 d53d 5770 a9bd feee 27be 5fa3 98bd
000000e0: cd03 e5bd 2b01 ab3d 0f5e 683d d59a a9be
000000f0: 11a3 f23d c4e1 fd3e 8cc1 5c3e eefd b23e
00000100: c194 16be 6f91 ccbd 3a24 8d3e 7aa4 fbbc
00000110: fcb7 55be 0954 9d3e 3925 32be 32a1 adbe
00000120: 18d7 11ba f8a4 8ebd 62cc 763e 55fe 7cbe
00000130: 47f4 32bd 0d95 c7bd d1e0 67bd f7a0 0c3d
00000140: e914 b33e 3117 cc3d 5736 e6bb 593b d3be
00000150: 48e6 11be 826a 45bd 090a 11bf 8918 61bd
00000160: 0932 16bf 98a6 08bf ad29 c63e 3210 8e3c
00000170: c9d7 45be 0916 6abe 3d21 2dbc 6059 53be
00000180: bbaa 083c 128a 73be 4a26 64be bb56 013d
00000190: 3a9f 9bbc 1374 2e3e f4dd 35bb c5a6 1a3e
000001a0: cf44 df3d 390b 92be 8465 54be 21d1 aa3c
000001b0: fad6 bebd bb5e 1b3d 0863 76bd 8a21 13be
000001c0: 0014 a7bd 4832 5bbe 3f0f 81be d53d 2c3f
000001d0: 7ae0 28be c1e7 2dbe 34e4 1abe 0f65 49bd
000001e0: 779c 13bd 2765 953d a55f a33d 4fe2 493e
000001f0: 1865 703e b374 323d 8049 083d e6ed 01be
00000200: 9815 a13e e951 4abe 99a8 0fbe d1fa a4bd
00000210: 4b24 46be 3787 22bd 65ba c53e 4fec 85bc
00000220: 72df 8439 7445 1cbe 0e02 5f3e a4f6 57be
00000230: 0dde 2ebe c472 8d3d 441e 21be 8292 1abe
00000240: 7716 fdbd 3da1 2c3e 1ae0 8ebe 2127 e6bc
00000250: a6ff f9bc 54ba 143e 076c b63e b26a 1f3e
00000260: 1582 39be 33a1 913e a2ae bb3e 5a1e b83d
00000270: 8239 d2bd d36b 453c cde4 23be 0365 d5be
00000280: 627e dcbe b716 02be 66e1 8b3e 6c50 64be
00000290: 37a3 993e f167 69be 5846 8a3e ae16 4e3c
000002a0: f46a ebbe 97bf 87bd c6dc ed3e 216a 073e
000002b0: cd30 12bf 3ab9 0fbf 4e9d c23c 877a ed3e
000002c0: 0ca1 53be 8c85 28be 85ec 413d 9212 253e
000002d0: ab66 183e a7ab b13c febd 07bf fb44 473d
000002e0: c596 953e 5e54 623d 7c56 46be fcc5 ca3c
000002f0: 488d 5f3e 4989 86be 0984 0cbe 760f ddbe
00000300: 8a27 96be 1b95 383e 450c 5e3e 8afd 643d
00000310: 1922 eabd 7192 02bd 524b 3c3d 4042 ccbc
00000320: 0e71 af3e fb12 2dbe 4c4f 13be 7d33 45be
00000330: 7832 6f3d 0477 173e f548 a0be 9740 633e
00000340: 9013 34be 0b87 623e 5e89 6d3e fb5a 43be
00000350: 0ace a43d 82d2 85be bc16 0c3d 52ab b3bd
00000360: 5732 93bd 3e8f 8bbe f37b 70be 85df bd3b
00000370: d35b 653d 74f0 84bd 8825 5ebe 2302 ea3d
00000380: b1eb 5fbe 0467 97be 9b7d 9ebe 9a07 1b3e
00000390: 3118 ef3e 737e d93e 84b2 923d 4618 a43e
000003a0: 8ba2 343f 99c5 0a3e ca11 8ebd d78a d03d
000003b0: 8f4e 55bd d3b2 f5bc 44f3 ebbd 670d 213e
000003c0: cdfb eabd 2ffd 22bf e042 8dbe dae6 34be
000003d0: 0677 0f3e 4450 8e3d dfa3 3fbd 75d2 35bd
000003e0: e139 5f3e 765a 75be 82db 773d 8b3f 1f3f
000003f0: 47b0 89be ce97 49be 5841 3b3d 83b6 f83d

conv_layer.4.bias f4 [16]
-0.07803853 0.07725876 -0.048998624 -0.03486265 0.027646974 -0.034812927 0.00876592 -0.076452754
-0.037817907 0.007215733 0.07598099 0.010649704 -0.052478604 -0.007118188 -0.036634635 -0.012101963
00000000: aad2 9fbd d739 9e3d c8b2 48bd 23cc 0ebd
00000010: e87b e23c 0098 0ebd ef9e 0f3c 4393 9cbd
00000020: f3e6 1abd f571 ec3b ec9b 9b3d 197c 2e3c
00000030: cef3 56bd b03f e9bb 330e 16bd 5047 46bc

conv_layer.5.weight f4 [16]
1.1727129 1.0468119 1.3679212 1.1035937 2.291413 2.0146363 1.1705692 1.312609
1.0781152 1.4493965 0.99245226 1.4494916 1.2977475 1.1878687 1.6255612 1.1756103
00000000: 751b 963f effd 853f 0b18 af3f 8f42 8d3f
00000010: 83a6 1240 cdef 0040 36d5 953f 9203 a83f
00000020: aeff 893f d385 b93f 5a11 7e3f f188 b93f
00000030: 971c a63f 150c 983f 6412 d03f 667a 963f

conv_layer.5.bias f4 [16]
-0.7105176 -0.604831 -0.75310284 -0.7000093 -1.6659737 -1.4983476 -0.42812634 -0.711235
-0.4553036 -1.0238168 -0.28557655 -0.7790436 -0.7062444 -0.5577568 -1.2089679 -0.76504785
00000000: 7be4 35bf 34d6 1abf 59cb 40bf cf33 33bf
00000010: a03e d5bf dbc9 bfbf 6033 dbbe 7f13 36bf
00000020: 8e1d e9be 6e0c 83bf 1737 92be 676f 47bf
00000030: 6fcc 34bf 26c9 0ebf 76bf 9abf 2dda 43bf

conv_layer.5.running_mean f4 [16]
-0.22455683 0.15844537 -2.9929569 -1.1143486 -3.2840955 -3.570998 -2.52431 -0.25976226
-0.23560882 -1.4010425 -0.5284818 -1.4113687 -2.1882648 -0.7226159 -2.530004 0.15354699
00000000: 3af2 65be 813f 223e 9b8c 3fc0 faa2 8ebf
00000010: 9f2e 52c0 3b8b 64c0 4c8e 21c0 8fff 84be
00000020: 7043 71be 5c55 b3bf 954a 07bf bba7 b4bf
00000030: 880c 0cc0 5bfd 38bf 96eb 21c0 6c3b 1d3e

conv_layer.5.running_var f4 [16]
5.116527 4.180452 5.362995 4.3168874 14.014092 9.060379 6.810268 5.440983
4.583258 5.5476317 5.774208 7.7556505 6.6406217 4.5136414 6.2155337 4.0834227
00000000: 97ba a340 43c6 8540 a89d ab40 f123 8a40
00000010: b939 6041 50f7 1041 b7ed d940 881c ae40
00000020: 0daa 9240 3386 b140 50c6 b840 4a2e f840
00000030: f97f d440 c06f 9040 a7e5 c640 66ab 8240

fc_layer.0.weight f4 [10, 1024]
0.026131397 0.088166475 0.10677234 -0.1065959 0.06278442 -0.0963937 -0.21470253 0.13988215
0.079880364 0.051761705 0.03468625 0.033137906 0.06496298 0.09102195 -0.20623991 0.06614928
0.23394318 -0.030617064 0.08936952 -0.04772579 -0.14077944 0.21854377 -0.10658967 0.3674266
0.14726514 0.21154559 0.08262087 -0.059661012 0.13900116 0.16107605 0.116562866 0.29557946
0.17246985 0.2514413 -0.0030774793 0.007062926 -0.07642317 0.18377033 0.102316715 0.18195793
0.18287657 0.06705783 0.061323166 -0.037592255 -0.08299833 0.13647944 0.07853052 0.043844394
-0.20135474 0.022602258 -0.011383133 -0.2402909 -0.041556112 -0.07749006 0.13181634 0.0029601618
0.03409711 -0.20802408 0.12777796 -0.20132229 -0.19990103 -0.009652033 0.047739044 -0.05715679
-0.20998067 -0.21573628 -0.08832739 -0.055249766 -0.0017724328 -0.42462245 -0.46630862 2.2163778e-05
-0.06381625 0.049176708 0.2020539 0.05295213 0.07227626 -0.047238942 0.028788377 -0.27977857
0.18208218 0.14407234 0.0048077675 -0.06999133 0.021835966 -0.09613472 -0.081088714 -0.1570659
0.2513715 0.262372 -0.028473664 -0.038408883 -0.022699252 -0.018619178 0.018839886 -0.09690103
0.12920044 -0.009156377 -0.010363525 0.057037503 -0.24225536 -0.14257044 -0.0034991154 -0.24584003
-0.19064315 -0.121639796 -0.084082074 -0.011621365 -0.104323305 0.019087706 -0.118257836 -0.269698
-0.07106356 -0.24268791 0.09679965 0.016393118 0.17150621 0.041593462 0.13710172 -0.05615691
0.07177682 0.118379116 -0.023122014 0.09261533 0.010154804 0.02875008 0.12997805 0.11045036
0.0025963476 -0.08665287 0.14150402 -0.027280575 -0.25344673 -0.095023416 -0.19780451 -0.042921174
-0.18255723 -0.23761432 0.19627072 0.116167 -0.08518035 0.016386611 -0.1118409 0.18048926
-0.2370283 -0.0370145 -0.0038248098 -0.11621489 0.07269689 -0.027766677 0.11182765 -0.12079543
0.19913279 -0.003570069 -0.09924147 0.07802672 -0.034636464 0.10426096 -0.23318681 -0.006685742
0.105658926 -0.2858593 0.06688945 0.011592539 0.0101222815 0.06285718 0.17002611 0.062374946
0.24012102 -0.13168827 -0.08806166 0.2106868 -0.06452494 0.0006532763 -0.17088336 0.12844938
0.12082987 0.016370581 0.2308153 0.18221082 -0.112069294 -0.22871642 -0.06705842 -0.009981932
-0.32770413 0.014875598 0.18124335 -0.0028377932 0.09068898 0.040840093 0.010605721 -0.22367619
0.20914225 -0.35763788 -0.08359881 -0.10492987 0.019786354 0.1184266 0.14537229 -0.12342333
-0.118580244 -0.04239712 -0.070532545 -0.056628175 -0.0154261775 0.09261733 0.13393341 0.09268393
-0.038269702 -0.05663163 0.01625612 -0.086567245 -0.029857121 0.08145267 0.19605896 -0.026764913
-0.019569028 0.17283706 0.11302225 0.017365113 0.02526768 0.070098974 0.052921344 0.017758766
0.12429679 0.22562829 -0.016174529 0.2110637 0.03468918 0.09412439 0.20985708 -0.009346092
0.1488857 0.096443035 0.14433005 -0.0737187 -0.07363578 0.00595558 -0.11726266 0.04622262
0.07418401 0.16865504 0.11497167 0.17271043 0.024393972 0.13418548 -0.14326246 0.05046508
0.21413444 -0.086659804 -0.13316257 0.12859939 0.21511531 0.45758075 -0.032769375 -0.024269244
00000000: 8311 d63c a090 b43d 75ab da3d f44e dabd
00000010: 1e95 803d 0f6a c5bd fbda 5bbe 443d 0f3e
00000020: 5198 a33d 1504 543d 2b13 0e3d 9dbb 073d
00000030: 500b 853d b769 ba3d 8e30 53be 4679 873d
00000040: cd8e 6f3e a3d0 fabc 5e07 b73d 1e7c 43bd
00000050: 7c28 10be f0c9 5f3e af4b dabd 571f bc3e
00000060: accc 163e 689f 583e 2135 a93d 1b5f 74bd
00000070: 5256 0e3e 1ff1 243e 83b8 ee3d 3156 973e
00000080: f09b 303e eabc 803e 89af 49bb 1e70 e73b
00000090: c083 9cbd 4a2e 3c3e 6d8b d13d 2e53 3a3e
000000a0: ff43 3b3e 9e55 893d 002e 7b3d 56fa 19bd
000000b0: 07fb a9bd 44c1 0b3e 9cd4 a03d 2e96 333d
000000c0: f02f 4ebe 5f28 b93c 5280 3abc d10e 76be
000000d0: be36 2abd 1cb3 9ebd ddfa 063e 46ff 413b
000000e0: 69a9 0b3d 4404 55be 3ad8 023e 6e27 4ebe
000000f0: dbb2 4cbe 9023 1ebc 048a 433d 3d1d 6abd
00000100: 2c05 57be f9e9 5cbe fee4 b4bd 944d 62bd
00000110: fa50 e8ba 1d68 d9be 01c0 eebe 5aec b937
00000120: 18b2 82bd 846d 493d 38e7 4e3e 55e4 583d
00000130: 9305 943d 9f7d 41bd 9ad5 eb3c 233f 8fbe
00000140: c073 3a3e b387 133e 7a8a 9d3b 9d57 8fbd
00000150: 57e1 b23c 48e2 c4bd d711 a6bd e2d5 20be
00000160: c4b3 803e 9f55 863e 9a41 e9bc a252 1dbd
00000170: c8f3 b9bc 3f87 98bc 1b56 9a3c 0c74 c6bd
00000180: 1f4d 043e a104 16bc c6cb 29bc 28a0 693d
00000190: ca11 78be fcfd 11be 6a51 65bb 7dbd 7bbe
000001a0: f537 43be 491e f9bd 3933 acbd 8a67 3ebc
000001b0: 75a7 d5bd d25d 9c3c 2a31 f2bd db15 8abe
000001c0: c689 91bd 2e83 78be e53e c63d dc4a 863c
000001d0: 539f 2f3e e85d 2a3d 6564 0c3e ca04 66bd
000001e0: baff 923d c070 f23d 616a bdbc 1bad bd3d
000001f0: 5660 263c 4a85 eb3c f718 053e cc33 e23d
00000200: 7c27 2a3b 0f77 b1bd 6ee6 103e 837b dfbc
00000210: c5c3 81be a39b c2bd 448d 4abe 1dce 2fbd
00000220: 48f0 3abe 2b51 73be 31fb 483e f7e8 ed3d
00000230: 0973 aebd 373d 863c d70c e5bd 2dd2 383e
00000240: 8cb7 72be 849c 17bd a9a9 7abb 1202 eebd
00000250: 1be2 943d f176 e3bc e505 e53d 9863 f7bd
00000260: 77e9 4b3e d2f7 69bb 1d3f cbbd 79cc 9f3d
00000270: f7de 0dbd c586 d53d 86c8 6ebe 1214 dbbb
00000280: b563 d83d 265c 92be 56fd 883d a2ee 3d3c
00000290: edd7 253c 44bb 803d 531b 2e3e df7c 7f3d
000002a0: 49e2 753e 4ad9 06be ac59 b4bd 48be 573e
000002b0: a725 84bd a140 2b3a 0cfc 2ebe 3c88 033e
000002c0: a775 f73d 991b 863c d95a 6c3e 7995 3a3e
000002d0: 9684 e5bd a334 6abe ed55 89bd 428b 23bc
000002e0: d6c8 a7be c8b8 733c db97 393e 45fa 39bb
000002f0: 25bb b93d f147 273d 9ec3 2d3c 5f0b 65be
00000300: 6329 563e 501c b7be da35 abbd 79e5 d6bd
00000310: fe16 a23c a589 f23d 79dc 143e 5fc5 fcbd
00000320: 33da f2bd 9aa8 2dbd 5e73 90bd f2f2 67bd
00000330: 14be 7cbc 28ae bd3d d725 093e 13d1 bd3d
00000340: b1c0 1cbd 91f6 67bd 8e2b 853c 2b4a b1bd
00000350: ec96 f4bc a8d0 a63d aec3 483e 1742 dbbc
00000360: 3a4f a0bc 33fc 303e 3678 e73d 4841 8e3c
00000370: 2afe ce3c 0d90 8f3d 0dc4 583d d57a 913c
00000380: 518f fe3d 1a0b 673e 7280 84bc 1521 583e
00000390: 3e16 0e3d 4ac4 c03d c6e4 563e 5a20 19bc
000003a0: 7e75 183e ed83 c53d 42cb 133e d4f9 96bd
000003b0: 5bce 96bd 0727 c33b 6827 f0bd ee53 3d3d
000003c0: c9ed 973d e8b3 2c3e 4476 eb3d 01db 303e
000003d0: ded5 c73c eb67 093e 65b3 12be 79b4 4e3d
000003e0: 0f46 5b3e b27a b1bd c55b 08be 8faf 033e
000003f0: 3047 5c3e 0648 ea3e 2e39 06bd 4bd0 c6bc

fc_layer.0.bias f4 [10]
-0.51426166 -0.3880217 -0.51933664 0.70216084 0.8513196 -0.12181445 0.20774417 -0.5069457
0.24821225 0.13889402
00000000: a7a6 03bf c8aa c6be 3ff3 04bf d0c0 333f
00000010: 15f0 593f db79 f9bd e3ba 543e 32c7 01bf
00000020: 5a2b 7e3e 3c3a 0e3e
